examples/7. ModelTest/7-3. Regression/Models/LSTM_rg/CLUST/Electronics/91bdf62f28aed66ed66131a647714e06_3923db46bf38313b935c61b7e06ee186/ff29d441f0e3495200ba5ab86124700a/model.pt (torch, 587055 bytes, 17 tensors)

rnn.weight_ih_l0 f4 [256, 24]
0.11533577 0.12414146 -0.004729737 0.13388866 -0.014112227 0.058748618 -0.03880923 0.093384065
0.13459165 -0.060577903 0.13519076 0.06800517 0.11395772 0.023961395 0.08105963 -0.008474449
0.10684165 0.020252388 -0.03547192 0.05459039 -0.038363703 -0.0022591709 -0.028953623 0.10811633
-0.07174957 -0.027137918 -0.008181407 -0.048805825 0.03753943 -0.097626194 0.14116068 -0.082285896
0.1112985 0.033410266 -0.015446069 0.06871927 0.047453113 0.12026586 0.04528208 -0.015003857
0.047027104 -0.0018524876 0.08312998 0.13558766 0.10602419 -0.02436034 0.09291154 0.045298733
0.06813423 -0.07279432 -0.12109738 -0.047044147 -0.09744819 0.10967098 0.03753992 0.052535534
0.05021146 0.007914049 0.09652605 -0.062208682 0.0109671485 -0.08696861 0.03733242 -0.040361974
0.044578455 -0.030896349 0.10267455 -0.067320734 -0.07903878 -0.07606842 0.11307048 0.040315658
0.16325368 -0.0584077 -0.09685005 -0.056377776 -0.052828144 0.08764832 0.07361867 0.12591007
-0.02681947 -0.07268006 0.06523581 -0.012265946 0.0794928 -0.02144431 0.09198051 -0.07640037
-0.04574993 0.049515646 0.04425964 -0.014807954 0.096080676 0.10433571 -0.085158676 -0.036359772
0.1521802 -0.0019270338 0.012763901 -0.05821697 -0.014746865 0.10710531 0.041768733 -0.03565168
0.06425328 -0.042519864 -0.06426191 -0.031184234 -0.09172178 -0.06605728 0.15179804 0.05851411
0.051042914 -0.110628285 -0.006019471 0.001156031 0.04859233 -0.08537113 -0.027407466 -0.03067356
0.006743265 -0.04239062 0.0016552204 -0.07290527 -0.07893789 -0.05827692 -0.04154397 -0.0939858
0.11973384 -0.0043252762 0.12059572 0.07000739 -0.10539166 0.096731484 -0.03212344 -0.032146152
-0.09035659 -0.12072746 0.050256975 -0.025444964 0.050892472 -0.10425729 0.09633414 -0.093154944
-0.0073386063 0.03701021 0.08794808 0.12258947 0.1344057 -0.06412989 0.047578156 -0.03547838
0.013269522 -0.0698906 0.13313058 -0.061550003 0.06914815 0.04563455 0.04176831 -0.061735082
0.120293245 0.02090427 0.035908505 -0.0937144 0.0519977 -0.019837458 -0.054575294 0.112159096
0.06830005 -0.024962699 -0.019326169 0.034597464 0.14147182 0.022384124 -0.03433769 -0.008560904
-0.048718203 0.086228766 0.13351555 -0.06749191 0.05460479 0.08353771 0.06010617 -0.0029306372
0.09581095 0.09241336 0.116502665 0.038633134 -0.004066206 0.048371773 0.012472723 -0.0034215916
0.09029595 0.12037132 -0.011048092 -0.013720413 0.032593373 0.009909552 0.034330912 0.043901127
-0.10494495 -0.039013438 0.11134811 0.06370468 -0.018772146 -0.058191825 -0.06804369 -0.098106384
-0.020075751 0.05168907 0.07924327 0.071222 -0.1025714 -0.06718018 -0.0049605123 0.14589703
0.033635862 -0.014370547 0.05111337 -0.05199609 -0.07644152 0.0970519 -0.058454055 -0.032489195
-0.13692045 0.08951307 0.09739069 0.036969658 -0.058000557 -0.12127216 -0.10462111 0.11382954
0.085091434 0.13415512 0.04101755 0.056409992 -0.010183896 -0.08855917 -0.0946279 -0.13193968
0.06828206 -0.04162228 -0.015214667 -0.056124307 0.0034504514 -0.05389852 -0.06815958 0.053385735
-0.019248277 0.084649004 -0.042089067 -0.0738476 -0.022830566 -0.059646893 -0.027681459 -0.1097293
00000000: 2935 ec3d e13d fe3d e9fb 9abb 1c1a 093e
00000010: f836 67bc 64a2 703d 6df6 1ebd 2540 bf3d
00000020: 65d2 093e 8920 78bd 726f 0a3e 4b46 8b3d
00000030: aa62 e93d b04a c43c 9702 a63d 6ad8 0abc
00000040: cccf da3d 56e8 a53c 014b 11bd 2c9a 5f3d
00000050: 4223 1dbd 990e 14bb 2630 edbc 186c dd3d
00000060: 70f1 92bd 5750 debc 4f0b 06bc 9ee8 47bd
00000070: f2c2 193d 3ef0 c7bd 6d8c 103e 8285 a8bd
00000080: 78f0 e33d 34d9 083d 8211 7dbc b0bc 8c3d
00000090: 325e 423d f24d f63d b479 393d bdd2 75bc
000000a0: 7e9f 403d 2bcf f2ba 0d40 aa3d 7ed7 0a3e
000000b0: 3623 d93d 568f c7bc 6848 be3d 2a8b 393d
000000c0: f689 8b3d 3015 95bd e701 f8bd 5db1 40bd
000000d0: eb92 c7bd 2e9b e03d 76c3 193d 802f 573d
000000e0: 88aa 4d3d eda9 013c 73af c53d 88ce 7ebd
000000f0: 8eaf 333c 991c b2bd e1e9 183d 9952 25bd
00000100: e697 363d 571a fdbc 0947 d23d 74df 89bd
00000110: 15df a1bd c3c9 9bbd 7f91 e73d 0822 253d
00000120: f92b 273e ea3c 6fbd 5259 c6bd 62ec 66bd
00000130: 5362 58bd f680 b33d 63c5 963d 92ee 003e
00000140: 81b4 dbbc 49d9 94bd 5a9a 853d 1bf7 48bc
00000150: 1fcd a23d faab afbc 4760 bc3d cc77 9cbd
00000160: 4764 3bbd ebd0 4a3d 9949 353d 109d 72bc
00000170: f2c5 c43d f6ad d53d ac67 aebd fced 14bd
00000180: 20d5 1b3e 8694 fcba ae1f 513c eb74 6ebd
00000190: d69c 71bc 075a db3d b115 2b3d 7f07 12bd
000001a0: 3997 833d 4f29 2ebd c09b 83bd 1476 ffbc
000001b0: a1d8 bbbd 0a49 87bd f270 1b3e 7eac 6f3d
000001c0: 6012 513d 1591 e2bd fc3e c5bb f785 973a
000001d0: c008 473d 0fd7 aebd 9f85 e0bc 1e47 fbbc
000001e0: 9bf6 dc3b c9a1 2dbd fbf3 d83a 5c4f 95bd
000001f0: 30aa a1bd c8b3 6ebd 032a 2abd a17b c0bd
00000200: 0437 f53d 0cbb 8dbb e4fa f63d 0960 8f3d
00000210: 95d7 d7bd 281b c63d de93 03bd afab 03bd
00000220: e00c b9bd f53f f7bd 42da 4d3d f571 d0bc
00000230: a074 503d d984 d5bd d54a c53d 05c8 bebd
00000240: b178 f0bb 0598 173d 1f1e b43d 3010 fb3d
00000250: a6a1 093e 8856 83bd 50e1 423d c751 11bd
00000260: 6968 593c ce22 8fbd 6253 083e db1b 7cbd
00000270: 8c9d 8d3d 4beb 3a3d 3f15 2b3d eddd 7cbd
00000280: 4e5c f63d 6e3f ab3c cc14 133d 56ed bfbd
00000290: 8afb 543d 2a82 a2bc 588a 5fbd abb3 e53d
000002a0: e6e0 8b3d 937e ccbc ea51 9ebc 12b6 0d3d
000002b0: fddd 103e e95e b73c ada5 0cbd 0943 0cbc
000002c0: bd8c 47bd b598 b03d 4db8 083e 3339 8abd
000002d0: 46a9 5f3d d215 ab3d e331 763d ef0f 40bb
000002e0: 8838 c43d 3743 bd3d f398 ee3d c73d 1e3d
000002f0: cf3d 85bb 7b21 463d 645a 4c3c c83c 60bb
00000300: 15ed b83d 3d85 f63d 0e03 35bc 95cb 60bc
00000310: a180 053d ac5b 223c 929e 0c3d abd1 333d
00000320: 61ed d6bd 8ecc 1fbd 7a0a e43d 9977 823d
00000330: 0bc8 99bc 8d5a 6ebd 7d5a 8bbd 00ec c8bd
00000340: e775 a4bc ebb7 533d 4c4a a23d d7dc 913d
00000350: f410 d2bd c395 89bd cb8b a2bb 0866 153e
00000360: c2c5 093d 7172 6bbc 415c 513d daf9 54bd
00000370: 5f8d 9cbd 26c3 c63d 856d 6fbd 6413 05bd
00000380: e034 0cbe a152 b73d c574 c73d 7f6d 173d
00000390: fe91 6dbd 8a5d f8bd 9843 d6bd 761f e93d
000003a0: 6b44 ae3d f65f 093e 0502 283d 2a0e 673d
000003b0: 5bda 26bc 835e b5bd 46cc c1bd 321b 07be
000003c0: 77d7 8b3d 207c 2abd f046 79bc 9ae2 65bd
000003d0: f820 623b b2c4 5cbd 4097 8bbd 00ab 5a3d
000003e0: 90ae 9dbc 755c ad3d 9665 2cbd 693d 97bd
000003f0: 2b07 bbbc 4d50 74bd 3ac4 e2bc c1b9 e0bd

rnn.weight_hh_l0 f4 [256, 64]
-0.136694 0.004529111 -0.047549795 0.12422614 -0.16806859 0.031175911 0.08535158 0.040896244
-0.012144313 0.15095085 -0.11491833 0.14167418 0.056853972 0.029691825 0.07305335 0.0020023803
-0.020998292 -0.0512234 -0.12941442 0.078983776 0.075362675 0.020453822 -0.06507928 -0.08811311
-0.030409731 0.031035203 -0.12832306 0.12362122 -0.010787928 0.057490658 0.08133601 0.049355585
-0.03655751 0.07905468 0.052767396 0.10535593 -0.020932548 0.05418293 -0.09270198 -0.05388335
-0.062100004 0.09871667 0.13196813 -0.1472509 -0.064214185 -0.082545504 -0.1673657 0.07923863
-0.11027663 -0.039989624 -0.15910333 -0.03484065 -0.06521432 -0.084190555 0.092933245 0.0717804
0.025604252 0.12684882 -0.0025147062 0.0053885756 -0.09625322 0.061109565 -0.12133897 0.023104297
-0.06732226 -0.1051976 -0.10603151 -0.058289967 -0.049053725 -0.04640882 -0.017871713 -0.11491752
0.12891203 0.07517841 -0.15805995 -0.09552833 -0.032517727 0.027949564 0.08166315 -0.005412106
0.057219643 -0.089462 -0.050895147 0.037629776 -0.16182558 -0.02342667 0.00277714 0.100914836
-0.12026511 -0.07643931 -0.011233582 0.024700548 0.04005758 -0.14604314 0.06963868 -0.11696771
-0.021147015 0.077497266 -0.043948837 -0.06599117 -0.10877483 0.078471825 -0.06372662 0.044569515
0.035630737 -0.0631381 -0.0124514885 0.06056216 -0.07066086 -0.08664211 0.119456485 -0.054276217
-0.028360192 -0.043999575 0.050957445 0.0003892155 -0.07118082 -0.069355465 0.014887706 -0.009832236
0.042171504 0.0138253495 -0.06871215 -0.035116028 -0.012735497 0.09308224 0.08353971 0.031044368
-0.1024531 0.095135264 0.10365942 0.10018111 -0.024257418 0.03511021 0.012453277 -0.051317453
-0.12956917 -0.017042566 0.06077414 0.07459683 0.026995532 0.049302857 0.083898135 -0.039434966
0.07312333 -0.0065602944 -0.047309987 -0.071320295 -0.06985033 -0.10007986 0.020226723 0.11798656
0.013895693 0.032901373 -0.057909526 -0.03701948 -0.051854607 0.057806708 0.019169906 -0.034536753
0.029332152 -0.017954513 -0.017076408 0.10953642 -0.03775483 0.12745078 -0.040724523 0.10222967
0.05452374 0.052184626 -0.030789677 -0.036510337 -0.09405709 -0.12351385 0.049538296 0.10257863
0.041547395 -0.038122278 0.013922873 -0.014753417 -0.10647193 -0.12157296 0.051102992 -0.039273135
-0.034028806 -0.07024921 0.052250408 -0.05783216 -0.063948385 0.067140065 0.11105125 0.11166816
0.01051489 -0.016322022 0.07205683 0.11727807 0.08331228 0.059837338 0.05838035 -0.016553769
0.088108465 0.06402702 -0.109327465 -0.04894459 -0.10634575 -0.052702613 -0.027246647 -0.044287097
-0.13306843 -0.09784072 0.023452317 -0.028408574 -0.053772934 -0.0027128507 -0.07271711 -0.054905724
-0.077841915 -0.05140619 -0.15316796 -0.11880309 -0.03652746 0.024182908 0.099371776 -0.013373152
0.10451367 0.04696095 -0.11330452 -0.06749588 -0.008661704 -0.098472275 -0.015373218 0.00882109
-0.08128833 0.0006880879 -0.06527312 0.10196072 0.041694354 -0.07742732 0.034834046 -0.120252535
0.057991553 -0.021995362 -0.008470906 0.037672956 0.07516165 -0.009885057 -0.048637733 0.030953716
0.0871937 0.008861666 -0.062217273 0.025130466 -0.057111252 -0.027773479 -0.0126506295 0.10979478
00000000: 83f9 0bbe f068 943b 93c3 42bd 466a fe3d
00000010: 2c1a 2cbe a064 ff3c cfcc ae3d d282 273d
00000020: f1f8 46bc dc92 1a3e 4d5a ebbd 0913 113e
00000030: b6df 683d 453c f33c ff9c 953d 5e3a 033b
00000040: 9c04 acbc a1cf 51bd 3785 04be 3fc2 a13d
00000050: bf57 9a3d c68e a73c 4948 85bd a574 b4bd
00000060: d41d f9bc 8a3d fe3c 1f67 03be 1f2d fd3d
00000070: d9bf 30bc 537b 6b3d 7e93 a63d 1529 4a3d
00000080: 54bd 15bd 6ce7 a13d a022 583d dac4 d73d
00000090: bc7a abbc ecee 5d3d 89da bdbd cab4 5cbd
000000a0: 935c 7ebd f72b ca3d a722 073e f1c8 16be
000000b0: ba82 83bd 9e0d a9bd ea61 2bbe dd47 a23d
000000c0: b7d8 e1bd 29cc 23bd fceb 22be 12b5 0ebd
000000d0: 168f 85bd 196c acbd c953 be3d 9a01 933d
000000e0: 02c0 d13c a8e4 013e c5cd 24bb a692 b03b
000000f0: 6920 c5bd 064e 7a3d 9180 f8bd 3945 bd3c
00000100: 41e0 89bd d771 d7bd 0c27 d9bd 76c1 6ebd
00000110: 8fec 48bd 2d17 3ebd b367 92bc e059 ebbd
00000120: 8401 043e 23f7 993d 78da 21be 5ba4 c3bd
00000130: 4f31 05bd 7cf6 e43c 023f a73d 0958 b1bb
00000140: 255f 6a3d da37 b7bd 6e77 50bd ae21 1a3d
00000150: 9bb5 25be 4ae9 bfbc ad00 363b 70ac ce3d
00000160: 8e4d f6bd 378c 9cbd 0f0d 38bc ce58 ca3c
00000170: 6b13 243d 558c 15be b99e 8e3d c48c efbd
00000180: 813c adbc e3b6 9e3d b203 34bd 6126 87bd
00000190: 57c5 debd d6b5 a03d 1a83 82bd 868e 363d
000001a0: 89f1 113d 8c4e 81bd 5401 4cbc 0710 783d
000001b0: a4b6 90bd 6b71 b1bd 9aa5 f43d bd50 5ebd
000001c0: a253 e8bc e638 34bd c1b8 503d 9f0f cc39
000001d0: 40c7 91bd 3d0a 8ebd 91eb 733c 6317 21bc
000001e0: 07bc 2c3d b883 623c f5b8 8cbd d3d5 0fbd
000001f0: 8ca8 50bc e7a1 be3d de16 ab3d c250 fe3c
00000200: eed2 d1bd 47d6 c23d 644b d43d c12b cd3d
00000210: 7eb7 c6bc b9cf 0f3d d408 4c3c 4032 52bd
00000220: c8ad 04be da9c 8bbc 4eee 783d 39c6 983d
00000230: bc25 dd3c cbf1 493d c9d2 ab3d 8f86 21bd
00000240: afc1 953d bdf7 d6bb 1ec8 41bd 6010 92bd
00000250: b10d 8fbd abf6 ccbd 83b2 a53c f0a2 f13d
00000260: c3aa 633c 97c3 063d 8a32 6dbd bda1 17bd
00000270: 7f65 54bd bac6 6c3d 350a 9d3c 6976 0dbd
00000280: fb49 f03c 5815 93bc d3e3 8bbc a154 e03d
00000290: cfa4 1abd 7582 023e c2ce 26bd ca5d d13d
000002a0: 4954 5f3d 8cbf 553d a23a fcbc dd8b 15bd
000002b0: 01a1 c0bd d4f4 fcbd abe8 4a3d bf14 d23d
000002c0: 9a2d 2a3d 1b26 1cbd c31c 643c 51b8 71bc
000002d0: f50d dabd 3efb f8bd 5f51 513d dedc 20bd
000002e0: ca61 0bbd d1de 8fbd 8604 563d 6ae1 6cbd
000002f0: 5ff7 82bd bb80 893d d66e e33d 47b2 e43d
00000300: a546 2c3c c3b5 85bc 8892 933d 7c2f f03d
00000310: a19f aa3d ff17 753d 3c20 6f3d c59b 87bc
00000320: 3672 b43d 9920 833d 14e7 dfbd 1f7a 48bd
00000330: cdcb d9bd b2de 57bd 5c34 dfbc 6366 35bd
00000340: 1743 08be b760 c8bd 131f c03c 19b9 e8bc
00000350: 0241 5cbd 15ca 31bb b5ec 94bd d3e4 60bd
00000360: 956b 9fbd 4c8f 52bd 10d8 1cbe 094f f3bd
00000370: d19d 15bd 3c1b c63c 6e83 cb3d 111b 5bbc
00000380: 430b d63d 205a 403d 330c e8bd 483b 8abd
00000390: d2e9 0dbc d5ab c9bd f3df 7bbc 5586 103c
000003a0: 7f7a a6bd cc60 343a eaad 85bd c8d0 d03d
000003b0: b3c7 2a3d 3792 9ebd 25ae 0e3d f646 f6bd
000003c0: 8d88 6d3d 9e2f b4bc 8ec9 0abc f54e 1a3d
000003d0: 5aee 993d eff4 21bc 5c38 47bd a692 fd3c
000003e0: 9c92 b23d 8530 113c 8ad7 7ebd 68de cd3c
000003f0: 7ded 69bd 3585 e3bc 9644 4fbc 16dc e03d

rnn.bias_ih_l0 f4 [256]
-0.08437118 -0.09421736 -0.09700361 -0.032993022 0.07442872 0.109307624 -0.023188286 0.16684012
0.078969605 0.052282088 0.068871565 -0.005506249 -0.018712489 -0.025529869 -0.103226766 -0.035901543
-0.05625319 -0.09292389 -0.07992197 0.1398102 0.03506229 0.1138875 0.09012079 0.053689554
-0.08999182 -0.031282436 0.064704984 0.0407523 -0.08521243 0.1461887 0.107076086 0.058459453
-0.06573449 0.07281169 0.0875714 0.095308915 -0.061830815 0.028464034 -0.07185728 -0.045660276
-0.056566417 0.108589604 -0.050062254 0.044299692 0.001901064 0.000709429 0.08058917 -0.08062483
0.07525704 0.09656405 -0.09061192 0.085564345 -0.009130696 0.04088634 -0.029864358 0.04260794
0.07229714 -0.024630997 -0.10388514 -0.0046292287 0.106545076 -0.10797869 0.104914024 0.011942642
-0.029511688 0.04534079 0.065538816 -0.08816019 -0.053151183 -0.11558921 0.08699083 -0.07185092
0.09614782 0.08282335 0.044916376 0.13096663 -0.0061838436 0.013847104 0.06768992 -0.08056995
0.11693452 -0.035946425 -0.09088871 0.08231466 -0.021223022 0.11857659 -0.0022407575 0.09238029
-0.02328488 -0.06117132 -0.0074101933 0.002305888 0.067280926 0.048604768 -0.054017276 -0.0896895
-0.11242585 0.139906 0.041907955 0.03577531 0.09783922 0.04946822 0.048058815 -0.057194684
-0.075833336 -0.1007428 0.022194404 -0.0116557805 -0.07912209 0.08802605 0.039887574 0.061046176
-0.011096637 -0.03812917 -0.030362517 -0.005663479 -0.02632122 -0.04231766 0.112433866 0.11117343
0.12021899 0.1340299 -0.039058257 0.07720342 -0.019949678 0.12785688 -0.026141329 -0.08146981
-0.061233252 -0.011700363 -0.11622979 0.018043905 -0.0028627666 -0.104974374 0.105095826 -0.040886864
0.1202833 -0.004439425 0.06557321 0.13173075 -0.07993997 0.05665665 0.08623595 0.010738384
-0.122197025 -0.040676154 0.0230438 -0.0889053 0.10641675 -0.07736192 -0.052456085 0.06156243
-0.12132466 0.070949905 -0.011586299 0.010863539 -0.11110798 -0.103658475 -0.09625837 -0.12813057
0.12058324 -0.0363406 0.020553473 0.019139795 -0.05977432 -0.094263956 -0.09747191 0.040064782
-0.01777973 0.067957856 0.09539218 -0.013786511 0.009073307 -0.020775532 -0.10203981 0.08990862
-0.094947495 -0.012125564 0.11842357 -0.042677276 0.035172194 0.085302524 -0.08187891 0.024061143
-0.05397616 -0.07073709 -0.12396835 0.07102861 -0.04564184 0.11498532 0.11492997 0.017959986
0.12796557 -0.0016703038 0.074214146 0.016930522 -0.02735792 -0.053265598 -0.06669654 0.088674106
0.010309384 0.1108841 0.048785374 -0.013011882 -0.0018998096 0.10139057 -0.050474413 0.128219
0.004162003 0.039790034 0.1266925 -0.081470914 0.114316404 0.11647104 0.12368456 0.047955416
-0.029211354 -0.06943415 0.11219922 0.036160562 0.109077744 0.10225115 -0.062174182 0.09340313
0.02086684 -0.09589851 0.029164081 -0.031866014 -0.04401542 -0.01928617 -0.08781805 -0.06350744
0.11808444 -0.059093617 0.01792642 -0.014949446 0.099711165 0.06992379 -0.011360233 0.019600613
-0.045042362 0.018678885 -0.034744844 -0.05605258 -0.027662273 -0.075727075 -0.057787694 0.05628293
-0.018450316 -0.0884099 -0.0775697 -0.053491287 0.10216621 -0.07509113 0.0039323606 0.08263392
00000000: ccca acbd 08f5 c0bd d4a9 c6bd b123 07bd
00000010: 166e 983d addc df3d 5cf5 bdbc 23d8 2a3e
00000020: d1ba a13d be25 563d 890c 8d3d c46d b4bb
00000030: ef4a 99bc 0424 d1bc 8e68 d3bd 7f0d 13bd
00000040: bf69 66bd e14e bebd 21ae a3bd 682a 0f3e
00000050: 7a9d 0f3d d93d e93d 4091 b83d 94e9 5b3d
00000060: a24d b8bd 0322 00bd 0c84 843d e2eb 263d
00000070: db83 aebd 7eb2 153e b54a db3d 2e73 6f3d
00000080: ce9f 86bd 4c1e 953d a258 b33d 5231 c33d
00000090: 4f42 7dbd 682d e93c e929 93bd 4506 3bbd
000000a0: 30b2 67bd 3a64 de3d 140e 4dbd 9873 353d
000000b0: 1f2d f93a f9f8 393a ef0b a53d a21e a5bd
000000c0: 5d20 9a3d 5fc3 c53d be92 b9bd 5c3c af3d
000000d0: ea98 15bc 6f78 273d 19a6 f4bc aa85 2e3d
000000e0: 8610 943d f2c6 c9bc bbc1 d4bd c9b0 97bb
000000f0: 4e34 da3d ee23 ddbd 2add d63d 12ab 433c
00000100: 7fc2 f1bc 44b7 393d 3739 863d 548d b4bd
00000110: 0eb5 59bd 09ba ecbd 4028 b23d 9326 93bd
00000120: 26e9 c43d 4a9f a93d 3cfa 373d 1e1c 063e
00000130: d7a1 cabb f7de 623c 03a1 8a3d dc01 a5bd
00000140: 5e7b ef3d 8f3c 13bd dc23 babd 9794 a83d
00000150: e7db adbc 49d8 f23d acd9 12bb e131 bd3d
00000160: efbf bebc c78e 7abd 35d1 f2bb 621e 173b
00000170: 95ca 893d cb15 473d 3841 5dbd 21af b7bd
00000180: 863f e6bd 8543 0f3e ada7 2b3d 2289 123d
00000190: ee5f c83d 309f 4a3d 52d9 443d f944 6abd
000001a0: 824e 9bbd 3e52 cebd 0ad1 b53c e3f7 3ebc
000001b0: c30a a2bd 0047 b43d 2761 233d 8e0b 7a3d
000001c0: abce 35bc 552d 1cbd d0ba f8bc b594 b9bb
000001d0: 999f d7bc 4855 2dbd ba43 e63d e5ae e33d
000001e0: 6035 f63d 223f 093e 8dfb 1fbd d41c 9e3d
000001f0: 826d a3bc eaec 023e 5726 d6bc a5d9 a6bd
00000200: b8cf 7abd e1b2 3fbc e209 eebd d0d0 933c
00000210: 419d 3bbb cefc d6bd 7b3c d73d fc78 27bd
00000220: 1757 f63d 9978 91bb 3f4b 863d 6de4 063e
00000230: 91b7 a3bd ce10 683d 799c b03d 0cf0 2f3c
00000240: 6f42 fabd 0a9c 26bd 5ac6 bc3c fb13 b6bd
00000250: 06f1 d93d ed6f 9ebd 31dc 56bd e328 7c3d
00000260: 1079 f8bd 2f4e 913d 76d4 3dbc fcfc 313c
00000270: 958c e3bd e54a d4bd 1c23 c5bd a934 03be
00000280: 59f4 f63d e2d9 14bd c25f a83c 0fcb 9c3c
00000290: ebd5 74bd 760d c1bd 5a9f c7bd f81a 243d
000002a0: cca6 91bc 7d2d 8b3d fa5c c33d d1e0 61bc
000002b0: 35a8 143c 7331 aabc 3ffa d0bd 0322 b83d
000002c0: d573 c2bd 4daa 46bc 0f88 f23d 5ece 2ebd
000002d0: b810 103d 17b3 ae3d 21b0 a7bd e01b c53c
000002e0: 1b16 5dbd 9cde 90bd 1ee3 fdbd 7377 913d
000002f0: f0f2 3abd 6c7d eb3d 6760 eb3d d220 933c
00000300: 6809 033e 18ee daba 96fd 973d e1b1 8a3c
00000310: b71d e0bc 072d 5abd 3298 88bd c59a b53d
00000320: b1e8 283c 3417 e33d 2cd3 473d ca2f 55bc
00000330: 0803 f9ba dca5 cf3d 42be 4ebd d74b 033e
00000340: 6961 883b e0fa 223d aebb 013e 39da a6bd
00000350: b81e ea3d 5e88 ee3d 554e fd3d e66c 443d
00000360: a64c efbc 7e33 8ebd b4c8 e53d 191d 143d
00000370: 2764 df3d 0d69 d13d 5baa 7ebd 244a bf3d
00000380: eff0 aa3c 7066 c4bd 83e9 ee3c f085 02bd
00000390: 8349 34bd 08fe 9dbc f3d9 b3bd 3010 82bd
000003a0: 41d6 f13d 260c 72bd 6dda 923c 85ee 74bc
000003b0: 5e35 cc3d 3434 8f3d 4520 3abc 7791 a03c
000003c0: 577e 38bd 7604 993c 9c50 0ebd 6497 65bd
000003d0: fe9b e2bc cc16 9bbd cab2 6cbd ee88 663d
000003e0: 1e25 97bc 4010 b5bd dddc 9ebd ae19 5bbd
000003f0: 853c d13d 61c9 99bd 08db 803b f93b a93d

rnn.bias_hh_l0 f4 [256]
-0.08368047 0.050824143 0.0517917 0.1389422 0.09901056 -0.032905277 0.1395188 0.039087344
0.009770501 0.04698697 -0.07769535 0.11895652 0.048180666 0.1029088 0.050108235 -0.10126393
0.06271115 0.0037840735 0.10340869 0.078770526 0.05003543 0.066787645 0.09441842 0.04638296
0.116484106 0.13396801 -0.080408685 -0.075797506 -0.0768005 -0.07171121 0.071497366 0.09160275
0.018193062 -0.0069279196 -0.09925483 -0.08072079 0.033859424 0.057269733 0.07037798 0.012911211
0.048111476 0.038853783 -0.01146865 0.104978494 -0.0056370907 0.0060532363 -0.032662377 0.102997184
0.12758024 0.03558647 -0.05115998 -0.050346002 -0.11702969 0.008189831 0.057860445 -0.05750216
-0.06139899 -0.054443315 0.028297553 0.08013247 -0.07097342 -0.055460364 0.063821964 0.10609708
0.108944975 -0.0030045186 -0.009080519 -0.049753204 0.09234004 0.10401729 0.005178978 -0.031815965
0.14029464 0.058601115 0.06272643 0.12634094 -0.019810976 0.011280118 0.042300772 0.103421345
0.070967756 0.0017137047 0.108472124 0.043023843 -0.023874473 0.017720103 0.13962997 -0.10654135
0.11786876 -0.08219197 -0.057583664 -0.0887459 0.10283374 0.047160637 -0.080867656 -0.040148273
0.096202984 0.13675576 0.021306897 0.070368476 -0.04220709 0.074243955 0.063774094 -0.08848791
0.129286 0.100223616 0.12969686 0.019623837 -0.028732847 0.100833595 -0.038031254 -0.0899985
0.03582413 0.050123356 0.0625211 0.03477819 0.03584261 0.008160505 -0.07578051 -0.09808967
-0.023712521 0.07669914 -0.049700256 -0.033850025 0.0058117155 0.11300783 0.08129306 -0.048653025
-0.008028677 -0.13070601 0.022929901 -0.05372971 0.047368187 0.032769825 0.014622246 -0.0010025841
0.09290079 0.009435155 0.056142922 0.0652306 0.018020507 -0.011643552 -0.09851809 -0.0024556569
-0.118800245 -0.017540975 -0.078210294 0.114648424 -0.093692854 -0.08202511 0.049909834 -0.08642125
-0.036400612 -0.07178278 0.0012779268 0.073956944 0.12250558 -0.0034753345 -0.08888946 0.004287415
0.03820164 0.038389165 0.08479593 -0.039392494 0.1162588 -0.10146565 0.06944909 -0.071481116
-0.08410113 0.11445931 0.10503981 0.018462805 -0.0011208999 -0.07240216 -0.08255893 -0.007218147
-0.004019168 0.11666177 0.024040725 -0.040053893 0.07126359 -0.078453004 0.043943297 0.07670945
-0.03436456 0.036954306 -0.11302678 0.1093758 0.11042035 0.1109878 0.026809344 0.09780793
0.111088164 0.019861437 0.009992669 -0.08446621 0.111707985 0.011186401 -0.066797614 0.14258797
-0.0067141284 0.015118999 0.0071622785 0.13415352 0.08464779 0.14438601 -0.098808266 -0.10114952
0.050880738 -0.018848492 -0.10348437 0.04859149 -0.018327612 -0.009653015 0.10254391 -0.013085328
0.11935704 -0.01633835 0.0032088328 0.111518145 -0.083545625 0.05247979 -0.051477987 -0.06530878
-0.078370206 0.13077144 -0.06245339 0.1481482 -0.08769302 0.13100488 -0.08101853 -0.094916806
0.12316904 0.060608722 0.12055142 -0.115720235 0.066002965 0.10918326 -0.046418402 -0.019078372
0.094554625 0.016111465 0.0741537 0.044862807 -0.0066583087 0.036236513 0.04296455 0.08799171
-0.080029845 0.09000027 -0.09000313 0.09578121 0.04721895 0.026572263 0.07937427 -0.056349996
00000000: ab60 abbd fa2c 503d 8923 543d dd46 0e3e
00000010: 0cc6 ca3d afc7 06bd 04de 0e3e 0d1a 203d
00000020: 7414 203c 6975 403d bd1e 9fbd 7a9f f33d
00000030: 1759 453d d9c1 d23d 4b3e 4d3d 7763 cfbd
00000040: b46e 803d 38fe 773b efc7 d33d 7152 a13d
00000050: f3f1 4c3d f6c7 883d 725e c13d 0ffc 3d3d
00000060: 388f ee3d e92e 093e 4fad a4bd b93b 9bbd
00000070: 9549 9dbd 54dd 92bd 366d 923d 399a bb3d
00000080: 9e09 953c 9a03 e3bb 1e46 cbbd f150 a5bd
00000090: 2eb0 0a3d ab93 6a3d 5522 903d 8b89 533c
000000a0: 8a10 453d 2525 1f3d 01e7 3bbc f7fe d63d
000000b0: 58b7 b8bb 3a5a c63b fcc8 05bd 30f0 d23d
000000c0: 65a4 023e 1ec3 113d 218d 51bd 9c37 4ebd
000000d0: 43ad efbd a42e 063c 13ff 6c3d 6387 6bbd
000000e0: 827d 7bbd f4ff 5ebd 45d0 e73c 7e1c a43d
000000f0: 835a 91bd 682a 63bd 17b5 823d 6d49 d93d
00000100: 8b1e df3d 75e7 44bb 75c6 14bc 04ca 4bbd
00000110: c61c bd3d 0407 d53d 6bb4 a93b 7551 02bd
00000120: 66a9 0f3e b907 703d b776 803d 855f 013e
00000130: a14a a2bc 3ed0 383c 9343 2d3d 92ce d33d
00000140: 8b57 913d 639e e03a a226 de3d c539 303d
00000150: 6694 c3bc c029 913c 29fb 0e3e 5a32 dabd
00000160: 2d65 f13d 4354 a8bd d9dc 6bbd 69c0 b5bd
00000170: 7f9a d23d 832b 413d f19d a5bd 8472 24bd
00000180: 1206 c53d b409 0c3e cd8b ae3c 591d 903d
00000190: 57e1 2cbd 370d 983d fe9b 823d 2639 b5bd
000001a0: 8d63 043e 0a42 cd3d 41cf 043e 2bc2 a03c
000001b0: 2661 ebbc d881 ce3d a9c6 1bbd 2251 b8bd
000001c0: 53bc 123d 264e 4d3d 100b 803d 9373 0e3d
000001d0: b3cf 123d a4b3 053c d032 9bbd 3de3 c8bd
000001e0: c340 c2bc 7014 9d3d 7f92 4bbd 53a6 0abd
000001f0: 3470 be3b a670 e73d fa7c a63d 6548 47bd
00000200: b68a 03bc ccd7 05be 7dd7 bb3c af13 5cbd
00000210: 2505 423d a739 063d 2592 6f3c 2469 83ba
00000220: c542 be3d e995 1a3c 1ff6 653d 9f97 853d
00000230: be9f 933c 99c4 3ebc dac3 c9bd 16ef 20bb
00000240: 8b4d f3bd 17b2 8fbc b82c a0bd cbcc ea3d
00000250: 0ae2 bfbd c8fc a7bd 416e 4c3d a0fd b0bd
00000260: cf18 15bd da02 93bd 1c80 a73a bd76 973d
00000270: 35e4 fa3d 70c2 63bb ad0b b6bd 727d 8c3b
00000280: 5379 1c3d f53d 1d3d 7da9 ad3d 065a 21bd
00000290: 1819 ee3d 39cd cfbd 533b 8e3d b164 92bd
000002a0: 373d acbd a569 ea3d 1d1f d73d 4f3f 973c
000002b0: 29eb 92ba 9547 94bd a814 a9bd 3586 ecbb
000002c0: 3ab3 83bb 5eec ee3d 0ef1 c43c 8d0f 24bd
000002d0: a5f2 913d f8ab a0bd e3fd 333d d819 9d3d
000002e0: dac1 0cbd 665d 173d 967a e7bd 6b00 e03d
000002f0: 1124 e23d 924d e33d 459f db3c 864f c83d
00000300: 3182 e33d 74b4 a23c 4bb8 233c 9ffc acbd
00000310: 28c7 e43d 2b47 373c 30cd 88bd 9502 123e
00000320: 3102 dcbb aeb5 773c 8cb1 ea3b 8a5f 093e
00000330: d25b ad3d edd9 133e fd5b cabd 7b27 cfbd
00000340: 5268 503d 2768 9abc 9def d3bd df07 473d
00000350: ca23 96bc ae27 1ebc 8b02 d23d d863 56bc
00000360: 7771 f43d 01d8 85bc 484b 523b a063 e43d
00000370: f819 abbd 0cf5 563d 95da 52bd 9cc0 85bd
00000380: 8f80 a0bd f3e8 053e 20cf 7fbd 29b4 173e
00000390: 6698 b3bd 2526 063e 0bed a5bd be63 c2bd
000003a0: 0d40 fc3d da40 783d aae3 f63d bbfe ecbd
000003b0: 902c 873d 799b df3d 3921 3ebd 3f4a 9cbc
000003c0: dba5 c13d 31fc 833c e5dd 973d 10c2 373d
000003d0: f12d dabb bd6c 143d 99fb 2f3d ff34 b43d
000003e0: b0e6 a3bd 1052 b83d 9053 b8bd f028 c43d
000003f0: a868 413d 13ae d93c fa8e a23d 41cf 66bd

rnn.weight_ih_l0_reverse f4 [256, 24]
0.023302285 -0.013448712 0.025749385 0.094167024 -0.02710419 0.09836524 0.074424975 -0.018957153
-0.10822304 -0.0689438 0.04089505 -0.05652157 -0.052347854 0.033359785 0.030002775 0.03139759
-0.0622411 0.052446403 0.043389287 -0.05995496 0.041422818 -0.029992944 -0.013314748 0.011648253
0.058752418 0.0053503383 -0.050545584 0.031380888 0.025386166 0.0023561886 0.09019844 -0.070196874
-0.12666358 -0.067643605 0.015890345 0.12982759 -0.1143945 -0.047025785 -0.059222803 0.11305169
-0.054433245 0.077321455 -0.09503594 -0.08970006 -0.041672215 0.048340235 -0.07719484 -0.07977078
-0.03318084 -0.069142155 0.0023967323 0.09761878 -0.026364533 -0.12224086 0.09895431 -0.08865358
-0.029208254 0.014113303 -0.12168298 0.15212156 -0.08943503 -0.0496863 -0.02791591 0.033742435
0.12891968 0.06276371 0.09078567 0.08204111 -0.032467615 -0.056137733 0.02603508 -0.126577
-0.024653627 -0.011989613 -0.045736544 0.015747381 -0.047320496 -0.085379586 -0.06554953 0.09883396
-0.122682594 -0.02316198 0.11667966 -0.003934637 0.039553575 0.038848966 0.025607644 0.10881382
0.117327034 -0.02093878 -0.03319851 0.11719488 -0.119787365 -0.11319047 0.06866044 -0.08290762
0.046167612 -0.03596615 -0.09152912 0.11514195 0.05026356 -0.052017655 0.023643577 -0.020920265
-0.05655799 0.09396713 0.004029231 -0.008782571 -0.07905793 0.020094419 0.08633487 0.07386605
0.0649087 0.07477068 0.0931491 -0.019064281 -0.100415595 -0.058040928 0.02772534 0.10015717
0.10948525 -0.011569941 -0.06936855 0.12904109 -0.12451375 0.14239784 -0.09367389 -0.017253304
0.07417892 0.04308405 0.1235007 0.03148283 -0.106422625 0.08754332 -0.005381955 0.12855463
0.09634857 0.022137577 0.05427491 -0.04645877 -0.10020483 -0.06971169 -0.023494491 -0.082202606
-0.100487255 0.076907024 -0.02964457 0.08470751 0.00038604805 -0.039387662 -0.10862551 -0.09954604
0.096779905 0.056222383 -0.0012662994 -0.007596779 -0.10136472 0.12069895 0.1305405 -0.063743114
0.03512608 -0.101338185 -0.07082406 0.018008744 -0.0739668 -0.11074842 -0.056506805 -0.11198096
0.043942876 -0.07877526 0.09934073 0.075828575 0.12495495 -0.10331055 0.06467142 0.09413735
0.020373156 -0.0026534623 0.055491906 0.055319723 -0.053196765 -0.1189865 -0.079490155 0.074013345
0.10501556 0.008582187 -0.05927064 0.06346372 -0.028317312 0.04279929 -0.08140606 0.064779274
-0.045514807 0.034948763 0.027982293 0.13022655 0.124182 -0.08984037 0.064412825 -0.0976105
-0.05013878 0.059186243 -0.08791364 0.13032725 0.04839685 0.013509859 0.07095316 -0.09607914
0.03298482 0.048839077 -0.058426265 -0.023805998 0.04837097 0.109736875 -0.037711985 0.08140707
0.08088189 -0.06500267 -0.09296439 -0.0041311467 0.09159245 -0.092026114 -0.081261635 0.100899786
-0.059920304 -0.08036863 0.0026082692 0.14305101 0.08807077 0.06628759 0.015469435 -0.058597557
-0.08666669 0.06551856 0.049430307 0.043284476 -0.0471294 -0.1224816 0.016687304 -0.022061873
-0.009562961 0.0038486924 -0.067427285 -0.081884034 -0.03976703 0.06583068 -0.08237668 0.11386096
-0.13405222 -0.07647787 0.047940318 -0.12229122 -0.07244357 0.05783487 -0.095434085 0.022520412
00000000: 6fe4 be3c fd57 5cbc 60f0 d23c a4da c03d
00000010: 9b09 debc b773 c93d 1f6c 983d 084c 9bbc
00000020: 0ba4 ddbd 6832 8dbd 9181 273d 2983 67bd
00000030: b46a 56bd 45a4 083d 61c8 f53c c29a 003d
00000040: 86f0 7ebd 0ad2 563d f7b8 313d 5593 75bd
00000050: f9aa 293d c3b3 f5bc 1a26 5abc 50d8 3e3c
00000060: 60a6 703d e451 af3b e308 4fbd 3f89 003d
00000070: a6f6 cf3c 496a 1a3b f6b9 b83d 61c3 8fbd
00000080: 19b4 01be bb88 8abd 782c 823c 86f1 043e
00000090: aa47 eabd 1c9e 40bd 9c93 72bd a587 e73d
000000a0: 65f5 5ebd b65a 9e3d 34a2 c2bd aab4 b7bd
000000b0: 7cb0 2abd 6900 463d 5418 9ebd dd5e a3bd
000000c0: a2e8 07bd 679a 8dbd 7f12 1d3b 5bec c73d
000000d0: 6ffa d7bc 6a59 fabd 8fa8 ca3d 0290 b5bd
000000e0: 2646 efbc 7c3b 673c ed34 f9bd c1c5 1b3e
000000f0: b729 b7bd dd83 4bbd e8af e4bc 8235 0a3d
00000100: 8503 043e 438a 803d d6ed b93d 2b05 a83d
00000110: c3fc 04bd aef0 65bd 8547 d53c 679d 01be
00000120: 67f6 c9bc 1570 44bc 3e56 3bbd a700 813c
00000130: 23d3 41bd 7edb aebd d53e 86bd 7669 ca3d
00000140: 0341 fbbd 31be bdbc bff5 ee3d 21ee 80bb
00000150: ee02 223d 1820 1f3d 1fc7 d13c c8d9 de3d
00000160: 2849 f03d ce87 abbc 29fb 07bd df03 f03d
00000170: 1453 f5bd 68d0 e7bd d89d 8c3d 78cb a9bd
00000180: 401a 3d3d 3e51 13bd 9f73 bbbd 8bcf eb3d
00000190: 2ae1 4d3d 7710 55bd 2db0 c13c fa60 abbc
000001a0: 5aa9 67bd d771 c03d a407 843b c6e4 0fbc
000001b0: 20e9 a1bd 0d9d a43c 56d0 b03d 1547 973d
000001c0: daee 843d 5f21 993d f5c4 be3d b22c 9cbc
000001d0: b1a6 cdbd 53bc 6dbd 4120 e33c 341f cd3d
000001e0: ce39 e03d da8f 3dbc 1911 8ebd 5923 043e
000001f0: 1101 ffbd bdd0 113e 19d8 bfbd cd56 8dbc
00000200: 1eeb 973d e778 303d efed fc3d 24f4 003d
00000210: 1bf4 d9bd ea49 b33d 1c5b b0bb d3a3 033e
00000220: 6652 c53d dd59 b53c 5e4f 5e3d 8d4b 3ebd
00000230: 3138 cdbd 01c5 8ebd 8577 c0bc d759 a8bd
00000240: 43cc cdbd 6e81 9d3d 2bd9 f2bc 227b ad3d
00000250: 7e66 ca39 f554 21bd 0d77 debd cbde cbbd
00000260: 8b34 c63d 7149 663d f5f9 a5ba 67ee f8bb
00000270: 4e98 cfbd 0331 f73d 69ac 053e c08b 82bd
00000280: 5de0 0f3d 658a cfbd 340c 91bd 1387 933c
00000290: e87b 97bd 11d0 e2bd ae73 67bd 4656 e5bd
000002a0: 72fd 333d ec54 a1bd 2773 cb3d 034c 9b3d
000002b0: 61e8 ff3d 7b94 d3bd 7372 843d 15cb c03d
000002c0: 9be5 a63c b6e5 2dbb 7b4b 633d ef96 623d
000002d0: dae4 59bd 32af f3bd bccb a2bd 4f94 973d
000002e0: 6612 d73d 4d9c 0c3c c5c5 72bd 44f9 813d
000002f0: b5f9 e7bc 4f4e 2f3d 38b8 a6bd ffaa 843d
00000300: bc6d 3abd 6f26 0f3d 1f3b e53c 1c5a 053e
00000310: 2253 fe3d 3afe b7bd dfea 833d 04e8 c7bd
00000320: 525e 4dbd 466d 723d 110c b4bd 8274 053e
00000330: c63b 463d 7558 5d3c e44f 913d 24c5 c4bd
00000340: 171b 073d 7c0b 483d 6150 6fbd cc04 c3bc
00000350: a320 463d babd e03d e277 1abd c0b8 a63d
00000360: 68a5 a53d 1f20 85bd 1d64 bebd 925e 87bb
00000370: d394 bb3d 3078 bcbd 806c a6bd 8ca4 ce3d
00000380: fe6e 75bd 4f98 a4bd 7fef 2a3b f77b 123e
00000390: 735e b43d cac1 873d 8373 7d3c fe03 70bd
000003a0: 4e7e b1bd 982e 863d 6f77 4a3d 104b 313d
000003b0: c20a 41bd a2d7 fabd d0b3 883c 1abb b4bc
000003c0: f7ad 1cbc 583a 7c3b 5117 8abd d1b2 a7bd
000003d0: c1e2 22bd 3cd2 863d 1bb5 a8bd ef2f e93d
000003e0: fc44 09be 6ea0 9cbd 115d 443d d273 fabd
000003f0: 4b5d 94bd 42e4 6c3d f272 c3bd ba7c b83c

rnn.weight_hh_l0_reverse f4 [256, 64]
0.05419141 -0.06056051 -0.05021012 -0.047873832 -0.10333847 -0.02312587 0.05863681 0.012529805
0.033445887 0.09658953 -0.066359624 -0.041804623 0.021930924 0.06630532 0.03171839 -0.06578041
0.10691749 -0.035033982 0.110870756 -0.04700452 0.05394737 -0.020566959 0.015699998 0.10441375
0.011283186 0.016417671 -0.07178197 0.024572864 -0.04047846 0.023657639 0.005076894 0.08222687
0.014861471 -0.0647159 -0.019686772 0.04042746 -0.112594984 -0.045468334 -0.03910103 -0.025830973
-0.034382794 -0.0046066917 0.03614569 -0.07012069 -0.07215025 0.11422059 0.0315606 -0.061606098
-0.0006865596 -0.10121778 0.013788421 -0.12182961 -0.07848768 0.04379336 -0.07107057 -0.086720854
0.038330074 -0.028992195 0.05133298 0.09151467 0.007997849 -0.11853057 0.008246223 0.028558876
0.09317516 -0.09257436 -0.071852826 -0.004218201 -0.063983046 -0.055166118 0.07440919 0.005912918
0.09353572 -0.062335398 0.030654477 -0.021408066 -0.027932655 -0.0958074 -0.0022837734 0.10975296
0.07287631 -0.12174127 0.054042988 0.06584991 -0.12995279 -0.04507386 -0.06784842 -0.11945194
0.11055535 -0.1167316 0.035978813 -0.026791668 -0.13231999 0.08034041 0.01994851 -0.007876154
-0.038860828 0.0014521447 0.040045884 0.02264495 -0.123513885 -0.086013764 -0.09907699 0.12159492
-0.006399904 -0.093989335 0.011380812 -0.033356942 0.03012495 -0.10294296 -0.022879042 0.123160474
0.0046518347 0.10788009 0.11692272 0.0071622133 0.19809027 -0.14985223 0.13930388 0.0007514258
-0.107272655 0.059287794 0.042927466 -0.09373883 0.07691432 -0.107249066 -0.12547687 -0.0021874043
0.024893606 0.090196736 -0.047224212 -0.07867463 0.01360382 0.12301286 0.104855835 -0.03521126
0.0047432547 -0.029819172 0.13064185 0.01431495 0.03845348 0.029308954 -0.09887243 -0.023292944
-0.10032363 0.020191811 0.10022939 0.021592623 -0.057690956 0.0815959 0.022923209 -0.10034484
-0.13154443 0.05030545 0.047909424 0.09590328 0.031726923 -0.04059434 -0.07613402 0.023257833
0.08025505 -0.01329589 0.060976174 0.09090738 0.058107894 -0.0057940595 -0.040658288 -0.0606701
0.009631775 -0.12683725 0.087446176 0.016058864 0.0643539 0.12135449 -0.036513396 0.00041850645
-0.04870736 0.06434475 0.03957318 0.05201484 0.044059668 -0.04637592 -0.04144176 -0.05846223
-0.10451354 0.054496136 -0.10141051 -0.06175116 -0.015219653 -0.035145395 0.091469996 0.11420105
-0.056129977 -0.015690345 -0.09656488 -0.06568823 -0.05304098 -0.028002849 0.08659982 -0.027679311
0.032257233 -0.099021815 -0.04299812 0.014417551 -0.04097666 0.11185954 -0.02382129 0.12687631
0.058564186 0.04349356 -0.10344858 0.06448247 -0.08124351 0.11720991 0.08619782 -0.054316405
0.010195516 0.03975386 -0.11098662 0.02127455 -0.0157783 0.06331736 0.100734435 -0.06295415
-0.116556264 -0.09095261 0.010693888 -0.027785486 -0.07126812 -0.040753562 0.062782936 -0.07672219
0.08252554 0.06921499 -0.03784 -0.012918656 0.033242855 0.08526546 -0.012395649 -0.07262237
0.09993884 -0.028670875 0.018574405 0.10554507 0.063690506 0.12563434 0.005181216 -0.06510996
0.066826135 0.103088714 0.13090172 0.12378257 0.027236003 -0.13450068 0.103261985 0.11922887
00000000: d0f7 5d3d 4c0e 78bd 20a9 4dbd 5a17 44bd
00000010: 1fa3 d3bd 7772 bdbc 272d 703d d049 4d3c
00000020: 8efe 083d bbd0 c53d 8ee7 87bd 533b 2bbd
00000030: 7ba8 b33c 15cb 873d 24eb 013d e1b7 86bd
00000040: 8ff7 da3d cb7f 0fbd 3510 e33d d087 40bd
00000050: ebf7 5c3d 0a7c a8bc 489d 803c e0d6 d53d
00000060: 1ddd 383c 5a7e 863c 6d02 93bd 084d c93c
00000070: becc 25bd aacd c13c 135c a63b 9066 a83d
00000080: 877d 733c c589 84bd 2746 a1bc 4497 253d
00000090: 3398 e6bd 013d 3abd 6728 20bd 7a9b d3bc
000000a0: f9d4 0cbd bbf3 96bb 810d 143d 709b 8fbd
000000b0: 83c3 93bd 7cec e93d b045 013d ad56 7cbd
000000c0: 3cfa 33ba 444b cfbd d4e8 613c cd81 f9bd
000000d0: 26be a0bd ab60 333d 728d 91bd b49a b1bd
000000e0: ffff 1c3d 0a81 edbc 8842 523d 0b6c bb3d
000000f0: 6909 033c 28c0 f2bd 2b1b 073c 4ef4 e93c
00000100: 9ed2 be3d a097 bdbd 9327 93bd d638 8abb
00000110: 8b09 83bd def5 61bd d863 983d 27c1 c13b
00000120: a88f bf3d 6753 7fbd 191f fb3c f85f afbc
00000130: 06d3 e4bc ac36 c4bd 5cab 15bb 29c6 e03d
00000140: 2d40 953d 7d53 f9bd 2e5c 5d3d 51dc 863d
00000150: 5812 05be 5e9f 38bd 1df4 8abd 38a3 f4bd
00000160: d86a e23d fa10 efbd 855e 133d 337a dbbc
00000170: e47e 07be 8389 a43d 0f6b a33c fc0a 01bc
00000180: 882c 1fbd e455 be3a 2707 243d e781 b93c
00000190: d9f4 fcbd fc27 b0bd e0e8 cabd c206 f93d
000001a0: 49b6 d1bb 7b7d c0bd 9676 3a3c 4aa1 08bd
000001b0: 99c8 f63c c2d3 d2bd d46c bbbc 8f3b fc3d
000001c0: 6b6e 983b 3df0 dc3d 2e75 ef3d 00b1 ea3b
000001d0: 2dd8 4a3e dd72 19be ada5 0e3e 55fb 443a
000001e0: c4b1 dbbd c2d7 723d b6d4 2f3d 25fa bfbd
000001f0: 4185 9d3d 66a5 dbbd 027d 00be 8e5a 0fbb
00000200: aded cb3c 11b9 b83d 2d6e 41bd 2a20 a1bd
00000210: 8fe2 5e3c 2bee fb3d a8be d63d af39 10bd
00000220: 4e6d 9b3b 5647 f4bc fac6 053e 4189 6a3c
00000230: 6581 1d3d 5519 f03c a17d cabd d8d0 bebc
00000240: 7a76 cdbd 4c69 a53c 1145 cd3d 03e3 b03c
00000250: 5a4d 6cbd c01b a73d 74c9 bb3c 9881 cdbd
00000260: 95b3 06be 160d 4e3d ac3c 443d f068 c43d
00000270: 17f4 013d 4046 26bd 27ec 9bbd 3687 be3c
00000280: c25c a43d 01d7 59bc 27c2 793d a62d ba3d
00000290: 8b02 6e3d 18dc bdbb 4e89 26bd 3681 78bd
000002a0: 98ce 1d3c a0e1 01be fb16 b33d e18d 833c
000002b0: facb 833d b488 f83d 128f 15bd fc6a db39
000002c0: 5e81 47bd 2ec7 833d 7d17 223d 830d 553d
000002d0: e977 343d adf4 3dbd d6be 29bd 1776 6fbd
000002e0: 320b d6bd 5737 5f3d 50b0 cfbd c9ee 7cbd
000002f0: da5b 79bc 9ef4 0fbd 9f54 bb3d 3de2 e93d
00000300: 8ce8 65bd 0a89 80bc cfc3 c5bd 8d87 86bd
00000310: 8041 59bd 3b66 e5bc 3f5b b13d b9bf e2bc
00000320: 2920 043d f3cb cabd cc1e 30bd 9837 6c3c
00000330: 24d7 27bd 9d16 e53d de24 c3bc ddeb 013e
00000340: 00e1 6f3d 4e26 323d d9dc d3bd 630f 843d
00000350: ff62 a6bd c00b f03d 7c88 b03d e17a 5ebd
00000360: 180b 273c f2d4 223d f44c e3bd f747 ae3c
00000370: 7e41 81bc 88ac 813d db4d ce3d 1bee 80bd
00000380: 0db5 eebd 5d45 babd 6b35 2f3c 639e e3bc
00000390: 05f5 91bd 35ed 26bd 5794 803d 8620 9dbd
000003a0: 2603 a93d 97c0 8d3d 1efe 1abd c5a8 53bc
000003b0: a929 083d a89f ae3d 1f17 4bbc 0abb 94bd
000003c0: bcac cc3d 2fdf eabc 5a29 983c 0328 d83d
000003d0: 2b70 823d 4aa6 003e 31c7 a93b 5f58 85bd
000003e0: 24dc 883d 2d20 d33d 1a0b 063e b781 fd3d
000003f0: 0a1e df3c 8cba 09be 057b d33d 442e f43d

rnn.bias_ih_l0_reverse f4 [256]
-0.0054228003 -0.0423661 -0.11220146 -0.0110990275 -0.050410967 -0.10703323 -0.02447285 -0.12198652
0.01936191 -0.02519288 -0.07402155 0.12356286 0.076467484 0.06268083 -0.031429518 -0.04013599
0.1419199 0.106241085 -0.078035206 0.06598505 0.062286012 0.112061694 0.07724727 0.024181169
0.0521626 0.10883386 -0.0110558 0.0023521539 0.10041742 0.040389895 0.12303221 0.0050481344
0.013817443 0.13080807 -0.100906365 0.045421958 -0.008200188 0.051312663 -0.013593336 -0.08261702
-0.07901964 -0.031473808 0.012395352 -0.0792768 0.09733017 -0.0849101 -0.015462401 -0.114195116
-0.08303326 0.09976686 0.118849196 0.10930342 0.14503208 0.17738578 0.11779727 -0.09359202
-0.06821099 -0.036325697 -0.10347729 -0.036482915 -0.11117846 -0.018688684 -0.052983116 0.012631954
0.026414173 0.13847144 0.07029218 -0.07368786 0.14290938 -0.07060932 -0.07456729 -0.026423577
0.086035304 -0.038000092 0.016406778 -0.085350424 -0.09872062 0.04427898 0.04339655 0.10383222
0.044127837 -0.08295086 -0.09670067 -0.117877886 0.14787112 -0.020267235 0.09740333 -0.0851174
-0.083467595 0.08797809 -6.917498e-05 0.039117698 0.11713098 -0.012338724 0.06725346 -0.012171163
-0.0492926 0.026524363 -0.016013771 0.066354945 0.10367483 0.10546589 -0.035767894 0.052311797
0.1251648 0.005680017 0.078898445 0.13057297 -0.09483676 0.015320773 -0.07211985 0.048926696
0.080892794 -0.084731326 -0.02792381 0.107853465 -0.0003026239 0.15561554 0.072463274 -0.07552548
-0.057001173 -0.061891645 -0.01186215 -0.08774556 -0.0038891071 0.057116732 0.08974425 0.004544368
0.0854151 0.015285409 0.105988875 -0.09784498 0.07174078 0.008939959 0.0482259 -0.12420036
-0.025443688 -0.009009525 0.07475428 -0.023970757 -0.00040117325 -0.013449417 -0.026045185 -0.09747611
0.0808457 -0.106152974 -0.12446003 -0.1256539 -0.037954383 -0.102855094 -0.10336758 0.07757584
-0.04764443 -0.06689561 -0.053262044 0.046777543 0.00984869 0.07840415 0.013836 0.0062033217
0.04742481 0.07470425 -0.12001701 -0.10863266 -0.0032807526 -0.04406822 -0.04918203 -0.017468402
0.013695149 0.12607677 0.042141926 -0.051889613 0.0068531227 0.059180077 -0.12915266 -0.077067986
-0.113749266 -0.03947146 -0.0990338 0.060116246 0.030724084 -0.017085183 0.06882928 -0.07887113
-0.103073925 0.10095978 0.12766324 -0.07890164 0.018829647 -0.017891623 -0.042051647 0.010050617
0.005040834 -0.050498 0.08798419 -0.07260283 0.08278735 -0.1085662 -0.06492594 0.022133594
-0.07292855 -0.08819249 -0.021428213 0.11293489 0.09472587 0.008747013 -0.060621534 -0.04755378
-0.09809298 -0.10810946 -0.018000009 -0.0979429 0.034218274 -0.049064755 0.10338053 0.057782866
-0.026647832 0.12593764 0.08784554 -0.043765273 0.03847687 -0.07827314 0.01293914 -0.11961913
-0.09755457 0.09271256 0.01208959 0.07445285 -0.045540743 -0.10676258 -0.0815778 0.059363194
0.1292235 0.001471421 0.0739057 -0.05203146 0.13176444 0.0029796546 -0.08509838 0.068866834
-0.017787961 0.013761192 -0.06811835 0.022358267 0.03497308 0.068234585 0.03146847 -0.05457492
0.032054916 0.04672642 0.11134482 0.046676364 -0.06286395 0.022904161 -0.036475662 0.01676305
00000000: bfb1 b1bb 1388 2dbd e1c9 e5bd b2d8 35bc
00000010: bb7b 4ebd 3d34 dbbd 497b c8bc 12d4 f9bd
00000020: de9c 9e3c 4c61 cebc 9c98 97bd 860e fd3d
00000030: fc9a 9c3d cf5e 803d 3dbc 00bd a365 24bd
00000040: 7353 113e ed94 d93d ecd0 9fbd 2b23 873d
00000050: 9e1f 7f3d 9a80 e53d d133 9e3d 9617 c63c
00000060: 73a8 553d 49e4 de3d 6323 35bc 9826 1a3b
00000070: a6a7 cd3d e06f 253d 50f8 fb3d d26a a53b
00000080: 8e62 623c 8df2 053e ffa7 cebd 600c 3a3d
00000090: 155a 06bc 3a2d 523d 95b6 5ebc 1d33 a9bd
000000a0: 0dd5 a1bd aeea 00bd e015 4b3c e05b a2bd
000000b0: 0a55 c73d 59e5 adbd 0356 7dbc 21df e9bd
000000c0: 580d aabd 9152 cc3d 3567 f33d 79da df3d
000000d0: 4a83 143e 9ea4 353e b23f f13d 2cad bfbd
000000e0: 34b2 8bbd 41ca 14bd e7eb d3bd 1c6f 15bd
000000f0: 88b1 e3bd 0319 99bc d304 59bd 41f6 4e3c
00000100: 8962 d83c 75cb 0d3e 59f5 8f3d a9e9 96bd
00000110: d656 123e 9f9b 90bd bcb6 98bd 4276 d8bc
00000120: 4733 b03d fca5 1bbd 8267 863c 34cc aebd
00000130: 092e cabd e05d 353d 95c0 313d fda5 d43d
00000140: 64bf 343d 24e2 a9bd 000b c6bd f669 f1bd
00000150: 876b 173e 7907 a6bc 667b c73d 0852 aebd
00000160: 0ff1 aabd db2d b43d 0912 91b8 e139 203d
00000170: 5ee2 ef3d 5c28 4abc 2fbc 893d 8f69 47bc
00000180: 0ae7 49bd 9f49 d93c 502f 83bc 1ae5 873d
00000190: 7853 d43d 80fe d73d 5b81 12bd e544 563d
000001a0: 342b 003e 701f ba3b 8295 a13d ecb4 053e
000001b0: c639 c2bd fb03 7b3c 92b3 93bd 5c67 483d
000001c0: 1fab a53d 9e87 adbd 79c0 e4bc 47e2 dc3d
000001d0: 7ea9 9eb9 ae59 1f3e a067 943d 1aad 9abd
000001e0: 107a 69bd 1882 7dbd 7759 42bc f2b3 b3bd
000001f0: 64e0 7ebb 3cf3 693d d5cb b73d ece8 943b
00000200: 1dee ae3d a76f 7a3c b210 d93d f362 c8bd
00000210: d4ec 923d e878 123c 8588 453d c25c febd
00000220: 486f d0bc b09c 13bc c618 993d 525e c4bc
00000230: 9054 d2b9 f25a 5cbc b65c d5bc 8ea1 c7bd
00000240: 6e92 a53d bb66 d9bd e6e4 febd 6aab 00be
00000250: 0e76 1bbd b1a5 d2bd 62b2 d3bd 15e0 9e3d
00000260: ce26 43bd 9100 89bd 4d29 5abd cf99 3f3d
00000270: 665c 213c 5b92 a03d 64b0 623c 3c45 cb3b
00000280: 8440 423d 8bfe 983d 7acb f5bd cd7a debd
00000290: e501 57bb e180 34bd 1973 49bd e519 8fbc
000002a0: 9e61 603c 451a 013e 039d 2c3d 348a 54bd
000002b0: 2990 e03b cf66 723d 9840 04be d2d5 9dbd
000002c0: 60f5 e8bd d3ac 21bd 3cd2 cabd 743c 763d
000002d0: 13b1 fb3c 3af6 8bbc 5ef6 8c3d 3087 a1bd
000002e0: 6c18 d3bd 00c4 ce3d 27ba 023e 2f97 a1bd
000002f0: a240 9a3c 7491 92bc 593e 2cbd 58ab 243c
00000300: 952d a53b fed6 4ebd 0e31 b43d cbb0 94bd
00000310: 6a8c a93d f557 debd e4f7 84bd 8351 b53c
00000320: 905b 95bd 449e b4bd 388a afbc 684a e73d
00000330: a3ff c13d a24f 0f3c 494e 78bd c1c7 42bd
00000340: f9e4 c8bd 7e68 ddbd c174 93bc 4a96 c8bd
00000350: 7628 0c3d 20f8 48bd 2cb9 d33d baad 6c3d
00000360: 8e4c dabc ccf5 003e 5de8 b33d 3743 33bd
00000370: ec99 1d3d ab4d a0bd b0fe 533c e0fa f4bd
00000380: b1ca c7bd 15e0 bd3d 6a13 463c bc7a 983d
00000390: ee88 3abd 57a6 dabd 4312 a7bd d226 733d
000003a0: 2a53 043e b2dc c03a df5b 973d f11e 55bd
000003b0: 42ed 063e 4f46 433b 0f48 aebd 0e0a 8d3d
000003c0: 0fb8 91bc 9f76 613c a281 8bbd af28 b73c
000003d0: ef3f 0f3d 93be 8b3d 15e5 003d f489 5fbd
000003e0: 044c 033d 3464 3f3d c108 e43d b72f 3f3d
000003f0: d1be 80bd 82a1 bb3c 8167 15bd aa52 893c
