examples/7. ModelTest/7-3. Regression/Models/CNN_1D_rg/CLUST/Electronics/91bdf62f28aed66ed66131a647714e06_3923db46bf38313b935c61b7e06ee186/ca7a9c037e3472a21d16c0d9333203c4/model.pt (torch, 44887 bytes, 5 tensors)

layer1.0.weight f4 [32, 24, 3]
000000 fd 65 bc 3d ad 45 cb 3d 9a 43 d8 bc e8 eb e9 3d
       0.0919914 0.09925399 -0.026399422 0.11421949
000010 ea 0f a2 bc b1 58 f6 3c bd 06 6e bd 4a cb 8b 3d
       -0.019782979 0.030071588 -0.058111895 0.06825884
000020 52 96 d2 3d 0d 28 b7 bd 9b 0c cb 3d dc c0 99 3c
       0.102825776 -0.08943186 0.09914514 0.01876872
000030 b8 f4 c9 3d 96 58 cd 3c 13 89 7b 3d fc 6f 9d bc
       0.098611295 0.025066655 0.06141002 -0.019218437
000040 39 63 b7 3d 44 df 8f 3c c7 4d 57 bd 7d 14 04 3d
       0.08954472 0.017562516 -0.05256441 0.0322461
000050 73 fb 55 bd 36 73 a0 bc a6 ab 5d bd e8 48 92 3d
       -0.052241754 -0.019586187 -0.054118775 0.07142812
000060 8c 41 bc bd a1 cd 57 bd 2a e1 fe bc 38 a2 88 bd
       -0.091921896 -0.052686337 -0.031113226 -0.06671566
000070 72 6f 79 3c 47 fa e5 bd dd a5 af 3d 98 cf f9 bd
       0.015224325 -0.11229377 0.08576558 -0.121977985
000080 b8 87 8a 3d 01 60 98 3c 74 e9 23 bd cd 41 90 3d
       0.067641675 0.018600466 -0.04001756 0.070438005
000090 72 b2 3a 3c 47 ed b3 3d 1a b5 a8 3b ab fa 16 bd
       0.011395084 0.087854914 0.005148542 -0.03686015
0000a0 f9 2b 01 3d 2d 47 07 bd bc 39 0c 3d 3d b7 b6 3d
       0.031536076 -0.033026863 0.034234747 0.08921669
0000b0 2e 27 53 3d 5e f2 31 bd d2 97 9b 3d 76 6b ec 3c
       0.051551037 -0.04344403 0.07597317 0.028859835
0000c0 8a 78 72 3d d2 78 94 bd 5d 2c f0 bd 08 dd 38 bd
       0.059196986 -0.07249607 -0.117272116 -0.045132667
0000d0 24 63 b7 bd a1 de c8 3d 79 29 c4 3c 3f 0f 20 3d
       -0.089544564 0.09808088 0.023945557 0.03907704
0000e0 5f c1 e3 3c ec b8 00 bc b3 7d b2 3d 22 5f b4 bd
       0.027802167 -0.007856589 0.087153815 -0.08807208
0000f0 c0 e6 3e b9 46 08 b7 bd 39 95 d6 3c fe be 3e bd
       -0.00018205773 -0.08937125 0.026194202 -0.046568863
000100 3f 8c f2 3c 3f b9 00 bd 1a 62 b2 3d c5 61 ad bd
       0.02960789 -0.031426664 0.08710118 -0.08465914
000110 d9 a2 b5 bd 28 83 93 3a 6b fc 33 3e 72 73 da 3d
       -0.08868951 0.0011254298 0.17576759 0.10666551
000120 7c 3f e8 3d 1d 30 c7 bd fa 65 ef bd a4 d4 bc bd
       0.11340234 -0.09725974 -0.11689372 -0.092202455
000130 11 5c a2 bd 30 85 43 3d 89 d9 2c 3d 1a 8d c8 3d
       -0.079277165 0.04773444 0.042199645 0.09792538
000140 b7 49 79 bd 90 89 a4 bd 54 0f 80 3d ec 1d 43 bd
       -0.060861316 -0.080340505 0.062529236 -0.047635958
000150 92 7c 92 3d 43 19 e5 bc 89 11 8a 3d 3f 87 bb bd
       0.07152666 -0.027966147 0.06741626 -0.091566555
000160 88 9a 73 bd 5f 2b 13 3d be 19 cc 3c 7f 25 f6 bc
       -0.059473544 0.035930034 0.024914619 -0.030047176
000170 e6 dd 8f 3d 02 14 a4 3d f7 06 af bd 9d da 80 bd
       0.07024746 0.08011629 -0.0854625 -0.06291697
000180 dc 00 dd 3d 84 e2 22 bd ac 21 2b bd ac 89 e9 bd
       0.107911795 -0.039766803 -0.04178016 -0.11403212
000190 1c 38 8a bd 69 2b f1 3c af dc 7e bc ff 32 af bd
       -0.06748983 0.029439645 -0.015555545 -0.085546486
0001a0 e6 2a 35 3b 32 de a4 bd ad c4 cc bd 4e e8 84 bd
       0.0027643978 -0.08050193 -0.099984504 -0.06489621
0001b0 8c 3d d3 bd bb ae 99 bd c4 43 f1 3d c6 58 b6 3c
       -0.103144735 -0.0750403 0.117805034 0.022259127
0001c0 1a c1 14 3d a3 1c e1 bd b2 84 9e bd f2 ac 20 bd
       0.03631697 -0.1099179 -0.07740153 -0.039227434
0001d0 65 f7 96 3c 85 60 d4 bd 82 fd 4f bd 7f 7e 90 bd
       0.018428514 -0.10369972 -0.050778873 -0.07055377
0001e0 f7 3a ab 39 fa 9e 33 bd 23 cd 05 bc 57 8d a3 bd
       0.00032659594 -0.043852784 -0.008166584 -0.07985943
0001f0 f0 aa a5 bd 31 cf 8c bd b4 3b 25 bd 09 80 be bd
       -0.08089244 -0.06875456 -0.04034014 -0.093017645
000200 52 5f ca 3d bb 9a bf bc 23 aa cf 3d 07 68 16 3d
       0.09881462 -0.02338921 0.10139873 0.036720302
000210 d6 61 cc bd 6d 07 a7 3d 42 d1 04 bd d9 09 39 bd
       -0.09979598 0.08155713 -0.032426126 -0.045175407
000220 57 58 c8 bd 22 f3 ef bd 5f 1c 0a 3d c8 e4 d2 bc
       -0.097824745 -0.11716296 0.033718463 -0.025743857
000230 f1 ee 3b 3d 19 13 c6 bd 2a 31 b3 3d aa 2b b1 bd
       0.04588217 -0.09671611 0.08749612 -0.086509064
000240 b5 12 cd bc 67 a8 a5 3c a7 ca 67 3d cb cf ba 3d
       -0.025033334 0.020221902 0.05658975 0.091216646
000250 4b ee d3 3d 5d 24 c7 bd d0 da 01 3d 7c 99 49 bd
       0.10348185 -0.097237326 0.031702816 -0.04921864
000260 de a0 42 bc c7 33 c6 bd b9 bd c9 3d a7 96 c3 bd
       -0.011879174 -0.096778445 0.0985064 -0.09550219
000270 6b 1e 8b 3d d6 c5 3f 3d fe ab 33 3d c0 f6 90 bd
       0.06792911 0.04681953 0.043865196 -0.07078314
000280 df 52 ce 3d b2 eb a5 3c f7 2d 8c 38 01 34 f4 bd
       0.100744 0.02025399 6.684282e-05 -0.119239815
000290 07 7d 0a 3d 8d aa b7 bc e7 86 71 bd c0 b3 c4 3d
       0.03381064 -0.022420192 -0.058966544 0.09604597
0002a0 01 ba f8 3c 33 29 7a bd 36 4a 63 bd 9a d5 bd bb
       0.030362131 -0.061074447 -0.055490695 -0.0057932856
0002b0 ca c0 87 3d d0 91 ed bc 3d 84 81 bd 59 11 14 bd
       0.066285685 -0.029000193 -0.063240506 -0.036149357
0002c0 23 6a ab bd 87 52 74 3d f3 c1 df 3d 3b 68 bd bd
       -0.08369853 0.059649017 0.10925665 -0.09248396
0002d0 a0 d9 cd 3c b7 e2 6f 3d 61 9c 9c 3c 46 6e 40 bd
       0.025128186 0.05856582 0.019117536 -0.046980165
0002e0 2c 67 68 3d 65 70 6a 3d c5 c4 5d 3d 54 4a 33 bc
       0.056739017 0.057236094 0.054142732 -0.010943014
0002f0 e2 54 b2 bc f8 31 74 3c 32 19 97 bc 06 81 05 bd
       -0.02176899 0.014904492 -0.018444631 -0.03259375
000300 2f e2 c6 3d 7d dd fc 3d 6c ea 33 3c 2d a0 dd bc
       0.0971111 0.12346933 0.0109811835 -0.027053917
000310 14 f3 9b 3a 0d 67 f3 bb ee 37 a6 3c c5 3e cc 3c
       0.0011898004 -0.007428056 0.020290341 0.024932275
000320 4e e5 eb bd d0 52 0a bd 16 0c df 3d e3 64 63 3d
       -0.11518346 -0.033770382 0.10890977 0.055516135
000330 d8 93 93 bb 8e 91 8e bd da 8c 90 bd 40 93 de bd
       -0.0045037083 -0.06961356 -0.07058115 -0.108679295
000340 40 1f 2a bd 98 26 16 3d 12 d8 a9 3d dc 72 73 3d
       -0.04153371 0.0366579 0.08293165 0.05943571
000350 18 67 d0 bd 82 72 97 bd 81 2c af bc ef b3 e4 3d
       -0.101759136 -0.073948875 -0.021383526 0.11167132
000360 33 2f 79 3c 57 89 04 bd cb 2e 40 3d 4a 4b 3f bd
       0.015209007 -0.03235754 0.046919625 -0.04670266
000370 2e f0 9f bd d8 72 ac 3d e6 e9 62 bd 63 60 d0 bc
       -0.078094825 0.08420342 -0.055398844 -0.025436586
000380 5c d0 f3 bd de c4 9d 3d 09 19 b3 3d 7b 67 28 3d
       -0.11904976 0.07703565 0.087450095 0.04111431
000390 e3 f7 ab bd c3 e1 f1 bd ba b3 c7 bd f4 52 b0 3d
       -0.0839689 -0.11810639 -0.09751077 0.08609572
0003a0 e4 70 60 3d 96 72 c7 3d a1 59 75 3d 31 4a e5 3c
       0.05479516 0.097386524 0.05989993 0.027989479
0003b0 bd 05 44 bb 00 51 bb bd a0 8c d2 bd 1b 83 e5 bd
       -0.0029910647 -0.09146309 -0.10280728 -0.11206647
0003c0 ab 08 3e 3d d2 90 74 bd 0f 6a d1 bc 9c 0b 8e bd
       0.046394985 -0.059708424 -0.025563268 -0.06935808
0003d0 5e 67 bc bc f5 fa ac bd 63 cd a0 bd e2 d8 19 3d
       -0.022998508 -0.08446304 -0.078516744 0.03756035
0003e0 27 d3 15 bd 97 da 91 3d ec 34 21 bd 30 44 b4 bd
       -0.036578324 0.07121771 -0.03935711 -0.08802068
0003f0 51 d8 b6 bc 05 33 70 bd 3a cd 19 bd d7 e3 e8 bd
       -0.022319945 -0.058642406 -0.037549235 -0.11371582

layer1.0.bias f4 [32]
000000 98 a6 f6 3b 9a 93 bf bd 19 0a 9e bd 21 de c7 bd
       0.0075271837 -0.09354325 -0.0771677 -0.097591646
000010 c7 cd 02 bd ab 9d e4 3d 81 de f0 3c 80 8d 38 bb
       -0.031934526 0.11162885 0.029402973 -0.0028160512
000020 9c b2 c6 3c a7 bc c0 3c 32 0c e8 ba 58 de c4 bd
       0.02425509 0.023527456 -0.001770383 -0.09612721
000030 df 76 91 bd ce f7 a3 bd 1a 93 25 3c e7 e0 cc bd
       -0.07102751 -0.08006249 0.0101058725 -0.10003834
000040 60 f3 fe bc 27 7f 50 bd 4b b1 01 3e 46 98 b9 3d
       -0.03112191 -0.050902512 0.12665288 0.09062247
000050 04 13 89 3d dd fa 56 3c 5d 85 12 bd 40 25 1c 3d
       0.0669308 0.013121334 -0.035771716 0.038121462
000060 d5 a9 a6 bd a7 fe 74 bd bb da e5 bc 77 d5 e2 bc
       -0.08137862 -0.059813168 -0.0280584 -0.027689679
000070 61 ae eb bd ce 7f 37 3d 26 77 c4 3d 95 20 85 bd
       -0.115078695 0.04479962 0.09593038 -0.06500355

layer2.0.weight f4 [64, 32, 3]
000000 6d c2 9a 3c 65 55 af bc 7f b9 83 bc 7f f1 c2 3b
       0.018891538 -0.021403024 -0.016079662 0.0059491987
000010 c3 22 b5 3d 95 0e 60 3c 90 53 86 bd 4d cd 24 bd
       0.08844521 0.013675352 -0.06558907 -0.040234853
000020 f4 5a 2e 3d e7 d1 05 3d af 83 37 3b 43 ee 4e bc
       0.04256721 0.03267088 0.0028002074 -0.012630048
000030 f1 a6 22 bd 40 60 14 bd 77 83 5c bd 05 d0 d5 3c
       -0.03970999 -0.036224604 -0.053836312 0.026100168
000040 d0 31 35 3d cd 12 d2 3d 33 1f 95 bc c2 7e 51 3c
       0.044236958 0.10257492 -0.018203354 0.012786569
000050 a6 46 94 3d 23 e9 9f 3b 12 e9 3d bd 2f dd 1f bd
       0.072400376 0.004880087 -0.04636485 -0.039029296
000060 2d 98 ad 3b 5f 4c b3 bd db ed 80 3b 20 7c f5 bc
       0.005297682 -0.08754801 0.0039346046 -0.029966414
000070 22 07 b5 3d ef 01 be 3d 02 fe af 3c 43 c1 bc 3d
       0.08839251 0.092777126 0.021483425 0.09216549
000080 f0 60 52 bd a7 14 ac 3d 8f f1 b9 3d fb 43 87 3b
       -0.051361978 0.084023766 0.09079277 0.004127977
000090 3b 26 9b bd 65 3a ea bc 1a 7e cb bc 1c f8 dc 3a
       -0.07575651 -0.028592298 -0.024840403 0.001685861
0000a0 d7 82 bd bd 03 f3 9a 3c 7d 28 b5 bd 66 bc 97 bd
       -0.09253471 0.018914705 -0.08845613 -0.07408981
0000b0 27 96 c7 bd 90 4d 6f bb f8 76 b1 bd 3b fd 7a bd
       -0.09745436 -0.0036514737 -0.086652696 -0.061276656
0000c0 ee 52 73 3c 81 f7 90 3d 1b 8d c2 3d 82 dc cb bd
       0.014851315 0.070784576 0.0949957 -0.09954168
0000d0 42 47 ce 3c d7 a9 95 bd 9a ee e2 bd 3d ec 17 bd
       0.025180463 -0.07307785 -0.11080666 -0.03709053
0000e0 ee 52 b6 bd ce 89 ee bd 46 d6 00 be 75 40 d0 bd
       -0.08902536 -0.11647378 -0.12581739 -0.10168544
0000f0 a4 77 ff 3d 0c 56 c0 3d a1 23 a2 bc 7c a2 9a bd
       0.124739915 0.09391412 -0.01979238 -0.07550523
000100 19 d8 b4 bd 5c 1a 93 bd aa a8 f7 bc a4 10 9a 3d
       -0.0883028 -0.07182762 -0.030231792 0.07522705
000110 c3 48 46 3d 6a 85 31 bd 04 a7 7f 3d 3d 62 97 bd
       0.048409235 -0.043340124 0.062415138 -0.07391784
000120 c1 d7 95 bd 16 14 f6 3c e2 80 44 bd af e0 0f 3d
       -0.073165424 0.030038875 -0.047974475 0.035126384
000130 89 fd ce 3d 20 f3 06 bd 3f a2 8c bd a6 00 25 3d
       0.10106952 -0.032946706 -0.068668835 0.04028382
000140 1d 4c b8 bd 5c 7c ba 3d c8 6c 45 bd cc 1b 4a 3d
       -0.089988925 0.09105751 -0.048199445 0.049342915
000150 66 61 a2 bd f3 e1 82 bd 1b 87 73 3c 35 3c 87 3c
       -0.079287335 -0.06390753 0.014863755 0.016508201
000160 ce 8e 78 3d 4a da 8a 3d de fa 47 bd 14 08 6c bd
       0.060683064 0.067799166 -0.04882323 -0.05762489
000170 1c be e8 bc 7d 37 c2 bc ac b0 63 3b 7b f4 c5 bd
       -0.028410964 -0.0237081 0.0034742756 -0.096657716
000180 35 42 be bd 7c aa 7a 3d c3 a1 8c bd 49 9a a4 3d
       -0.09289972 0.061197743 -0.06866791 0.0803724
000190 05 83 37 3c d4 a8 cb 3c d1 0e fc 3d 09 7f df bc
       0.011200671 0.024860777 0.123075135 -0.027282255
0001a0 f2 34 4b 3c 2b 11 9b 3c da 3d 12 3d d5 b7 c9 bd
       0.01240276 0.018929085 0.035703517 -0.09849516
0001b0 d7 94 14 3d 62 88 76 bd 3e a4 5b 3c 9f ae b3 3d
       0.036274757 -0.06018866 0.013405858 0.08773541
0001c0 85 6c 2d 3c 04 d3 8b 3c 4a ba 6c 3b c1 56 c6 3d
       0.010584955 0.017068394 0.003612178 0.09684516
0001d0 b9 5f 8f 3d ef 3a b5 bc 71 8c d2 bd 80 92 d3 bd
       0.070006795 -0.022122828 -0.10280693 -0.10330677
0001e0 96 7f a6 3d 25 60 96 3d 90 0d 72 3d 74 71 9a bd
       0.08129804 0.07342557 0.059094965 -0.07541171
0001f0 c3 40 aa 3d 5c 5f a7 bb d0 ff 99 3d 04 8c b5 3d
       0.083131336 -0.0051078033 0.075194955 0.088645965
000200 39 4a 37 3c 43 14 f3 bc a8 1a dd 3d 01 45 25 bd
       0.01118713 -0.029672747 0.107961 -0.04034901
000210 50 6e 98 3d 5f 13 ba bd e8 c9 d1 bc e0 3c b6 bd
       0.074429154 -0.09085726 -0.025608972 -0.0889833
000220 8e 86 3b bd ab 82 31 3d d8 7d 9c bd 63 7c be bd
       -0.04578262 0.043337505 -0.0764119 -0.09301069
000230 ca a8 89 3d b4 cd dd 3b 77 4a 49 bd 60 3c f4 bd
       0.06721647 0.0067689065 -0.04914328 -0.11925578
000240 e2 63 ed bc cb 1a 0f bd 9c 45 7a 3d fe 64 2f bd
       -0.028978292 -0.03493766 0.06110154 -0.042820923
000250 f7 db 1f bd 5b 0a a7 bd 56 f2 46 bc eb 45 b8 3d
       -0.039028134 -0.08156272 -0.012142738 0.08997711
000260 79 16 cc 3d 05 42 79 bc 54 b3 88 bd 9f 7a 91 3d
       0.09965224 -0.015213494 -0.06674829 0.07103466
000270 d7 fe 74 3d 10 ef 76 3a d7 c5 46 3b 26 a5 6c bb
       0.059813347 0.00094197784 0.0030330324 -0.0036109178
000280 8e 26 6f 3d c7 2f 3f 3d 62 f9 fb 3d 9f 02 33 3d
       0.058386378 0.046676423 0.12303425 0.04370367
000290 8a b6 06 3e 55 79 5e bd a1 26 73 bd 43 48 4e bd
       0.1315557 -0.05431493 -0.05936301 -0.050361883
0002a0 28 e0 f2 bd 17 5c b6 bd b5 f7 ec bd cd 8a 65 bc
       -0.11859161 -0.089042835 -0.11570684 -0.0140101435
0002b0 9a 0c 64 bb 7a 73 ea bc 27 d7 8b bd bd 68 bd 3d
       -0.003479755 -0.028619517 -0.068281464 0.09248493
0002c0 06 d1 0e bd 9c 38 47 3d db 90 91 3d 1d 67 89 bd
       -0.03486731 0.04863797 0.07107707 -0.067091204
0002d0 ce 61 9a bc 4b 59 62 3d ee 99 c6 3d 04 b3 0b bc
       -0.018845465 0.055260938 0.096973285 -0.008526567
0002e0 19 b5 9f 3d 12 9b 9b bd 32 f6 2b bd e6 f9 db 3d
       0.077982135 -0.07597937 -0.041982837 0.10741024
0002f0 02 23 7a 3c a9 7f ce 3d 75 31 f3 3b 1a 5e 2d bd
       0.015267136 0.10082943 0.007421667 -0.04232607
000300 c1 8d b4 3d 9f cd a0 3d 59 85 92 bb 00 6c 7d bd
       0.088161 0.07851719 -0.0044714627 -0.061870575
000310 0c cd 90 bb a6 0b 49 bd 3b 4b b6 3d dc 2e 98 3c
       -0.0044189747 -0.049083374 0.08901068 0.018577032
000320 7b 58 05 3d 1e d9 7f 3d df 26 0b 3d 2e 0e 82 bd
       0.032555085 0.06246292 0.033972617 -0.06350361
000330 fd a3 ad 3d 88 69 80 3d 9e 09 81 bd 2e 3a 00 3e
       0.08478544 0.062701285 -0.063006625 0.12522194
000340 d1 44 a9 3d 1d 80 0a 3d 16 d6 b5 bd 56 86 03 bd
       0.08265079 0.033813585 -0.08878724 -0.032110535
000350 ef c6 e9 bd b2 a5 8f 3d d2 1e b8 3d aa 40 23 bc
       -0.11414897 0.07014026 0.089902535 -0.009964148
000360 5b c6 c1 3d 86 cc 1a bd f6 2d 8f 3c fe c9 8a bd
       0.094616614 -0.037792705 0.01747797 -0.06776808
000370 4f 76 58 bb 61 c6 27 3d d4 5b 36 3d 6e 5b 0c bb
       -0.0033029502 0.040960673 0.044521168 -0.00214168
000380 8d ce 4b bd 89 eb b0 3d 6f e2 a0 3d d7 ea cd 3c
       -0.04975753 0.08638675 0.07855689 0.025136394
000390 aa 31 32 bd 57 11 b6 3c 74 fb 17 bb d3 f6 be 3d
       -0.043504395 0.022225065 -0.002319065 0.09324422
0003a0 44 ce 77 3c 7d f9 00 3c 3a aa bd bb cb 77 31 3d
       0.015124861 0.007871983 -0.005788115 0.043327134
0003b0 0f 42 2b bc 23 6f dc 3d 9d 89 a8 3d da fb 2f bd
       -0.010452761 0.10763385 0.08229373 -0.042964794
0003c0 18 a7 12 bb a0 1c b7 bd b7 25 a8 bd aa 19 2f 3a
       -0.0022377428 -0.08941007 -0.082103185 0.00066795445
0003d0 da e3 12 3a 92 50 05 bd a5 b4 80 3d 01 31 c6 bd
       0.00056034105 -0.03254754 0.06284455 -0.096773155
0003e0 8c 3e b0 bd 3f 56 1a bd 0d 7a c1 bc 32 56 0f bd
       -0.0860568 -0.037679907 -0.023617769 -0.03499431
0003f0 ce ae be 3d 5e 65 57 bd cb 5e 9d bd cd 49 b5 3c
       0.09310685 -0.052586906 -0.07684096 0.022129918

layer2.0.bias f4 [64]
000000 ad b0 b5 3d 4a 87 8b 3d fe d8 f9 bc 21 12 65 bd
       0.08871589 0.06812914 -0.030498978 -0.055925492
000010 93 ea ea 3c 77 5f ae bd 7c 95 1a bd 2d df f0 3c
       0.028676307 -0.08514302 -0.037740216 0.029403294
000020 5e 1f 23 3b 5a 04 2c 3d 91 dc 2e bd d1 d9 b1 3d
       0.0024890522 0.041996337 -0.042690817 0.08684123
000030 58 e2 65 bd 28 55 62 bd 9f 92 b0 3d c8 2d bf bc
       -0.05612406 -0.055256993 0.08621716 -0.02333726
000040 5b 0e 0e 3d a4 7b da bc 67 06 a0 bd ef 9b 44 3c
       0.03468166 -0.026670285 -0.07813721 0.012000068
000050 1b 42 37 3d 8c e3 96 3d fc a3 97 3d 8c 7b c1 bb
       0.044740777 0.0736762 0.074043244 -0.0059046205
000060 e1 21 94 3d 23 7a 02 3d 91 35 36 3b 4d d1 2b bc
       0.072330244 0.03185476 0.0027802924 -0.010486913
000070 00 67 75 bc ce 64 05 3d c7 d7 11 bb 75 df 82 3d
       -0.01497817 0.032566838 -0.0022253857 0.06390277
000080 ae 92 46 bc 9c 1c 23 bd e1 a7 f2 3c 69 61 6e bd
       -0.012119932 -0.039822206 0.029621067 -0.058198366
000090 ed 9b 83 3d 37 d3 b1 3d b0 e5 ac 3c bf 55 b5 bc
       0.06426225 0.08682864 0.021105617 -0.022135613
0000a0 b7 b2 a1 3c eb 56 31 3d 23 5a a2 bd 25 1e ad bc
       0.019738538 0.043295782 -0.079273485 -0.021132538
0000b0 c6 7c 5c bd 01 6f cf bd 7d 8e 95 bd aa a1 6a bd
       -0.05382993 -0.10128594 -0.07302568 -0.05728308
0000c0 a9 c1 a0 3d 30 99 98 3d 2a e7 8d bd b2 44 a8 bd
       0.07849438 0.07451093 -0.06928857 -0.082162276
0000d0 4c 04 b7 3d 6b 92 6d 3c e3 ed 63 3d ec 92 58 3c
       0.089363664 0.014500241 0.05564679 0.013218623
0000e0 a4 33 1c bd c3 15 48 bd df 47 4c 3d f4 7b ce bd
       -0.038135186 -0.04884888 0.04987323 -0.10082236
0000f0 80 0a de bd 1b a4 c9 3c 85 5e 14 bd 0b 00 be 3c
       -0.108418465 0.024614384 -0.036222953 0.02319338

fc.weight f4 [1, 2176]
000000 15 8c 82 3c 2e 5e be ba d6 a2 aa bb 7a 1e 06 bc
       0.015935937 -0.0014523917 -0.0052074 -0.008185977
000010 69 47 88 bc 82 4d 71 3b 3c d7 c2 3c 81 05 21 3c
       -0.016635614 0.003681988 0.023784272 0.009827972
000020 09 c1 b4 3c 80 c4 65 bb 38 10 a7 3b 02 e0 18 bc
       0.022064703 -0.003505975 0.005098369 -0.009330751
000030 2d 3a fe 3b ab 06 60 3c b8 e9 25 bb 39 98 83 3c
       0.0077584 0.013673465 -0.002531631 0.016063796
000040 99 6a b6 3b 4b a5 47 3c d7 74 e3 3c c4 20 a7 3c
       0.0055669066 0.012185405 0.027765675 0.020401366
000050 5a 26 54 3c dd b8 a1 3c c1 6a ff 3c ac 6c e7 bb
       0.012948597 0.01974147 0.031178834 -0.0070625152
000060 10 8e 55 3b 8d 41 7b 3c 91 49 41 3a 0f 35 31 bc
       0.0032585897 0.015335453 0.0007373328 -0.010815873
000070 e5 d0 22 bc be 2e 40 bc 01 58 e2 3b 72 55 47 3c
       -0.0099375 -0.011729894 0.0069074635 0.012166368
000080 1d cf 12 3a 5f 5f 42 bc c4 19 70 3d 67 b6 6a 3d
       0.00056003203 -0.011863559 0.058618322 0.05730286
000090 f2 96 1e 3d 3d ef 39 3d d5 69 43 3c bc e4 4a 3d
       0.03871817 0.04539417 0.011927088 0.049534544
0000a0 b5 99 b5 3d fa 3c c1 3d 5a 7c 8d 3d e5 c1 af 3d
       0.08867208 0.094354585 0.06908484 0.08581904
0000b0 8c 03 7c 3d b7 b9 1c 3d 70 41 b3 3d 18 95 ce 3d
       0.06152682 0.03826305 0.087527156 0.10087031
0000c0 38 d5 b1 3d 32 55 ae 3d 11 fc a3 3d 74 e4 94 3d
       0.086832464 0.085123435 0.08007062 0.072701365
0000d0 7f 47 ac 3d e7 80 57 3d 63 6a 71 3d 7e 64 89 3d
       0.08412074 0.052613165 0.05893935 0.067086205
0000e0 c4 8c a7 3d c9 dd 72 3d 7d 14 52 3d ba cb 24 3d
       0.08181146 0.059293542 0.05128907 0.04023335
0000f0 45 37 84 bc 80 dc 2c bd 9c 10 8d bd 7f 41 cc bc
       -0.016139636 -0.042202473 -0.068879336 -0.024933575
000100 42 32 02 bd 1c 40 f3 bc 48 58 be bc 99 58 e0 3a
       -0.03178621 -0.029693656 -0.023235455 0.0017116248
000110 81 ac 27 bb 81 9f 3f 3c 98 99 e7 bb 60 6b 9d bb
       -0.0025584998 0.011695744 -0.0070678703 -0.00480406
000120 86 8a 8a bc 84 e3 94 bc 4a 61 b2 3b 4e 1d b1 3b
       -0.016911756 -0.018174894 0.0054437267 0.0054051047
000130 eb f8 6d 3c b8 fa 70 3c 61 12 4c 3c 86 b6 d2 3b
       0.014524679 0.0147082135 0.012455554 0.00643045
000140 37 bb 41 3c b7 3c da 3b 36 30 bd bc 45 d8 f8 3b
       0.011824421 0.00666007 -0.023094278 0.0075941407
000150 31 50 e0 ba 43 ec d7 bb b2 b6 9c bb 53 3a 69 3c
       -0.0017113743 -0.006589444 -0.004782521 0.014235097
000160 65 68 4d 3c 0a 8c d0 bb 5c 71 95 bc 7a 12 97 bc
       0.012537097 -0.00636435 -0.01824253 -0.018441427
000170 60 65 99 3b 04 31 25 bb a6 5e 0c 3b 8b b5 ff 3b
       0.0046812743 -0.0025206218 0.002141872 0.007803624
000180 5a ef b3 3c 95 3b 10 3d 7a f1 ca 3c 67 79 f1 3c
       0.021964718 0.03521307 0.024773348 0.029476834
000190 3b ee dd 3b 83 28 e4 3b 10 b6 19 bc 64 73 0d bc
       0.006772784 0.006962837 -0.009381786 -0.008633468
0001a0 18 43 f2 bb 13 bb 83 bc 57 d7 e5 bb 95 6c 59 bc
       -0.007393252 -0.016080415 -0.007014196 -0.013270517
0001b0 bd 3d d1 3b 84 a6 8b ba 58 fd 8e 3a f5 e9 14 3c
       0.0063855336 -0.0010654484 0.0010909243 0.009088983
0001c0 fd 1c 9e bc ae 81 09 bc 77 e2 3e ba 66 17 a4 bc
       -0.019300932 -0.008392734 -0.00072816707 -0.020030688
0001d0 d9 a3 3a 3c e6 dd 83 bc 20 6d 6d 3c 78 cb ad 3c
       0.011391603 -0.01609702 0.014491349 0.021215186
0001e0 75 c4 90 3b af f3 2a bc 23 e3 77 3c 66 42 66 bc
       0.0044179508 -0.010434075 0.015129837 -0.014053917
0001f0 38 09 85 3a 1a 36 5c 3c 17 a3 a4 3c c6 e3 cd 3a
       0.0010149842 0.013440633 0.020097299 0.001570814
000200 00 42 d5 ba 7b d3 f3 ba 2b 43 aa bc b4 a6 79 3b
       -0.001627028 -0.0018602455 -0.020783981 0.0038093748
000210 2a 64 8b bc 41 96 fc 3a 30 eb a6 bb 7f 57 5f 3c
       -0.017015535 0.0019270853 -0.0050939545 0.013631701
000220 1f 0d 33 3c 8a 16 09 3d 1c 22 02 3c b0 7e 94 3a
       0.010928421 0.03346876 0.007942703 0.001132926
000230 c3 66 9a bc 6a 0c d9 3c e7 30 82 3c 77 29 1e bc
       -0.018847829 0.026495177 0.01589246 -0.009653441
000240 40 ab 86 3c 5b cb b7 3c a8 cb 6e 3b c6 0e b9 3c
       0.01643908 0.022435835 0.0036437307 0.022590052
000250 6b 03 9c 3c 1f c9 6f 3c 39 d1 14 3d cd 2d e4 3c
       0.019044599 0.014635353 0.036332343 0.02785387
000260 e4 93 c0 3b 9f 38 21 3c 44 b4 94 3c c4 29 8a 3c
       0.005877005 0.00984016 0.018152364 0.016865619
000270 e1 9d f7 3c 00 d0 b1 3a a9 0f a4 3c c3 75 0e 3d
       0.03022665 0.0013566017 0.020026999 0.034780275
000280 74 2b 87 bb c2 4d c0 3b e4 1b 4e 3b 54 f4 c7 3c
       -0.004125053 0.0058686445 0.003144973 0.024408497
000290 13 30 73 3c 4b f9 18 bc bc 98 2c 3c 47 cf 97 bc
       0.014843005 -0.00933678 0.010534462 -0.018531455
0002a0 9a e7 e1 bb 1b 4c 01 3c a4 32 6a bc a1 94 01 bb
       -0.006894064 0.00789168 -0.0142943 -0.0019772428
0002b0 5c a5 ec bb e8 9d a6 bb a1 cf fe bb c7 d1 60 3c
       -0.007221861 -0.005084742 -0.007776216 0.01372189
0002c0 90 98 2c bc f5 08 6d bc 8c b8 17 3c 54 98 e3 3b
       -0.010534421 -0.014467468 0.009260308 0.006945649
0002d0 4d b8 6a 39 5e 8a e7 3a b9 5d ac 3c 76 00 eb bb
       0.00022384636 0.0017665138 0.021040784 -0.007171686
0002e0 ac b8 9c bc f7 f8 ac bc fd 1c b6 3b a2 e4 08 3c
       -0.019131027 -0.02111481 0.005557655 0.008355292
0002f0 92 d3 9e 39 4e f2 91 bc f5 2d 89 bc 38 52 6f bc
       0.0003029374 -0.017815735 -0.016745547 -0.014607005
000300 61 1d 62 3c f2 a8 89 3b 73 9f 43 bc 82 14 a6 bc
       0.01380095 0.004201048 -0.011939871 -0.02027345
000310 59 c8 49 3c 87 8b 71 39 25 90 ae 3c f8 e2 8f bc
       0.012315833 0.00023035529 0.021308968 -0.017564282
000320 b0 70 8e bc c6 64 72 3b 69 68 6b 3c c9 01 68 3c
       -0.017387718 0.0036986335 0.014368155 0.014160582
000330 36 9a d1 3c 09 ea c2 3c 6a af 68 3c 33 13 10 bc
       0.025586229 0.023793237 0.014201978 -0.00879364
000340 4b 1a 95 3c a1 cf 4c bb 8f 96 dd 3c e4 0c b2 3c
       0.018201014 -0.0031251686 0.027049331 0.021734662
000350 95 76 51 3b 02 31 25 3c 26 b1 0a 3b 3a 50 a4 3c
       0.003196155 0.010082485 0.0021162718 0.020057786
000360 b9 a3 a9 3c 2e 7a 69 3c 4d d4 29 bb af 78 27 3c
       0.020707952 0.014250321 -0.0025913895 0.010221644
000370 f3 14 80 3c ce 38 28 bc 24 c0 80 3c 1b 51 05 3c
       0.01563499 -0.01026745 0.01571662 0.008137013
000380 95 b9 b1 3c f8 24 41 3c 56 02 52 3c c3 b9 7d bc
       0.021694938 0.011788599 0.01281794 -0.015486184
000390 53 ec e6 3b 70 57 4f bc 5d 22 1a 3c e4 74 09 3d
       0.007047215 -0.012655124 0.009407607 0.03355874
0003a0 cd 6e 25 3b 98 47 d3 3b 28 8a cf 3b e3 b0 72 3c
       0.0025243044 0.0064477436 0.006333608 0.014812681
0003b0 11 ee 2b 3c 6c 12 34 3a 59 4a 46 bd 02 91 90 bd
       0.010493771 0.00068692 -0.048410747 -0.07058908
0003c0 79 a8 6e bd 26 bf 72 bd 4e c7 27 bd 88 67 95 bd
       -0.058266137 -0.059264325 -0.040961556 -0.07295138
0003d0 69 7f d5 bd 11 d0 e7 bd 1c 8a bd bd cd 76 3c bd
       -0.10424692 -0.113189824 -0.09254858 -0.046011735
0003e0 6c 04 cb bc af a7 ae bc 68 dc 5f 3c a3 d6 ca 3d
       -0.024782382 -0.021320192 0.013663389 0.0990422
0003f0 b2 56 cd 3c 7b a7 68 bc 33 3a b2 3b a1 a1 3e bd
       0.025065754 -0.014200087 0.005439067 -0.04654086
