examples/1. ML/1-2. Regression/Models/GRU_rg/CLUST/Electronics/91bdf62f28aed66ed66131a647714e06_3923db46bf38313b935c61b7e06ee186/ff29d441f0e3495200ba5ab86124700a/model.pt (torch, 441583 bytes, 17 tensors)

rnn.weight_ih_l0 f4 [192, 24]
0	0x3dc7bc3c	0.097527
1	0x3de6d350	0.112707734
2	0xbcb2e38c	-0.021837018
3	0x3de76974	0.112994105
4	0xbce4f492	-0.027948651
5	0x3cfdd264	0.030984111
6	0xbd5ef035	-0.054428298
7	0x3d852a88	0.06502253
8	0x3dd445c1	0.10364867
9	0xbdb3ca74	-0.08778849
10	0x3df4526c	0.11929783
11	0xbac5415c	-0.0015049386
12	0x3dde3aa2	0.10851027
13	0x3d229db8	0.039701194
14	0x3d95d44d	0.07315884
15	0xbad5dd81	-0.0016316624
16	0x3ddc4404	0.107551605
17	0x3d2a0b2f	0.04151457
18	0xbd85c71f	-0.0653212
19	0x3d03feea	0.032225527
20	0xbd350ce9	-0.044201765
21	0xbc0de33a	-0.008660132
22	0xbd1adb1f	-0.037806626
23	0x3dc10b22	0.094259515
24	0xbdd10a74	-0.10207072
25	0xbd5c6c3c	-0.053814158
26	0xbcf79bd5	-0.030225674
27	0xbda7ecf8	-0.08199495
28	0x3be66015	0.007030497
29	0xbdf0461f	-0.117321245
30	0x3dd6cd9d	0.10488436
31	0xbe00961a	-0.12557259
32	0x3db77250	0.0895735
33	0x3c06c56a	0.008225778
34	0xbd4ac1d2	-0.049501248
35	0x3d29045a	0.041263916
36	0x3c9d3bfa	0.019193638
37	0x3dcdf0c7	0.1005569
38	0x3c8389bd	0.01605689
39	0xbd0b49a2	-0.03400577
40	0x3cfeff11	0.031127485
41	0xbcd3c522	-0.025850836
42	0x3d72854e	0.05920916
43	0x3dcee043	0.10101368
44	0x3d9992df	0.074987166
45	0xbd80319f	-0.062594645
46	0x3d8ddfdf	0.06927466
47	0x3c73663c	0.014855918
48	0x3daf06fa	0.085462525
49	0xbd5d767e	-0.05406808
50	0xbde6380e	-0.1124116
51	0xbcab624b	-0.020920893
52	0xbd8460b6	-0.06463759
53	0x3dddad26	0.10824041
54	0x3d760c8d	0.060070563
55	0x3d98e227	0.0746501
56	0x3d91628c	0.070988744
57	0x3d508f3a	0.05091784
58	0x3e174cb0	0.14775348
59	0xbc8b03af	-0.01696953
60	0x3d5b7e2d	0.053587127
61	0xbd4882b3	-0.04895277
62	0x3d9a6d52	0.075403824
63	0x3c4872f3	0.012234437
64	0x3da2596a	0.07927211
65	0x3c86c9e4	0.01645369
66	0x3e0f399b	0.13986818
67	0xbd994751	-0.07484306
68	0xbd07f799	-0.033195112
69	0xbd53e143	-0.0517285
70	0x3df66b9e	0.12032245
71	0x3d74fa46	0.05980899
72	0x3df8cac1	0.12148047
73	0xbdd3854e	-0.1032816
74	0xbe03fa4b	-0.12888448
75	0xbdce3c36	-0.10070078
76	0xbdac0954	-0.08400217
77	0x3d3d60be	0.04623484
78	0x3d18413a	0.03717158
79	0x3dc8bfda	0.09802218
80	0xbd84e6aa	-0.06489308
81	0xbdbc48fb	-0.091936074
82	0x3d6a8b91	0.057262007
83	0xbd5130a0	-0.051071763
84	0x3d930c7d	0.07180116
85	0xbd11337a	-0.035449483
86	0x3d8cdbde	0.06877874
87	0xbdca131d	-0.09866927
88	0xbd86034d	-0.06543598
89	0x3d1c7fb5	0.03820773
90	0x3ca184b0	0.01971659
91	0xbd29f121	-0.041489724
92	0x3d94d88c	0.072678655
93	0x3da04f3c	0.07827613
94	0xbdbfc3d2	-0.09363522
95	0xbd88a86b	-0.06672748
96	0x3dfa67e8	0.1222685
97	0xbd0ec5ca	-0.034856595
98	0xbd282434	-0.04105015
99	0xbde39758	-0.11112851
100	0xbd6432c0	-0.05571246
101	0x3d476369	0.04867879
102	0xbc1bdf29	-0.009513655
103	0xbd9e1a1d	-0.077198245
104	0x3c759166	0.014988279
105	0xbd922a64	-0.071369916
106	0xbdc7f75f	-0.09763979
107	0xbd33eef3	-0.04392905
108	0xbdd6c4e9	-0.104867764
109	0xbd9dc770	-0.07704055
110	0x3e006fb7	0.12542616
111	0x3d03fa1a	0.032220937
112	0x3d4a0b11	0.04932696
113	0xbdec7064	-0.11544874
114	0xbd8ce126	-0.06878881
115	0xbcea3e65	-0.028594205
116	0x3ca506fc	0.020144932
117	0xbdda573d	-0.10661171
118	0xbd40ecb5	-0.04710074
119	0xbd952fb0	-0.07284486
120	0xbc8e5a0e	-0.017376926
121	0xbd6027b7	-0.054725375
122	0xbb9fd25a	-0.004877371
123	0xbdc81548	-0.09769684
124	0xbdcd14d1	-0.10013736
125	0xbd8f4fe7	-0.06997662
126	0xbd4972f6	-0.0491819
127	0xbde9e947	-0.11421447
128	0x3dcf5ac4	0.10124734
129	0xbce7e3c1	-0.028306844
130	0x3ddf0d59	0.10891218
131	0x3c5ee979	0.013605469
132	0xbdc68bc0	-0.09694624
133	0x3dc05f00	0.0939312
134	0xbd0cb3cb	-0.03435115
135	0xbd2e045e	-0.042484634
136	0xbdd618ce	-0.1045395
137	0xbdde59c3	-0.108569644
138	0x3cf25a7d	0.029584164
139	0xbd0999f3	-0.033594083
140	0x3d52c77b	0.05145977
141	0xbddb33fe	-0.10703276
142	0x3dcf6cdb	0.101281844
143	0xbdbd9640	-0.092571735
144	0xbc68eba6	-0.014216339
145	0x3cef3be9	0.029203372
146	0x3d8cd5ab	0.068766914
147	0x3de1d1eb	0.11026367
148	0x3e01098f	0.12601303
149	0xbdb21299	-0.086949535
150	0x3d14e1e8	0.036348253
151	0xbd223151	-0.039597813
152	0x39651a68	0.00021848979
153	0xbdaabcec	-0.08336815
154	0x3df57079	0.11984343
155	0xbd82d25a	-0.063877776
156	0x3d86618c	0.06561574
157	0x3d1d23c5	0.03836419
158	0x3d303222	0.04301656
159	0xbd8a546a	-0.06754382
160	0x3df2a6f9	0.11848254
161	0x3c95acce	0.018270876
162	0x3d07de9b	0.033171277
163	0xbdd62ab6	-0.10457365
164	0x3d63884e	0.055549912
165	0xbc8b4734	-0.017001726
166	0xbd5a96aa	-0.05336634
167	0x3dde3e98	0.108517826
168	0x3d172a45	0.036905546
169	0xbd75105a	-0.059830047
170	0xbd80b723	-0.062849306
171	0x3bb3d6a7	0.005488235
172	0x3db27720	0.087141275
173	0xbc8869e0	-0.016652048
174	0xbd7958a2	-0.060875542
175	0xbceda281	-0.029008152
176	0xbdabb100	-0.083833694
177	0x3d6a876c	0.057258055
178	0x3dd6a808	0.10481268
179	0xbdc77d98	-0.09740752
180	0x3d03648b	0.032078307
181	0x3d921689	0.071332045
182	0x3cd25da0	0.02567941
183	0xbd1f630f	-0.03891283
184	0x3d9986b6	0.07496397
185	0x3d88411b	0.06653043
186	0x3d5ad70c	0.05342774
187	0xbc52c5fe	-0.012864588
188	0xbcebfab9	-0.028806077
189	0x3c999741	0.018748881
190	0xbc5e03c4	-0.0135507025
191	0xbcc76adf	-0.024342952
192	0x3dab6d96	0.08370511
193	0x3de1fe8d	0.1103488
194	0xbc5eef8c	-0.013606917
195	0xbcadefe5	-0.021232555
196	0x3c5c426c	0.013443571
197	0x3bb46361	0.005505011
198	0x3d1086b8	0.035284728
199	0x3d40f0d5	0.047104675
200	0xbddbef81	-0.10739041
201	0xbd1a82d0	-0.03772241
202	0x3dddda38	0.108326375
203	0x3d8e762c	0.06956133
204	0xbc202388	-0.009774096
205	0xbda8413a	-0.08215566
206	0xbda739bb	-0.08165308
207	0xbde1a454	-0.11017671
208	0xbd14a0fb	-0.036286335
209	0x3cf38ded	0.029730761
210	0x3dbf5403	0.09342196
211	0x3d8c3c26	0.0684741
212	0xbdef4ec1	-0.11684943
213	0xbd9c3da8	-0.076289475
214	0xbcb91e58	-0.022597477
215	0x3deb6a86	0.11494927
216	0x3c9b525d	0.018960172
217	0xbd00d91c	-0.03145705
218	0x3d545be9	0.051845465
219	0xbd3199b1	-0.043359462
220	0xbd8f496e	-0.069964275
221	0x3de3af63	0.11117437
222	0xbd5bed83	-0.053693306
223	0xbc532da9	-0.012889304
224	0xbdf1f0d9	-0.11813516
225	0x3db52ef7	0.088468485
226	0x3dbea25b	0.093083106
227	0x3d7a7ae7	0.061152365
228	0xbdc53482	-0.09629156
229	0xbe0e5e51	-0.13903166
230	0xbde69cad	-0.11260352
231	0x3db389c6	0.087665126
232	0x3d7659fc	0.06014441
233	0x3dadb227	0.084812455
234	0x3daa7ddd	0.08324788
235	0x3d45c13f	0.048279997
236	0xbc6a91da	-0.014317
237	0xbdc8e7fd	-0.09809873
238	0xbdd90b7a	-0.10597892
239	0xbe03f9b2	-0.1288822
240	0x3d800c00	0.06252289
241	0xbd4ac849	-0.049507413
242	0xbcad0b39	-0.021123515
243	0xbd7a524b	-0.061113637
244	0xbbce1e08	-0.006290201
245	0xbd9d1fd2	-0.07672085
246	0xbd958f0c	-0.07302675
247	0x3d56a434	0.05240269
248	0xbceeee9d	-0.029166514
249	0x3db5b350	0.08872092
250	0xbd0160cb	-0.03158645
251	0xbd99ee75	-0.07516185
252	0xbc85e4b8	-0.016344413
253	0xbd54f1e7	-0.05198851
254	0xbd033d5d	-0.032040942
255	0xbddd1da9	-0.10796673

rnn.weight_hh_l0 f4 [192, 64]
0	0x3d8ad2c4	0.067784816
1	0xbdea88d8	-0.11451882
2	0xbc28dbab	-0.010306279
3	0xbde80e1f	-0.113308184
4	0xbd87fce0	-0.06640029
5	0x3db0ec2c	0.08638796
6	0x3ded6ab4	0.11592618
7	0x3b93545e	0.0044961413
8	0xbdb88917	-0.09010523
9	0xbdcdcfc6	-0.10049395
10	0xbd2f66bf	-0.042822596
11	0xbd311dfb	-0.043241482
12	0x3d82c3a3	0.06384971
13	0xbda55ba4	-0.0807412
14	0x3daa8994	0.08327022
15	0x3c667162	0.0140651185
16	0xbd7276c4	-0.059195295
17	0x3dd5ff19	0.10449047
18	0x3d95ada7	0.07308512
19	0x3d7b9ef3	0.061430883
20	0xbdb79ef9	-0.089658685
21	0xbd08fab2	-0.033442207
22	0x3d6c3b6b	0.057673853
23	0x3e0ebc96	0.13939127
24	0xbd355a36	-0.044275485
25	0xbdc367bc	-0.0954127
26	0xbde2af45	-0.11068586
27	0x3d8212e6	0.06351261
28	0x3e01a6b1	0.12661244
29	0x3dcd4c7b	0.10024353
30	0xbda0d4c2	-0.0785308
31	0x3dd5ab19	0.10433025
32	0xbdf059bb	-0.11735865
33	0x3cd60339	0.026124584
34	0x3d8d2ed9	0.06893701
35	0xbde1dd7b	-0.11028572
36	0x3d06a34b	0.032870572
37	0x3d60a9c5	0.054849405
38	0xbde2debc	-0.110776395
39	0x3e0e16ac	0.13875836
40	0x3dc8c6ed	0.09803567
41	0x3de4497f	0.11146831
42	0xbcc655f9	-0.024210917
43	0xbdbe4cee	-0.09292017
44	0xbd8e2e60	-0.06942439
45	0x3d8871f4	0.0666236
46	0xbc4a2e0e	-0.012340082
47	0x3dd8255f	0.10554003
48	0x3dbbbde2	0.09167077
49	0x396f36c8	0.00022813224
50	0xbdb57bc9	-0.08861501
51	0x3d65465b	0.0559753
52	0x3dff5354	0.124670655
53	0xbd44a4ea	-0.048008837
54	0xbd8ca9e0	-0.068683386
55	0xbc5f7ec4	-0.013641063
56	0x3cb71c31	0.02235231
57	0xbddbbae3	-0.10729005
58	0x3d80d119	0.06289882
59	0x3d1c9859	0.038231228
60	0xbc82aca2	-0.015951458
61	0xbd6af5f9	-0.057363484
62	0xbd52d1e6	-0.051469706
63	0x3e0600f3	0.130863
64	0x3e1b50ca	0.15167537
65	0x3cccc851	0.024997862
66	0xbd04c68e	-0.03241592
67	0xb9dd8338	-0.0004225017
68	0x3e115039	0.14190759
69	0x3cb82870	0.02248022
70	0xbd4393a5	-0.047748227
71	0x3d779277	0.060442414
72	0xbd2380c2	-0.039917715
73	0xba8da55a	-0.0010806725
74	0xbd9881cb	-0.07446631
75	0xbc087b79	-0.008330219
76	0xbc8031f5	-0.015648821
77	0xbd8ab6a6	-0.06773119
78	0x3da7d5c5	0.0819507
79	0x3e0ec83f	0.13943575
80	0xbdb42ac2	-0.08797218
81	0x3d3c7164	0.046006575
82	0xbda3c8a2	-0.07997252
83	0x3cfa3876	0.0305445
84	0x3d6254e6	0.055256747
85	0x3c255e8b	0.010093342
86	0x3d5dbe7c	0.05413674
87	0xbd1ada30	-0.037805736
88	0x3e292284	0.16517073
89	0xbdaf9e3b	-0.08575102
90	0x3d60a00d	0.054840136
91	0x3ca8312d	0.020531261
92	0x3dbaaef4	0.09115401
93	0x3c0c4ad5	0.008562763
94	0x3da934c3	0.082620166
95	0x3ce0065c	0.027346782
96	0xbc9ec50f	-0.019381074
97	0xbd2cc63a	-0.04218123
98	0x3d400ee2	0.046889193
99	0x3dd2024d	0.10254345
100	0xbd36e587	-0.044652488
101	0xbd742e9a	-0.059614755
102	0x3d4db664	0.05022277
103	0x3d73f6ce	0.059561543
104	0xbe055e7e	-0.13024327
105	0x3d929b49	0.071585245
106	0xbde9e8d7	-0.11421364
107	0xbddb0312	-0.10693945
108	0x3d69c6d2	0.057074375
109	0x3db6dc02	0.08928682
110	0xbcc9df1d	-0.024642522
111	0x3decd0df	0.115632765
112	0x3dcc5131	0.099764235
113	0x3d8d3b8a	0.06896122
114	0xbdf37989	-0.11888415
115	0xbd2799bb	-0.040918093
116	0x3bc69163	0.006059812
117	0x3db5d79e	0.08879016
118	0xbc4fdbcb	-0.01268668
119	0x3bff7d61	0.0077969288
120	0x3d9b7de4	0.07592371
121	0xbd875135	-0.06607286
122	0xbd79fd8c	-0.061032817
123	0x3ded6303	0.115911506
124	0x3c4d3942	0.012525858
125	0x3dd769e2	0.105182424
126	0xbe020f5c	-0.12701172
127	0xbc823a9d	-0.01589709
128	0x3db0e9f9	0.08638377
129	0xbcd9a4a1	-0.026567759
130	0x3d9d5186	0.07681565
131	0xbddaf564	-0.10691336
132	0x3dad340a	0.08457191
133	0xbcb5299f	-0.022114573
134	0xbd4ad4bc	-0.049519286
135	0xbd29a74d	-0.041419316
136	0xbdfe2db1	-0.12411059
137	0xbe35e6f5	-0.17763884
138	0xbe124b8b	-0.1428663
139	0xbc96c6bb	-0.018405309
140	0x3cbed7b3	0.023296213
141	0x3ddf1d13	0.10894217
142	0x3d72f884	0.059319034
143	0x3d8bab86	0.06819825
144	0xbdb03a27	-0.08604842
145	0xbd0f1cff	-0.034939762
146	0x3d9e2a14	0.077228695
147	0xbe0a75f2	-0.13521555
148	0xbd15f4c1	-0.03661037
149	0x3d54a559	0.0519155
150	0xbdd057b1	-0.10172976
151	0x3c977b31	0.01849136
152	0xbccc5197	-0.024941249
153	0xbd66c87e	-0.056343548
154	0xbd1f27a8	-0.03885618
155	0xbd35fd78	-0.04443118
156	0x3d627d1a	0.055295087
157	0xbc5d5b39	-0.013510519
158	0xbdc6791f	-0.09691071
159	0x3c399fdd	0.011329618
160	0x3d90a795	0.07063214
161	0x3d86d1d5	0.06582991
162	0xbe284568	-0.16432726
163	0xbd4f4d4b	-0.05061082
164	0xbdb01fed	-0.08599839
165	0x3db80a5d	0.08986352
166	0x3df610fb	0.120149575
167	0xbdd2bdfa	-0.102901414
168	0x3d9e53b2	0.07730807
169	0xbc3fd779	-0.0117090875
170	0xbdfa10e0	-0.1221025
171	0x3d86fdf0	0.065914035
172	0x3de4dc10	0.11174786
173	0x3d7de934	0.061989978
174	0x3db2462e	0.08704792
175	0xbd958609	-0.07300956
176	0xbca7dddd	-0.020491535
177	0xbcc7bc15	-0.024381677
178	0x3bbff0c4	0.005857559
179	0xbd5a1d3d	-0.05325054
180	0x3dad18ae	0.08451973
181	0xbe0e91ab	-0.13922755
182	0xbce29d99	-0.027663039
183	0x3c8891a7	0.016671015
184	0xbd26ba7f	-0.0407052
185	0x3d9af5bd	0.07566402
186	0xbd7bee65	-0.061506648
187	0xbd8312ad	-0.064000465
188	0xbd984dd7	-0.07436722
189	0xbe2aaca4	-0.1666742
190	0xbdacfa7f	-0.08446216
191	0xbc88d54b	-0.016703269
192	0xbda6af3f	-0.08138894
193	0x3d9e97f1	0.07743824
194	0xbcf8a3fa	-0.030351628
195	0x3d2d644f	0.04233199
196	0x3de2992f	0.11064374
197	0x3c2b704b	0.010463784
198	0x3d611559	0.054952
199	0x3dccdbd9	0.1000287
200	0xbd14edc8	-0.03635958
201	0x3dc72b85	0.097250976
202	0xbdca50ca	-0.098786905
203	0x3dd80e32	0.105495825
204	0xbd18afa6	-0.037276886
205	0xbb73a0f1	-0.0037174786
206	0x3d96db3a	0.07366033
207	0x3c860910	0.016361743
208	0x3de4873f	0.11158609
209	0xbd5246d9	-0.051337097
210	0xbd8939a7	-0.067004494
211	0x3dbe0ea8	0.09280139
212	0xbd8d637f	-0.06903743
213	0x3db20841	0.086929806
214	0x3df8207a	0.121155694
215	0x3dadd933	0.08488693
216	0xbd10b2f8	-0.035326928
217	0x3bb1316b	0.0054075024
218	0xbde1f533	-0.11033096
219	0xbda81384	-0.08206847
220	0xbd12721a	-0.035753347
221	0xbdad465e	-0.08460687
222	0x3d988cde	0.07448743
223	0x3d7b2603	0.061315548
224	0xbd378d4e	-0.044812493
225	0xbcc8af15	-0.024497548
226	0x3e016505	0.12636192
227	0xbc5d279f	-0.013498216
228	0x3dce02d0	0.1005913
229	0x3de178c0	0.11009359
230	0xbd2bd51d	-0.041951288
231	0xbe048d4d	-0.12944527
232	0x3de56f24	0.11202839
233	0xbd656462	-0.056003936
234	0x3e015a96	0.12632212
235	0xbd9fe487	-0.0780726
236	0x3b9f6abf	0.00486502
237	0x3d0594e5	0.0326127
238	0xbd0ecf4c	-0.034865662
239	0x3dcb71c5	0.09933809
240	0xbdf762b1	-0.12079371
241	0xbd5e9ecc	-0.05435066
242	0xbc91fb29	-0.017819958
243	0x3dcce7b2	0.1000513
244	0x3d46d521	0.0485431
245	0x3d9b5f3a	0.075865224
246	0x3d6fb4e2	0.058522113
247	0x3de61500	0.11234474
248	0xbcccb0f8	-0.024986729
249	0xbd12436e	-0.035708837
250	0xbcb50814	-0.022098579
251	0x3d52395a	0.051324226
252	0xbd36ae68	-0.04459992
253	0x3d2893e4	0.041156664
254	0x3cdf0c4c	0.027227543
255	0x3ce5a354	0.028031982

rnn.bias_ih_l0 f4 [192]
0	0xbdccdfc5	-0.10003618
1	0x3de5f686	0.11228661
2	0xbd75d99a	-0.060021974
3	0xbd66046e	-0.05615657
4	0xbc26b88c	-0.010175835
5	0x3a129c48	0.0005592746
6	0xbbd1451c	-0.0063864123
7	0x3dcd38d2	0.10020603
8	0x3dc869d8	0.09785813
9	0xbdd9e6cc	-0.10639724
10	0xbdda9c6e	-0.10674368
11	0xbdee38ec	-0.11631951
12	0x3e2876d0	0.16451573
13	0xbbd26b2f	-0.0064214687
14	0xbd28f0d2	-0.04124529
15	0xbdab4a2a	-0.08363755
16	0x3cb7c2e2	0.022431795
17	0x3d50a4f8	0.050938576
18	0x3d8f8faf	0.07009827
19	0x3dd93cab	0.106072746
20	0x3daa0e3b	0.083034955
21	0xbd223781	-0.039603714
22	0x3c48cad7	0.012255392
23	0xbd8c5429	-0.0685199
24	0xbc6099da	-0.013708556
25	0x3bf32aea	0.0074208872
26	0x3d8a6429	0.06757385
27	0xbd25f949	-0.04052094
28	0xbd7cae05	-0.061689395
29	0xbc88ee2c	-0.016715132
30	0x3d8b2a09	0.06795127
31	0x3cbaae8b	0.022788307
32	0x3dd50d43	0.1040292
33	0xbda5d290	-0.08096802
34	0x3d2db01b	0.042404275
35	0x3dedf93a	0.11619802
36	0x3d9c2e5b	0.07626029
37	0xbdda4163	-0.10657003
38	0xbd387029	-0.04502884
39	0x3d7609c7	0.06006792
40	0x3afd1fb3	0.0019311815
41	0x3dad873d	0.0847306
42	0x3deeea6a	0.11665805
43	0x3ccd31b5	0.025048116
44	0xbcc8062e	-0.02441701
45	0x3dd12aa5	0.10213212
46	0xbda12f87	-0.07870393
47	0xbd55aac3	-0.052164804
48	0x3d0fa1af	0.035066303
49	0xbc9dbdeb	-0.019255599
50	0x3d9d4b57	0.076803856
51	0xbc4b6ef8	-0.012416594
52	0x3cccbfa2	0.024993721
53	0x3d3ee8a9	0.0466086
54	0xbbbc8276	-0.005752857
55	0xbc5e4a0e	-0.013567461
56	0x3dbeaf29	0.09310753
57	0x3d927882	0.07151891
58	0xbb8e7457	-0.004347365
59	0xbdad5755	-0.08463923
60	0xba9bacb7	-0.0011877035
61	0x3db60e84	0.088894874
62	0x3da9adb6	0.08285086
63	0x3ce6b1f7	0.028161032
64	0x3e384255	0.17994054
65	0x3b0347c9	0.00200318
66	0xbd7e4e96	-0.062086664
67	0x3c85e2e1	0.016343536
68	0x3d70ab35	0.058757026
69	0xbdb5db62	-0.088797346
70	0x3da08e66	0.0783966
71	0xbd46fd3b	-0.048581343
72	0xbd72cc56	-0.0592769
73	0xbdfb2590	-0.12263024
74	0xbd95e627	-0.07319289
75	0xbe22ea51	-0.15909697
76	0x3d92e902	0.07173349
77	0xbd198610	-0.037481368
78	0x3c8925c6	0.016741645
79	0xbcfb630a	-0.030686874
80	0xbc2fcffc	-0.01073074
81	0xbcde14f9	-0.02710961
82	0x3d6249a3	0.055246007
83	0xbdc7320a	-0.09726341
84	0xbd51eaa8	-0.051249176
85	0x3d259888	0.04042867
86	0x3d3c0074	0.04589887
87	0xbe2d9c61	-0.16954185
88	0x3e072f6e	0.13201687
89	0x3d6c378e	0.05767017
90	0xbdea3bf8	-0.114372194
91	0xbd7a770e	-0.061148696
92	0x3d91c981	0.07118512
93	0xbc9eb627	-0.019373966
94	0x3d14ae93	0.0362993
95	0x3af4830f	0.0018654781
96	0x3db5ec05	0.08882908
97	0xbe15d7f1	-0.14633156
98	0xbdbd360f	-0.092388265
99	0x3d8ca54c	0.068674654
100	0x3da51156	0.08059947
101	0x3c68413f	0.014175712
102	0x3e24039e	0.16017005
103	0x3cc751a2	0.024330918
104	0xbc200038	-0.009765677
105	0x3dd9038d	0.105963804
106	0xbd2a10eb	-0.04152004
107	0x3d923ec2	0.07140876
108	0x3dea7b47	0.114492945
109	0xbd399d5b	-0.04531608
110	0x3dbdf8a2	0.092759386
111	0xbcb05b0c	-0.02152779
112	0x3d00f9a8	0.03148809
113	0x3e2e0be1	0.16996719
114	0xbb12b83f	-0.0022387651
115	0xbd871012	-0.06594862
116	0xbddc82ed	-0.107671596
117	0x3e049987	0.12949191
118	0xbd25bdee	-0.040464334
119	0xbdd0b459	-0.101906486
120	0xbc674493	-0.01411547
121	0x3dd0012a	0.10156472
122	0x3d037142	0.032090433
123	0xbdd1f197	-0.10251158
124	0xbc95e579	-0.018297898
125	0xbccb51fe	-0.02481937
126	0x3e08e1c6	0.13367376
127	0x3e202c26	0.15641841
128	0xbc8e2a9e	-0.017354306
129	0xbc957582	-0.018244509
130	0xbdbae4ea	-0.09125693
131	0xbd010904	-0.03150274
132	0x3d72ff0c	0.059325263
133	0xbdf37e92	-0.11889376
134	0x3c5a7a9f	0.013334899
135	0x3df93cd8	0.12169808
136	0x3d570fb2	0.052505203
137	0x3d73c9f1	0.05951876
138	0xbd1ad966	-0.037804984
139	0xbc057253	-0.008144933
140	0xbdd7d831	-0.10539282
141	0xbd765b2a	-0.060145535
142	0x3d0a6046	0.03378322
143	0x3d3206d0	0.04346353
144	0x3d94738c	0.07248601
145	0xbd9624d6	-0.07331245
146	0x3d24c20d	0.040224124
147	0xbd8d2de9	-0.06893522
148	0xbdbd5b57	-0.09245937
149	0xbd3f01c5	-0.046632547
150	0xbda841bc	-0.08215663
151	0x3cda521d	0.026650483
152	0x3c9763a8	0.018480137
153	0x3da66a05	0.0812569
154	0x3d8ed072	0.069733515
155	0x3cab83db	0.020936897
156	0x3d5a7f15	0.05334385
157	0x3d1cd6db	0.03829084
158	0xbdecfea6	-0.11572008
159	0xbd682183	-0.056672584
160	0xbdcd9fe8	-0.10040265
161	0xbd91b9d6	-0.071155235
162	0x3cb786c0	0.022403121
163	0x3df4b1c7	0.11947971
164	0x3db194c6	0.086709544
165	0xbd5d2be7	-0.053996947
166	0x3cefd9bb	0.029278627
167	0x3dbd38f1	0.09239376
168	0x3cda4089	0.0266421
169	0xbdd3cb11	-0.10341466
170	0x3c56018e	0.013061894
171	0x3d54a5bd	0.051915873
172	0x3cb777ae	0.022395935
173	0x3de34b41	0.11098338
174	0x3ddac5dc	0.1068227
175	0xbd956f39	-0.07296605
176	0x3dcb2939	0.09919972
177	0xbde8ccf7	-0.11367219
178	0xbd97bdb8	-0.07409233
179	0x3d368a5b	0.04456554
180	0x3bf08356	0.007339875
181	0x3dd594a9	0.10428745
182	0x3d927267	0.07150727
183	0xbcbf5ec0	-0.02336061
184	0x3df85a8c	0.121266454
185	0xbdc0d94f	-0.09416448
186	0x3cc554f0	0.024088353
187	0x3d21dbfb	0.03951643
188	0x3dd38a4f	0.10329115
189	0x3df49e88	0.119443
190	0x3d83d429	0.06436951
191	0xbd692cd5	-0.05692752

rnn.bias_hh_l0 f4 [192]
0	0x3ddb2b2b	0.10701593
1	0x3db3f14c	0.08786258
2	0x3cf48b64	0.029851623
3	0x3db1c4bb	0.086801015
4	0x3cf30144	0.02966369
5	0xbc1cda55	-0.009573539
6	0x3d3e98c3	0.046532404
7	0x3bf76989	0.0075504226
8	0xbcfd1844	-0.03089536
9	0x3cbc241a	0.022966433
10	0x3c09938a	0.008396992
11	0xbda39425	-0.07987241
12	0xbcfed367	-0.031106664
13	0x3d4c0934	0.049813464
14	0xbce5c3f5	-0.028047541
15	0x3af722d2	0.0018854982
16	0x3dee8e40	0.11648226
17	0x3ddbf070	0.10739219
18	0x3d8ae693	0.0678226
19	0x3d92ee17	0.07174318
20	0x3d67931e	0.056536786
21	0xbd243d17	-0.040097322
22	0x3e0a6ca3	0.13518004
23	0xbda65443	-0.081215404
24	0xbd4b319b	-0.049607854
25	0xbd4211b9	-0.047380183
26	0x3df50aea	0.11964972
27	0x3daf3c73	0.08556452
28	0x3d337ad6	0.043818317
29	0x3db602bf	0.088872425
30	0xbdd32929	-0.10310585
31	0xbdcc9d98	-0.09990996
32	0x3d49f45d	0.04930531
33	0xbb2c81bd	-0.0026322447
34	0x3d689d9f	0.056790944
35	0xbd89999f	-0.06718754
36	0x3ded4df8	0.11587137
37	0xbddacff0	-0.10684192
38	0x3dd11fa1	0.10211111
39	0x3dfe19cf	0.12407266
40	0xbd868b4f	-0.0656954
41	0x3df73eac	0.120725006
42	0x3da38470	0.07984245
43	0xbcc2dc55	-0.023786703
44	0xbd3533df	-0.04423892
45	0x3e04c126	0.12964305
46	0xbce91873	-0.028454041
47	0x3c564c96	0.013079783
48	0x3d9da855	0.076981224
49	0x3d762ed2	0.060103245
50	0xbd7b4666	-0.061346434
51	0x3dda0a5c	0.10646507
52	0x3d4b4177	0.04962298
53	0x3d525261	0.051348094
54	0xbd59b1ef	-0.053148206
55	0x3da9eeb7	0.08297484
56	0xb97ef4a6	-0.00024314466
57	0x3db95855	0.09050051
58	0x3da171ff	0.07883071
59	0x3dafc092	0.08581652
60	0x3cbafbb4	0.0228251
61	0x3dab589a	0.08366509
62	0x3dd8cc82	0.10585882
63	0x3dc5f5cb	0.09666022
64	0x3dd46b3b	0.10372015
65	0xbd85063e	-0.06495331
66	0xbdf44942	-0.11928035
67	0x3e16aacf	0.14713596
68	0xbcb04bcd	-0.02152052
69	0xbdfe4077	-0.124146394
70	0x3de277ee	0.11058031
71	0x3bde15e8	0.006777514
72	0xbe180ef9	-0.14849462
73	0x3b3d8c71	0.002892282
74	0x3dc6751b	0.09690305
75	0xbe18092b	-0.14847247
76	0x3ddcc902	0.10780527
77	0xbe2101e3	-0.15723376
78	0x3d671f53	0.056426357
79	0x3c0779ad	0.008268756
80	0x3dae1ece	0.08501969
81	0x3e360387	0.17774783
82	0x3d6db16b	0.058030527
83	0xbd59c1cf	-0.053163346
84	0xbaf143b2	-0.0018407016
85	0x3d53cc10	0.05170828
86	0xbce07afe	-0.027402397
87	0xbe0d99c7	-0.13828193
88	0xbccab7d2	-0.024745855
89	0x3af17dde	0.0018424352
90	0xbbb62623	-0.0055587455
91	0xbc24646a	-0.010033706
92	0x3e227708	0.1586572
93	0xbe0fda2b	-0.14048068
94	0x3d6226cb	0.055212777
95	0x3db7f18f	0.089816205
96	0xbc2e53b5	-0.0106400745
97	0x3d32382d	0.043510605
98	0xbdb4e2fc	-0.08832356
99	0x3dd25855	0.10270754
100	0x3d926dc2	0.07149841
101	0xbdd9fcf7	-0.10643952
102	0x3e2f6aae	0.17130539
103	0x3c3ea7ca	0.011636684
104	0xbcf63a4b	-0.030057093
105	0x3e098558	0.13429773
106	0xbda5db0c	-0.080984205
107	0x3db5b128	0.088716805
108	0xbd06a287	-0.032869842
109	0xbdcad1cd	-0.099032976
110	0x3d844413	0.064582966
111	0xbb219b53	-0.002465923
112	0xbc0d5628	-0.008626498
113	0x3c9c20fa	0.019058693
114	0x3ca89015	0.020576516
115	0xbb0dfcb6	-0.002166552
116	0xbc76dede	-0.015067784
117	0x3dfaa523	0.122385286
118	0xbd3dbf98	-0.046325296
119	0xbdf78e3f	-0.12087678
120	0x3c6e40cd	0.014541817
121	0x3dcd57ab	0.10026487
122	0xbd04bbb6	-0.032405578
123	0xbd72fa10	-0.05932051
124	0x3dd8a715	0.10578743
125	0xbc8627c6	-0.016376387
126	0x3e2bb570	0.16768432
127	0x3e542c52	0.20720032
128	0x3dd3079c	0.10304186
129	0x3cf5fe8b	0.030028602
130	0x3d0c1e95	0.034208853
131	0x3cee7e7c	0.029113047
132	0xbdeeebc3	-0.11666062
133	0xbd4bd07b	-0.04975937
134	0xbd9458a0	-0.072434664
135	0xbc7f9f6b	-0.015601973
136	0xbd836693	-0.06416049
137	0xbd331fb1	-0.043731395
138	0xbdb70a1f	-0.08937477
139	0xbdb4958e	-0.08817588
140	0x3d28e451	0.041233364
141	0x3dfa9a18	0.12236422
142	0xbd496845	-0.049171705
143	0xbda82b9c	-0.08211443
144	0xbd301d3d	-0.042996634
145	0xbd4c5105	-0.049881954
146	0xbdef9d9c	-0.116999835
147	0x3de6ad7d	0.11263559
148	0x3daf4212	0.08557524
149	0x3dc42188	0.09576708
150	0xbd8144a3	-0.063119195
151	0xbda44033	-0.080200575
152	0x3df380b9	0.11889786
153	0xbd99b607	-0.07505422
154	0xbdcfee09	-0.101528235
155	0xbddca01f	-0.10772728
156	0x3d3120e7	0.04324427
157	0xbc880f39	-0.016608821
158	0xbd932f35	-0.071867384
159	0x3dddf8ae	0.108384475
160	0xbd8b2407	-0.06793981
161	0x3c314b75	0.010821213
162	0x3d74f8d0	0.0598076
163	0x3d79ab82	0.06095458
164	0x3dd6addd	0.104823805
165	0xbc998ad5	-0.018742958
166	0x3d828b66	0.063742444
167	0xbb5aede4	-0.0033405954
168	0x3c910229	0.017701225
169	0xbd995f38	-0.07488865
170	0x3d9977dc	0.074935645
171	0x3cf9b986	0.030483972
172	0x3ce0c1d1	0.027436169
173	0xbc54b89e	-0.012983469
174	0x3d5fbafc	0.05462168
175	0xbdfd4dd4	-0.1236836
176	0x3ddb45ec	0.10706696
177	0x3dc6417b	0.09680458
178	0x3d832f02	0.064054504
179	0xbc434aa6	-0.011919653
180	0xbde660a5	-0.11248902
181	0xbd20c506	-0.039250396
182	0xbdd4b63f	-0.10386323
183	0xbd662e7e	-0.056196682
184	0x3dcf9028	0.101349175
185	0xbc9e3bcf	-0.019315628
186	0x3e01299f	0.12613533
187	0xbd82608c	-0.06366071
188	0xbd54fc45	-0.051998395
189	0xbdd2a7c7	-0.10285907
190	0x3d534934	0.051583484
191	0x3d34af55	0.044112522

rnn.weight_ih_l0_reverse f4 [192, 24]
0	0x3d96e38c	0.0736762
1	0x3de96382	0.11395933
2	0x3d985691	0.07438386
3	0xbdd29020	-0.10281396
4	0x3c967b46	0.018369328
5	0x3de690f3	0.112581156
6	0x3dc38c84	0.095482856
7	0x3d88ef87	0.06686311
8	0xbd3d398f	-0.04619747
9	0xbdbbf8a3	-0.09178283
10	0x3e047b14	0.12937576
11	0xbb994657	-0.0046775746
12	0x3d3253c1	0.043536905
13	0xbd085409	-0.033283267
14	0xbd143719	-0.036185358
15	0x3d4a6a35	0.049417693
16	0x3e0058b2	0.12533835
17	0xbd1789e4	-0.036996737
18	0x3d8ae509	0.06781966
19	0x3d68ccfe	0.05683612
20	0xbc6c8368	-0.014435627
21	0x3cfbb99d	0.030728156
22	0x3d35a89a	0.044350244
23	0x3de9e8ae	0.11421333
24	0xbd1e0f31	-0.038588706
25	0x3dce565b	0.10075065
26	0xbc8671e0	-0.016411722
27	0x3d61cace	0.05512505
28	0xbdba8701	-0.09107781
29	0x3d9b24a1	0.07575346
30	0x3dd58ff7	0.1042785
31	0x3d15ebfc	0.036602005
32	0x3c012336	0.00788193
33	0x3d1f3a21	0.038873795
34	0xbdc7d8c8	-0.097581446
35	0xbdafc118	-0.085817516
36	0x3dc06caf	0.0939573
37	0xbde06bc4	-0.10958055
38	0xbccdd849	-0.025127547
39	0xbd8c60b7	-0.068543844
40	0xbdd7c0ad	-0.10534797
41	0xbd4c9093	-0.049942564
42	0xba040dcf	-0.0005037458
43	0xbdce197a	-0.10063453
44	0xbdbf29ad	-0.09334121
45	0xbdc6d310	-0.09708226
46	0xbc1a722f	-0.009426638
47	0xbd052bef	-0.0325126
48	0x3dc3548e	0.09537612
49	0xbdf34908	-0.11879164
50	0xbdde182f	-0.108444564
51	0xbd0546ba	-0.032538153
52	0x3e0b76d5	0.1361955
53	0x3e04ed71	0.12981202
54	0xbc350af9	-0.011049979
55	0xbcaef60d	-0.02135756
56	0x3cb81b2f	0.0224739
57	0x3ca16d3c	0.019705407
58	0x3cbcdd2f	0.023054687
59	0xbcd439c2	-0.025906447
60	0xbc225f23	-0.009910378
61	0x3c820afe	0.015874382
62	0x3d96d2cb	0.07364424
63	0xbdaf033e	-0.0854554
64	0xbca9ddb2	-0.020735595
65	0x3d2010ef	0.03907865
66	0x3dc613d6	0.09671752
67	0x3da39ba4	0.079886705
68	0xbd07c147	-0.033143308
69	0x3cd4c563	0.025973028
70	0xbd17cb2c	-0.037058994
71	0x3ddd30c8	0.1080032
72	0x3d93415e	0.07190202
73	0xbde9dcf7	-0.11419099
74	0x3d744315	0.059634287
75	0x3e002e4e	0.12517664
76	0x3d0eb64b	0.034841817
77	0xbdcd5783	-0.10026457
78	0x3da0fe77	0.07861035
79	0x3bd9ec8e	0.006650514
80	0xbd024719	-0.031806085
81	0x3d6e2e25	0.058149476
82	0x3dcc2b82	0.09969236
83	0x3d87edaa	0.06637128
84	0xbdd16d76	-0.10225956
85	0x3d54e189	0.0519729
86	0xbda9ec82	-0.082970634
87	0xbdfcd8fe	-0.123460755
88	0xbd7b5a16	-0.06136521
89	0x3d78b9ff	0.060724255
90	0x3dc2590a	0.09489639
91	0x3d119351	0.035540882
92	0x3d9323c0	0.07184553
93	0xbdfbb738	-0.122908056
94	0xbd87a6c3	-0.06623604
95	0xbd913a3a	-0.07091184
96	0xbdc75897	-0.09733694
97	0xbd9754f5	-0.07389251
98	0xbdc4e955	-0.09614817
99	0xbdc89560	-0.09794116
100	0x3cff7998	0.03118591
101	0xbd682499	-0.056675527
102	0x3b9002b2	0.0043948526
103	0xbc2f078b	-0.010682951
104	0x3c57a3d6	0.01316162
105	0xbde40fc9	-0.11135823
106	0xbddb184f	-0.10697996
107	0xbdbc9ab6	-0.09209196
108	0x3da21b15	0.07915322
109	0xbb820fb1	-0.0039691557
110	0xbde12b68	-0.10994607
111	0xbd450d6b	-0.0481085
112	0x3a8d80e9	0.0010795865
113	0xbdc0d452	-0.09415497
114	0x3dda20d2	0.10650791
115	0x3dbb0fec	0.09133896
116	0x3cce62f8	0.025193676
117	0xbcc96952	-0.024586353
118	0x3d7dc408	0.061954528
119	0x3cfbdbf3	0.030744528
120	0x3d2bc417	0.041935053
121	0x3d2d48f3	0.042305898
122	0xbdb5735a	-0.08859892
123	0x3d84e35e	0.06488679
124	0x3d99729c	0.07492563
125	0x3dc4707c	0.09591767
126	0x3db4eb69	0.088339634
127	0x3e0ef394	0.13960105
128	0xbd256696	-0.040381037
129	0x3cd4cbdb	0.025976112
130	0xbda23a41	-0.07921267
131	0x3e163a47	0.14670669
132	0xbb9fc786	-0.00487608
133	0xbdcfc552	-0.10145058
134	0x3dcf7291	0.10129274
135	0x3c835f7c	0.016036741
136	0xbd02d70c	-0.031943366
137	0x3dd617f8	0.104537904
138	0xbd3b2d0e	-0.045697264
139	0xbd26b793	-0.040702414
140	0xbcca5fce	-0.024703886
141	0x3d0dd114	0.03462322
142	0xbda1fb03	-0.07909205
143	0x3d414003	0.047180187
144	0xbdcf2624	-0.101146966
145	0xbd5936f9	-0.05303094
146	0xbd8aa25b	-0.06769248
147	0xbd9a55f1	-0.07535923
148	0x3d3a90ce	0.045548253
149	0x3d6aa4c1	0.057286028
150	0xbccbfcb2	-0.024900768
151	0xbcef76d4	-0.029231466
152	0x3c2ba1ef	0.01047562
153	0xbdbfbd86	-0.093623206
154	0xbdec57cb	-0.11540183
155	0xbd780d4b	-0.060559552
156	0xbdb8e161	-0.090273626
157	0x3cac8048	0.021057263
158	0x3dce8734	0.10084382
159	0x3dc3f7cb	0.09568747
160	0xbd8b6128	-0.068056405
161	0x3d8e2e67	0.06942444
162	0x3dec8678	0.115490854
163	0xbca6a050	-0.020340115
164	0xbd30559f	-0.043050405
165	0xbdeeadbb	-0.1165423
166	0xbcc12f1e	-0.023582038
167	0xbd589494	-0.05287607
168	0x3d1c442e	0.03815096
169	0xbdd6d44b	-0.104897104
170	0x3b9c2b3c	0.004765896
171	0x3cd20931	0.025639148
172	0xbcfcb580	-0.030848265
173	0xbc1ffa8c	-0.009764325
174	0x3dfd1d2e	0.12359081
175	0x3d43160b	0.047628444
176	0xbdb75669	-0.08952028
177	0xbd62d955	-0.055383045
178	0x3d809b61	0.06279636
179	0x3d1c5666	0.038168333
180	0xbdc317e3	-0.095260404
181	0xbd971894	-0.07377735
182	0xbd4dc8dd	-0.050240386
183	0xbc3ddecf	-0.011588766
184	0x3bd7e5e9	0.0065886867
185	0x3d3f7d79	0.04675052
186	0xbd7fb49d	-0.062428106
187	0xbd818465	-0.063240804
188	0x3d9218c3	0.07133629
189	0xbdc25dc3	-0.0949054
190	0xbc7b5ddc	-0.015342202
191	0xbddbaf6f	-0.10726821
192	0xbdb5bf10	-0.08874333
193	0x3d671729	0.05641857
194	0x3c86bcda	0.016447473
195	0x3ded3c6f	0.115837924
196	0x3e056589	0.13027014
197	0xbd6dcd3e	-0.058057062
198	0xbd54082c	-0.051765606
199	0x3d310adf	0.043223258
200	0xbbd40136	-0.006469871
201	0xbddeb1c1	-0.108737476
202	0xbd893f4c	-0.06701526
203	0xbd9494d8	-0.07254952
204	0x3c5c9daf	0.013465329
205	0x3d5cd1f2	0.053911157
206	0x3d8310e7	0.06399708
207	0x3dc96bcb	0.09835013
208	0xbd8b73c3	-0.06809189
209	0x3dc45cda	0.095880225
210	0xbd277671	-0.04088444
211	0xbd6bb446	-0.05754497
212	0xbd8e4020	-0.069458246
213	0x3d879ded	0.06621919
214	0x3d6dce6a	0.05805818
215	0xbdf0690e	-0.117387876
216	0x3d463e0c	0.048399016
217	0x3abfbc85	0.0014628327
218	0x3dabe73d	0.083937146
219	0xbd6f8eb1	-0.05848569
220	0xbdc3741b	-0.0954363
221	0xbcd9d48f	-0.026590614
222	0xbd293309	-0.041308437
223	0xbc3ade1a	-0.011405492
224	0xbca1f283	-0.019768959
225	0x3e0205fa	0.12697592
226	0xbc53ae1f	-0.012919932
227	0xbdc617ff	-0.09672546
228	0xbd95822d	-0.0730022
229	0x3b80dec9	0.003932808
230	0x3da25c2c	0.07927737
231	0x3d037afc	0.03209971
232	0xbdf00331	-0.11719359
233	0x3cad478e	0.021152284
234	0x3d897c6c	0.06713185
235	0xbd891509	-0.06693465
236	0x3d91cd1c	0.071192
237	0x3de19675	0.110150255
238	0x3dcd59f8	0.10026926
239	0x3d2895f6	0.04115864
240	0xbdf8d39a	-0.12149735
241	0xbdcc2ffd	-0.099700905
242	0x3e00b669	0.12569584
243	0xbd177591	-0.036977354
244	0x3dd71b26	0.10503225
245	0x3dfb9f9c	0.122863024
246	0xbdbbc6a0	-0.09168744
247	0x3d7a5425	0.061115403
248	0xbdcd0c82	-0.10012151
249	0xbd9603e8	-0.07324964
250	0x3dec5b4c	0.11540851
251	0x3dd53674	0.10410777
252	0x3daa6207	0.083194785
253	0x3d974372	0.07385911
254	0x3d0fd44e	0.03511458
255	0x3db9239c	0.09039995

rnn.weight_hh_l0_reverse f4 [192, 64]
0	0x3e10fed3	0.14159708
1	0x3e0635ac	0.13106412
2	0xbdf53b0c	-0.11974153
3	0xbcd7c1e9	-0.02633758
4	0x3d61cb7b	0.055125695
5	0xbdcd3836	-0.10020487
6	0x3d861ef1	0.0654887
7	0x3da081f0	0.078372836
8	0x3e062208	0.1309892
9	0xbd816508	-0.06318098
10	0x3d6a738f	0.05723911
11	0x3d1586db	0.03650556
12	0x3d5cc47f	0.05389833
13	0x3da5fa11	0.08104337
14	0xbc7ca69b	-0.015420581
15	0xbddcf4f8	-0.107889116
16	0xbd6f57fa	-0.05843351
17	0x3de6c276	0.11267559
18	0x3d98b7c8	0.074569285
19	0xbd350f58	-0.044204086
20	0x3e0171eb	0.12641113
21	0xbdbd96ca	-0.09257276
22	0x3d849311	0.06473363
23	0x3e047428	0.12934935
24	0xbd7f3cf9	-0.062314007
25	0x3d162192	0.03665311
26	0x3e0328a1	0.12808467
27	0xbd5c0317	-0.053713884
28	0x3d271ac2	0.040797003
29	0x3d4a2c05	0.049358387
30	0xbd0466ef	-0.032324728
31	0xbd86f800	-0.06590271
32	0x3cd3f86b	0.02587529
33	0xbdd78ae5	-0.10524539
34	0xbdf92299	-0.12164802
35	0xb9dedb10	-0.00042506354
36	0xbda1655d	-0.07880662
37	0x3cdd6704	0.02702666
38	0x3d281bc6	0.04104211
39	0xbdf46cd3	-0.11934819
40	0xbd36b84a	-0.044609345
41	0x3ddbf443	0.107399486
42	0xbc0d9f09	-0.008643874
43	0xbc077b78	-0.008269183
44	0xbd916035	-0.07098428
45	0x3d04f8ed	0.032463957
46	0x3cdbb68f	0.02682045
47	0x3cee055b	0.029055288
48	0xbcc50ed3	-0.02405492
49	0x3d9c541d	0.07633231
50	0x3d80288f	0.06257736
51	0x3e0793b3	0.13239937
52	0xbe06b70c	-0.13155764
53	0x3d950efa	0.07278247
54	0xbd8538f0	-0.065050006
55	0xbcb9707a	-0.02263664
56	0xbe0326d6	-0.12807783
57	0x3d168eaf	0.036757167
58	0xbdc9f4b6	-0.09861128
59	0xbdb209e6	-0.08693294
60	0x3c2e3630	0.0106330365
61	0x3a1ba394	0.0005937156
62	0x3d15f3db	0.03660951
63	0x3e14d786	0.1453534
64	0xbdea86d7	-0.114515
65	0xbd6d9b3c	-0.05800937
66	0x3c0b59eb	0.008505325
67	0xbdb5e061	-0.088806875
68	0xbd8eebd0	-0.069785714
69	0xbd15d00e	-0.03657537
70	0x3d7037e9	0.05864707
71	0x3d6305d9	0.0554255
72	0xbd3b1d42	-0.0456822
73	0xbdd680ca	-0.10473783
74	0x3b861074	0.004091317
75	0x3d27aaa0	0.040934205
76	0x3e08e201	0.13367464
77	0x3dbd697d	0.09248636
78	0xbd05d89f	-0.03267729
79	0xbc096ba3	-0.008387479
80	0x3d9d14e0	0.07669997
81	0x3cdcddfe	0.026961323
82	0x3d653024	0.055954114
83	0x3de7ca8e	0.11317931
84	0x3d4cd0fc	0.05000399
85	0x3b81a717	0.0039566862
86	0xbdedd184	-0.116122276
87	0xbd57d9aa	-0.052697815
88	0x3cec9bfe	0.028882977
89	0x3dd09f69	0.10186655
90	0x3db0485c	0.086075515
91	0xbdcb34f8	-0.09922212
92	0xbdc3fac5	-0.09569315
93	0x3df7e07a	0.121033624
94	0xbd239238	-0.039934367
95	0xbcde89b1	-0.027165266
96	0xbce38f74	-0.027778365
97	0x3d8e2cfb	0.06942173
98	0x3df8e067	0.12152176
99	0x3d3aff74	0.045653775
100	0x3da8097f	0.08204936
101	0x3dd9946f	0.106240146
102	0xbdee552c	-0.11637339
103	0xbd8ed04f	-0.069733255
104	0xbd5b50e5	-0.053543944
105	0x3d782bfd	0.060588825
106	0x3dbebb6f	0.09313094
107	0x3c5decc0	0.013545215
108	0x3dae521f	0.08511757
109	0xbdf2a46e	-0.11847769
110	0xbced6a34	-0.028981306
111	0x3ba6c016	0.0050888164
112	0xbaeefb68	-0.0018232884
113	0x3dd266df	0.10273527
114	0xbda00cba	-0.078149274
115	0x3ddffdc3	0.10937073
116	0xbd2e67b1	-0.042579357
117	0x3cb7e26f	0.02244684
118	0x3c220074	0.009887803
119	0x3ddef34c	0.10886249
120	0xbd33ebea	-0.043926157
121	0xbc81e692	-0.015857015
122	0x3dd03363	0.10166051
123	0x3e0e6faf	0.13909791
124	0xbd6a8aff	-0.057261463
125	0xbc8c97e4	-0.01716227
126	0xbc0296d0	-0.007970527
127	0xbd9e52d3	-0.07730641
128	0xbd811f47	-0.06304794
129	0xbcda1e8a	-0.02662589
130	0xbd22f894	-0.039787844
131	0x3d47544d	0.04866438
132	0xbdf22d92	-0.11825098
133	0x3cac92ff	0.021066187
134	0x3dc73516	0.09726922
135	0xbd125caa	-0.035732903
136	0x3dc057ff	0.09391784
137	0xbd9a50e3	-0.07534959
138	0x3d80b77e	0.06284998
139	0xbc46c94d	-0.012132955
140	0x3d5424b1	0.051792804
141	0xbc5623e9	-0.013070085
142	0xbaec30dc	-0.0018019932
143	0x3d89fb7a	0.067374185
144	0x3d22675f	0.039649364
145	0x3c6822b7	0.014168433
146	0x3c8be16c	0.017075263
147	0xbcfc6cda	-0.030813623
148	0x3da4834c	0.080328554
149	0x3d9c4412	0.07630171
150	0x3dfe2b8e	0.12410651
151	0xbd7615d7	-0.06007942
152	0x3e040c37	0.12895285
153	0x3de49be6	0.11162548
154	0x3dc44e5d	0.09585259
155	0xbd1c01a4	-0.038087502
156	0xbda15cb0	-0.07879007
157	0xbda8230b	-0.08209809
158	0xbdf0b3cc	-0.117530435
159	0x3d7180d1	0.05896074
160	0x3da00ca0	0.07814908
161	0x3d46ccee	0.04853528
162	0xbe05bb84	-0.13059813
163	0x3d450f7d	0.048110474
164	0xbddbcf93	-0.10732951
165	0xbd531f86	-0.051543735
166	0xbdb8e507	-0.090280585
167	0x3ddb9db4	0.10723439
168	0x3dbfc79b	0.093642436
169	0x3dcfd070	0.10147178
170	0x3dd50d4e	0.10402928
171	0xbd37de5a	-0.044889785
172	0x3da2f3d3	0.07956662
173	0x3db00bf1	0.08596028
174	0x3c834c3f	0.016027568
175	0xbe1c330e	-0.15253851
176	0xbc86921a	-0.016427089
177	0xbe03b8ba	-0.12863436
178	0x3c8727a5	0.016498396
179	0x3de7ee2a	0.11324723
180	0xbb837274	-0.0040114466
181	0xbd89f2df	-0.06735777
182	0x3dd88ebc	0.105740994
183	0xbbf62b17	-0.007512461
184	0x3d2e38fb	0.04253481
185	0xbcff6056	-0.031173866
186	0xbdef4248	-0.11682564
187	0x3c5e6800	0.0135746
188	0x3c79087c	0.015199777
189	0x3c0333b4	0.008007932
190	0xbc6de23a	-0.014519269
191	0x3e2051aa	0.15656152
192	0xbdc217f0	-0.09477222
193	0xbdca2216	-0.098697826
194	0xbde26210	-0.1105386
195	0xbd1c1fbf	-0.038116213
196	0x3c892401	0.0167408
197	0xbd542250	-0.051790535
198	0xbd0f9130	-0.03505057
199	0xbd8bd54e	-0.06827794
200	0xbd49bf3a	-0.049254633
201	0xbdeaa1e1	-0.11456657
202	0xbc71b72c	-0.014753144
203	0x3d300cba	0.042980887
204	0xbd6ac569	-0.05731717
205	0x3c739a6b	0.014868359
206	0x3dd6bfa0	0.10485768
207	0x3daede15	0.085384525
208	0xbdea7d90	-0.114497304
209	0xbdcc1bc5	-0.09966234
210	0x3d800b8a	0.06252201
211	0xbb7bf8bc	-0.0038447818
212	0x3dcf253d	0.101145245
213	0x3db58b5b	0.088644706
214	0xbdc14ff3	-0.09439077
215	0xbdd298b2	-0.102830306
216	0x3c7cd41f	0.015431433
217	0x3d371f38	0.044707507
218	0xbcda3a2c	-0.026639067
219	0x3daa38ed	0.08311639
220	0x3df2969d	0.118451335
221	0xbc9e2586	-0.019305002
222	0x3d1beb6c	0.038066313
223	0xbdf50452	-0.11963715
224	0xbc3cedb1	-0.011531279
225	0xbdcced0b	-0.1000615
226	0x3dd30002	0.10302736
227	0x3d314eca	0.04328803
228	0x3d22b627	0.039724495
229	0xbd3d7ccc	-0.046261594
230	0x3d5973ad	0.053088833
231	0x3d34319b	0.04399262
232	0xbd483946	-0.048882745
233	0xbcb997bb	-0.022655359
234	0x3d86b80d	0.06578074
235	0x3d07d01a	0.033157445
236	0xbbaa5779	-0.005198416
237	0xbb2c33a3	-0.0026275895
238	0xbdb59c7a	-0.08867736
239	0xbca8eb9c	-0.02062016
240	0x3c5cad34	0.013469029
241	0x3d5e08fd	0.05420779
242	0xbd3b1b8a	-0.04568056
243	0x3d2d91d7	0.04237541
244	0x3caa51cf	0.020790963
245	0x3e0025e7	0.12514459
246	0x3d3aaae8	0.045573145
247	0xbdfcf10a	-0.12350662
248	0xbd265329	-0.04060665
249	0xbc475070	-0.012165174
250	0xbd6d9f62	-0.058013327
251	0xbd2c1159	-0.04200873
252	0x3bf221cf	0.007389284
253	0xbcf4fe16	-0.029906314
254	0xbcffc069	-0.031219678
255	0xbd230a64	-0.03980483

rnn.bias_ih_l0_reverse f4 [192]
0	0xba4316fd	-0.0007442085
1	0xbd09f397	-0.03367957
2	0x3dd2636a	0.10272868
3	0xbcea65b7	-0.028612955
4	0x3de4f5ac	0.11179671
5	0x3db60d60	0.0888927
6	0x3dbf62c8	0.09345013
7	0x3cd26bb3	0.02568612
8	0xbcf74f85	-0.030189285
9	0xbd9e54e2	-0.07731034
10	0x3e087b13	0.13328199
11	0xbdb3e3ec	-0.08783707
12	0x3c5d8c44	0.013522211
13	0xbde660d2	-0.11248936
14	0xbdf4d2c9	-0.119542666
15	0x3cea3546	0.028589856
16	0xbd772475	-0.060337503
17	0xbdbeaa36	-0.09309809
18	0xbd5ede21	-0.054411057
19	0x3e0240f9	0.12720098
20	0xbc1806fe	-0.009279011
21	0x3cded86a	0.027202804
22	0xbd97e041	-0.0741582
23	0xbd264591	-0.040593687
24	0x3dc38d6a	0.09548457
25	0x3dc8c5ca	0.0980335
26	0x3ba29894	0.0049620364
27	0xbdf2d6df	-0.1185739
28	0x3e01e008	0.12683117
29	0xbd9db351	-0.077002175
30	0xbd6e4e95	-0.05818041
31	0x3db36723	0.08759906
32	0x3d1df9a0	0.03856814
33	0xbb009ceb	-0.001962478
34	0x3da8f0a9	0.08249027
35	0x3d3492b0	0.044085205
36	0x3e0096a7	0.1255747
37	0x3dd8099d	0.105487086
38	0x3cf0b533	0.029383278
39	0x3de4273f	0.11140298
40	0xbe047658	-0.1293577
41	0xbd9cdedc	-0.076596946
42	0xbda2229f	-0.0791676
43	0xbc8cccd0	-0.017187506
44	0x3df0b1ec	0.11752686
45	0x3cb72891	0.02235821
46	0xbb3d8a78	-0.0028921645
47	0x3b712128	0.0036793444
48	0xbd4f9c09	-0.050685916
49	0xbd212c2f	-0.039348777
50	0x3de427e0	0.11140418
51	0xbda06810	-0.07832348
52	0x3d4b39ad	0.04961555
53	0x3c8843a1	0.01663381
54	0x3e07ab3d	0.13248916
55	0xbd5393d2	-0.051654644
56	0xbd118d8e	-0.035535388
57	0xbd3dfe56	-0.04638513
58	0xbca97b81	-0.020688774
59	0xbd9eb3ad	-0.07749114
60	0xbd9a7495	-0.075417675
61	0xbbd9ad28	-0.0066429563
62	0x3c842fa6	0.016136002
63	0x3d805135	0.06265489
64	0x3ba3e142	0.005001218
65	0xbd9705ba	-0.07374139
66	0xbe0a6979	-0.13516797
67	0xbdf227d8	-0.11824006
68	0xbd00adc8	-0.03141573
69	0x3a984e8b	0.0011620087
70	0x3dc23b26	0.09483938
71	0x3dc4200d	0.09576426
72	0x3dfb1ab5	0.12260953
73	0x3dcc4650	0.099743485
74	0x3da29e83	0.0794039
75	0xbbf38d8c	-0.007432645
76	0x3d08bceb	0.03338329
77	0xbcd1dc31	-0.02561769
78	0xbde03764	-0.10948065
79	0x3ceb0ea8	0.028693512
80	0x3e002e09	0.12517561
81	0xbd66e700	-0.056372643
82	0x3d9be8f4	0.07612792
83	0xbd94b929	-0.07261879
84	0xbda9df94	-0.08294597
85	0x3db9a994	0.090655476
86	0xbdff507f	-0.12466525
87	0x3cffd780	0.031230688
88	0x3d33ad0f	0.043866213
89	0x3db3fd74	0.08788577
90	0xbd61c5d3	-0.0551203
91	0xbdf81b64	-0.12114599
92	0x3df9fe75	0.12206737
93	0xbc9ce32b	-0.01915129
94	0x3d7a029b	0.06103764
95	0xb92dff1f	-0.00016593606
96	0xbd92cc57	-0.07167881
97	0xbdf5fde3	-0.12011316
98	0x3ddfcacc	0.10927352
99	0xbdff74cf	-0.12473451
100	0xbddbbda8	-0.107295334
101	0x3db637df	0.08897375
102	0x3c78d4bc	0.015187439
103	0xbc9e152d	-0.019297207
104	0xbdbf16be	-0.093305096
105	0xbe00a414	-0.12562591
106	0xbce050b1	-0.027382227
107	0x3d519380	0.051166058
108	0x3d323a76	0.043512784
109	0x3d4e390f	0.050347384
110	0x3dbcbb56	0.09215419
111	0x3c81f4f5	0.015863875
112	0xbcfac6b3	-0.030612325
113	0xbdaf715f	-0.08566546
114	0xbc694708	-0.014238127
115	0x3d49b6c0	0.04924655
116	0x3cf83090	0.030296594
117	0x3da04632	0.07825889
118	0x3de60a29	0.11232407
119	0x3d3ddbef	0.046352323
120	0xbde3424a	-0.11096628
121	0xbd6c5c26	-0.057705067
122	0x3d4c7e7a	0.049925305
123	0x3dd0df2d	0.101988174
124	0xbc4d4d27	-0.012530602
125	0xbdff1850	-0.12455809
126	0x3d12db06	0.03585341
127	0xbd3cd52f	-0.046101745
128	0xbd645695	-0.055746634
129	0x3de61ccb	0.112359606
130	0xbbdeeed2	-0.006803372
131	0x3df5ec73	0.1200799
132	0xbd32d958	-0.043664306
133	0x3db0558c	0.08610067
134	0xba57b154	-0.0008228023
135	0xbd48d9f0	-0.049035966
136	0x3dc35c55	0.09539095
137	0xbddf1ee8	-0.10894567
138	0xbc43c07e	-0.011947749
139	0x3cde112c	0.027107798
140	0xbc269ca4	-0.010169182
141	0xbd8db4e2	-0.06919266
142	0xbd0685cd	-0.032842446
143	0x3d9f8e9f	0.07790875
144	0xbc7757d2	-0.015096622
145	0xbd56d5d3	-0.052450012
146	0xbd3a0ef7	-0.045424428
147	0xbdb89ad9	-0.0901391
148	0x3d99e557	0.07514446
149	0xbdf06622	-0.1173823
150	0xbd6503ce	-0.05591183
151	0x3cc878af	0.024471609
152	0x3df56bd3	0.119834565
153	0xbdcb1296	-0.09915654
154	0x3c733571	0.014844284
155	0xbdb0c3f9	-0.08631129
156	0x3dad7e6b	0.08471378
157	0x3dbd6432	0.09247626
158	0x3d9a9057	0.07547062
159	0xbd54dc0e	-0.051967673
160	0xbdbd01e6	-0.09228878
161	0xbd98373f	-0.07432412
162	0xbd3aa985	-0.045571823
163	0x3d710879	0.05884597
164	0xbca52ba3	-0.02016241
165	0x3dd905fe	0.10596846
166	0xbdeb4d2a	-0.11489327
167	0x3b39a4c8	0.0028326977
168	0xbddbacc6	-0.10726313
169	0xbdf553e0	-0.119788885
170	0xbdb464c6	-0.088082835
171	0x3c87b3fe	0.01656532
172	0xbdf19f49	-0.11797959
173	0xbc914a11	-0.017735513
174	0xbd53cd2a	-0.05170933
175	0xbd90edf0	-0.07076633
176	0x3dda4d4b	0.10659274
177	0xbd2b8e97	-0.04188403
178	0xbdf7434e	-0.12073384
179	0x3db4c22d	0.088260986
180	0xbe01e868	-0.12686312
181	0xbbcb5f2e	-0.0062064147
182	0xbdb87e9c	-0.09008524
183	0x3d838e15	0.06423584
184	0x3d3f5fe4	0.046722308
185	0xbc2f8093	-0.010711807
186	0xbd1b3a29	-0.037897263
187	0xbdb9cd6c	-0.09072384
188	0xbdb0baf2	-0.08629407
189	0x3d410d2b	0.0471317
190	0xbdb83c79	-0.08995909
191	0xbd2f908b	-0.042862456

rnn.bias_hh_l0_reverse f4 [192]
0	0x3de236ba	0.110455945
1	0xbde61be6	-0.1123579
2	0x3c1820d1	0.009285168
3	0xbd2f7d97	-0.04284438
4	0x3d81a6b6	0.06330626
5	0xbcae29da	-0.02126019
6	0x3dd21754	0.10258356
7	0x3d275a5c	0.040857658
8	0xbd779e91	-0.060453955
9	0x3c93b535	0.018030742
10	0x3c8f900d	0.017524743
11	0xbb60f10d	-0.0034323365
12	0xbd7decf9	-0.061993573
13	0x3d45e078	0.048309773
14	0x3cb466af	0.02202162
15	0x3c7b76ff	0.015348195
16	0xbd84c6b3	-0.06483211
17	0x3dee7180	0.11642742
18	0xbdc202c3	-0.09473183
19	0x3d7cc645	0.061712522
20	0xbdfcaebe	-0.12338017
21	0xbdc247a7	-0.09486323
22	0x3d5c99eb	0.053857725
23	0x3d0370cf	0.032090005
24	0xbc50a514	-0.01273467
25	0x3d5294c7	0.051411416
26	0xbbb0672a	-0.005383392
27	0x3d18bf61	0.03729189
28	0xbdc9e136	-0.09857409
29	0x3d861da3	0.065486215
30	0xbce0adb4	-0.027426578
31	0x3d9fcd27	0.078028016
32	0xbdeb2ab1	-0.11482752
33	0x3c6d3b48	0.014479466
34	0xbcefa37a	-0.029252756
35	0x3d27df7f	0.040984627
36	0xbdb248ce	-0.08705293
37	0xbdd05e6a	-0.10174258
38	0x3d1cbb2e	0.038264446
39	0xbaeab55e	-0.0017906835
40	0xbdc8c8b1	-0.09803904
41	0xbdbb66f4	-0.09150496
42	0xbdb6096d	-0.088885166
43	0x3d132038	0.035919398
44	0x3d5f84b5	0.05456992
45	0xbd6fbbd9	-0.058528755
46	0x3dbbb769	0.09165842
47	0x3dbc94d7	0.092080764
48	0x3c8850e3	0.016640132
49	0xbd99eff5	-0.07516471
50	0xbdc025ac	-0.09382185
51	0xbd3e36c9	-0.046438966
52	0xbd7d4537	-0.061833587
53	0x3d25aa3f	0.040445562
54	0x3dc2e11a	0.09515591
55	0x3e01669d	0.126368
56	0xbd86ae09	-0.06576163
57	0xbd0e97c7	-0.034812715
58	0x3c73c561	0.014878602
59	0xbcc0b3e6	-0.023523282
60	0x3da7b9d3	0.0818974
61	0xbde2099a	-0.110369876
62	0x3d8161b3	0.06317463
63	0x3c28608c	0.010276925
64	0x3d9b62d7	0.075872116
65	0xbd28cf8a	-0.04121355
66	0x3d06c385	0.032901306
67	0x3cc995c4	0.024607547
68	0xbdd3baba	-0.1033835
69	0xbdc69e94	-0.09698215
70	0x3d9164fc	0.07099339
71	0xbd9d7aea	-0.076894596
72	0x3db779c9	0.089587756
73	0x3c515f10	0.012779012
74	0xbc2320c1	-0.00995654
75	0x3d920d85	0.07131485
76	0xbd8063aa	-0.062690094
77	0xbd5b87b3	-0.05359621
78	0x3d13393a	0.035943247
79	0x3c4ea564	0.012612674
80	0x3d8545e4	0.06507471
81	0x3dae222d	0.08502612
82	0x3daac23c	0.083378285
83	0x3d976b0b	0.07393464
84	0xbad59189	-0.0016293983
85	0xbdd8f77a	-0.105940774
86	0xbd8592ab	-0.06522115
87	0xbcb5cb5c	-0.022191696
88	0xbbe5014a	-0.006988679
89	0xbd95dfd5	-0.07318083
90	0xbd6de622	-0.0580808
91	0x3d99a491	0.07502092
92	0xbd918088	-0.071045935
93	0x3b971bf9	0.004611489
94	0x3cd7be6e	0.026335921
95	0x3c05bb95	0.008162399
96	0x3c89623e	0.016770478
97	0x3dec3d13	0.115350865
98	0x3dc6c018	0.09704608
99	0x3d94c27f	0.0726366
100	0xbd8e1b3f	-0.069387905
101	0xbdc40a2b	-0.09572252
102	0x3da7622f	0.08173024
103	0xbdd2031d	-0.102545
104	0xbd903b07	-0.070425086
105	0xbd902f4d	-0.07040272
106	0xbb75c8ab	-0.003750364
107	0x3cc546ae	0.024081554
108	0x3d2ea782	0.042640217
109	0x3ca5a5f0	0.020220727
110	0xbde52652	-0.1118895
111	0x3d143b23	0.03618921
112	0xbda64fb3	-0.0812067
113	0x3d5e6350	0.05429393
114	0xbde73b60	-0.11290622
115	0x3c498336	0.0122993495
116	0xbe00fd1f	-0.12596558
117	0x3d970b08	0.07375151
118	0x3d4fd1fa	0.05073736
119	0xbc1e210f	-0.0096514365
120	0xb92dfbcf	-0.00016592372
121	0xbc244a31	-0.010027454
122	0xbdb37e15	-0.087642826
123	0xbdb39652	-0.08768906
124	0xbbc7c28c	-0.00609619
125	0x3d1683a6	0.036746643
126	0x3d571f1e	0.05251991
127	0x3d100664	0.035162345
128	0x3dc9200a	0.09820564
129	0x3d3877c4	0.045036092
130	0xbda6804d	-0.0812994
131	0x3ce003fd	0.027345652
132	0xbd82d120	-0.06387544
133	0xbc7f3968	-0.015577652
134	0xbd9bc590	-0.076060414
135	0x3d793296	0.060839258
136	0xbd8f26ec	-0.06989846
137	0x3d95c862	0.073136106
138	0x3d548ef0	0.05189413
139	0x3d860ee7	0.06545811
140	0x3dab9102	0.083772674
141	0x3ca7d0f7	0.020485384
142	0xbd5e11d8	-0.054216236
143	0x3d457175	0.048203904
144	0x3dc78153	0.097414635
145	0x3da57958	0.08079785
146	0xbda83370	-0.08212936
147	0x3d4d1fd3	0.050079178
148	0xbd365391	-0.04451329
149	0x3dccc065	0.09997634
150	0xbd5eb51f	-0.05437195
151	0xbc90cec1	-0.017676713
152	0x3d35c441	0.044376615
153	0xbde06b08	-0.109579146
154	0x3cb9d2c4	0.022683509
155	0x3d8b51f9	0.068027444
156	0xbce0306c	-0.02736684
157	0xbdee3581	-0.11631299
158	0xbdfc67db	-0.12324496
159	0xbdb53d53	-0.08849587
160	0xbdd60fa7	-0.10452204
161	0x3d5b58c7	0.05355146
162	0xbd1650a3	-0.036697995
163	0xbd048a6e	-0.03235858
164	0x3dacd719	0.08439464
165	0x3ca52202	0.020157818
166	0xbdb113e9	-0.08646376
167	0x3cac461c	0.021029525
168	0x3d5afa28	0.053461224
169	0xbd75990f	-0.05996042
170	0x3cee0dfe	0.029059406
171	0xbd376c15	-0.04478081
172	0xbde737be	-0.11289929
173	0xbd9d8a08	-0.07692343
174	0xbd8133d8	-0.063087165
175	0x3d90e67b	0.07075211
176	0x3dd9e484	0.10639289
177	0xbda4511c	-0.08023283
178	0x3d91b35b	0.071142875
179	0xbd44335f	-0.047900554
180	0xbcb2cc75	-0.021826008
181	0x3c19e3b4	0.009392668
182	0x3d1336eb	0.035941046
183	0x3cc04615	0.023470918
184	0xbdec99dd	-0.115527846
185	0x3d019d06	0.03164389
186	0xbe002530	-0.12514186
187	0x3df31bf4	0.11870566
188	0x3dfd19fe	0.12358473
189	0xbde77256	-0.11301105
190	0x3d688895	0.05677088
191	0x3db09891	0.0862285
