examples/7. ModelTest/7-3. Regression/Models/GRU_rg/CLUST/Electronics/917091dcce1d40d60de86fe14b814dd4_50e8c293ba54f07b0da892b5312e5bd5/ff29d441f0e3495200ba5ab86124700a/model.pt (torch, 406255 bytes, 17 tensors)

rnn.weight_ih_l0 f4 [192, 1]
0	0x3dcedc30	0.10100591
1	0x3dcf87da	0.101333335
2	0xbcb3de14	-0.021956481
3	0x3ddf2774	0.10896197
4	0xbcb8fb3d	-0.022580737
5	0x3c244cb8	0.010028057
6	0xbd8c9593	-0.068644665
7	0x3d9fbdfd	0.07799909
8	0x3ddb3579	0.107035585
9	0xbdac7933	-0.084215544
10	0x3de9d68a	0.11417873
11	0x3cfff175	0.031243065
12	0x3db3856e	0.08765684
13	0x3cbde1f6	0.023179036
14	0x3d41de37	0.04733106
15	0xbc454093	-0.0120393215
16	0x3dd0ef80	0.10201931
17	0x3cbf18ea	0.02332731
18	0xbd83b106	-0.06430249
19	0x3ca39709	0.01996948
20	0xbd8f914c	-0.07010135
21	0xbc977f8b	-0.018493434
22	0xbd68007e	-0.056641094
23	0x3da84d5d	0.08217881
24	0xbdbfaa39	-0.09358639
25	0xbd5f149c	-0.054463014
26	0xbd2b4c1f	-0.04182064
27	0xbd90270b	-0.07038697
28	0x3ca246a0	0.019809067
29	0xbdf059cd	-0.11735878
30	0x3de323ac	0.11090788
31	0xbde57da8	-0.11205608
32	0x3de1a73b	0.11018225
33	0x3c3de922	0.011591228
34	0xbd145b39	-0.03621981
35	0x3d91c78a	0.07118137
36	0x3c5bc015	0.013412495
37	0x3dda1f1f	0.10650467
38	0x3bb0126b	0.0053732893
39	0xbd06aebe	-0.03288149
40	0x3d1e90e4	0.038712397
41	0xbce85ed0	-0.028365523
42	0x3d28ae55	0.04118188
43	0x3dedcb0d	0.116109945
44	0x3d9ed584	0.077555686
45	0xbd4c3784	-0.04985763
46	0x3da26833	0.07930031
47	0x3c8dea0c	0.017323516
48	0x3d691c07	0.056911495
49	0xbdb61fb4	-0.08892766
50	0xbdf747c6	-0.120742366
51	0xbd33d208	-0.043901473
52	0xbdb78f41	-0.089628704
53	0x3dc7c33b	0.09754034
54	0x3ceecab0	0.029149383
55	0x3d2c8bea	0.04212562
56	0x3d3a14e4	0.04543008
57	0x3b0a2e0d	0.0021084577
58	0x3dc48df9	0.09597392
59	0xbdc0cf96	-0.09414594
60	0x3b722fc2	0.0036954735
61	0xbdc80b30	-0.09767759
62	0x3d13fe04	0.03613092
63	0xbd051720	-0.032492757
64	0x3d6c48b8	0.057686538
65	0xbd0a9bcf	-0.033839997
66	0x3de633db	0.112403594
67	0xbdb3bee1	-0.08776642
68	0xbd8ee070	-0.06976402
69	0xbe0d0265	-0.13770445
70	0x3de63b94	0.112418324
71	0x3d01a87a	0.031654812
72	0x3da2511d	0.079256274
73	0xbdcb3882	-0.099228874
74	0xbe09bf2d	-0.13451834
75	0xbdc1c842	-0.09462024
76	0xbd9448e2	-0.07240464
77	0x3d6d2f9f	0.057906743
78	0xbc5f93aa	-0.013646046
79	0x3dae528d	0.08511839
80	0xbd72ba03	-0.059259426
81	0xbda398ac	-0.07988104
82	0x3d8a4d4f	0.06753027
83	0xbd9aa040	-0.075500965
84	0x3d6c6f0c	0.05772309
85	0xbc2deb69	-0.010615208
86	0x3d93b88a	0.072129324
87	0xbde7e66b	-0.113232456
88	0xbd876fde	-0.06613134
89	0x3c36edcf	0.011165096
90	0x3d0e252e	0.034703426
91	0xbcbf9371	-0.023385735
92	0x3d977362	0.073950544
93	0x3db634e7	0.08896809
94	0xbda23022	-0.07919337
95	0xbd6411ad	-0.05568092
96	0x3d946399	0.07245559
97	0xbd29f22a	-0.04149071
98	0xbd57f65d	-0.052725185
99	0xbdd917d8	-0.10600251
100	0xbd7e1fc6	-0.06204202
101	0x3d0f7d56	0.03503164
102	0xbb52ffe0	-0.003219597
103	0xbdaa1b8d	-0.08306036
104	0x3c888364	0.016664214
105	0xbdab796b	-0.08372768
106	0xbdb19bb0	-0.08672273
107	0xbd93ff5d	-0.07226441
108	0xbdd0bf7f	-0.10192775
109	0xbd8e514c	-0.069491
110	0x3e09c11f	0.13452576
111	0xbbcc458c	-0.0062338766
112	0x3d5c6334	0.053805545
113	0xbdee834c	-0.11646137
114	0xbe27ea66	-0.1639801
115	0xbd93da98	-0.07219428
116	0x3cad9d21	0.021193089
117	0xbdc2966c	-0.09501347
118	0xbd4c9ae0	-0.049952388
119	0xbd98a031	-0.07452429
120	0x3b476402	0.00304246
121	0xbd972485	-0.073800124
122	0xbc8b13fa	-0.016977299
123	0xbdbf7852	-0.09349121
124	0xbda9de2b	-0.08294328
125	0xbd84c5db	-0.064830504
126	0xbd37ad1e	-0.04484283
127	0xbda8c35b	-0.08240386
128	0x3dcb4b8e	0.0992652
129	0xbcb2a6f1	-0.02180812
130	0x3deb2976	0.114825174
131	0x3d077a13	0.033075403
132	0xbde2a393	-0.110663556
133	0x3dd10cc3	0.10207512
134	0xbd24b5e1	-0.040212516
135	0xbd315dcc	-0.043302342
136	0xbdceb0d0	-0.10092318
137	0xbe06dced	-0.13170214
138	0x3cfda2d0	0.030961424
139	0xbca088d1	-0.01959649
140	0x3d5a00fa	0.053223588
141	0xbdded536	-0.108805105
142	0x3dc5c5ae	0.09656845
143	0xbdb0796e	-0.08616911
144	0xbcdd788b	-0.027035018
145	0x3cfc0ca8	0.030767754
146	0x3d704082	0.05865527
147	0x3ddf7269	0.10910494
148	0x3e019067	0.12652741
149	0xbdc340ff	-0.095338814
150	0x3d18e6c1	0.03732944
151	0xbd619ce8	-0.055081278
152	0xbc9931c7	-0.018700493
153	0xbdd766cc	-0.10517654
154	0x3df5656d	0.11982236
155	0xbdc5bf71	-0.09655655
156	0x3d9917d2	0.074752465
157	0x3d4c6663	0.04990233
158	0x3d1d53c9	0.038409982
159	0xbd96479c	-0.07337877
160	0x3e0207f3	0.12698345
161	0x3d146a8a	0.036234416
162	0x3c40924e	0.011753632
163	0xbdd575fa	-0.10422893
164	0x3d6fd1bb	0.058549624
165	0xbcc58e6d	-0.024115765
166	0xbd49c419	-0.04925928
167	0x3de92c5e	0.113854155
168	0x3cb966a4	0.02263195
169	0xbd98d8b8	-0.07463211
170	0xbd5434c9	-0.051808152
171	0xbc2b9541	-0.010472597
172	0x3d9993f2	0.074989215
173	0xbd167a9b	-0.03673802
174	0xbda071ae	-0.07834183
175	0xbd1ab489	-0.037769828
176	0xbdcc1309	-0.09964568
177	0x3d6b9e93	0.057524275
178	0x3dc06f72	0.093962565
179	0xbde80c67	-0.113304906
180	0x3d0f1378	0.034930676
181	0x3d8e9e03	0.06963732
182	0x3cf0d06a	0.029396255
183	0xbd5ceba0	-0.053935647
184	0x3d9161f3	0.070987605
185	0x3d7ba1b1	0.061433498
186	0x3d46c574	0.04852815
187	0xbc8a4b05	-0.016881475
188	0xbd1805a6	-0.03711476
189	0x3cd25bce	0.025678542
190	0xbcc85d09	-0.024458425
191	0xbcd3dd45	-0.025862345

rnn.weight_hh_l0 f4 [192, 64]
0	0x3da3a310	0.07990086
1	0x3ddc019c	0.107424945
2	0xbc4abf20	-0.012374669
3	0xbce54538	-0.027987108
4	0x3aef1480	0.0018240362
5	0xbbf490a0	-0.0074635297
6	0x3cf62e60	0.03005141
7	0x3d0f7ac8	0.035029203
8	0xbde88384	-0.113532096
9	0xbd3cf284	-0.04612972
10	0x3dd795cc	0.10526618
11	0x3d4773c0	0.048694372
12	0xbbcbb9a0	-0.0062171966
13	0xbd9a5808	-0.07536322
14	0xbd9c9f42	-0.076475635
15	0xbde550fa	-0.11197086
16	0xbd26e48c	-0.040745303
17	0x3d2ce790	0.042213023
18	0x3da33b2c	0.079702705
19	0x3d6c6398	0.057712168
20	0xbde24a28	-0.110493004
21	0xbd99f2e4	-0.07517031
22	0xbca19ab0	-0.019727081
23	0x3df7a438	0.12091869
24	0x3c942118	0.018082187
25	0xbd0497d0	-0.032371342
26	0x3d53d27c	0.051714405
27	0xbd4302e8	-0.047610193
28	0xbda5b28c	-0.08090696
29	0x3dbad9e4	0.091235906
30	0xbd68ceac	-0.056837723
31	0xbccd4728	-0.025058344
32	0xbdfeab7e	-0.12435053
33	0x3dab5552	0.08365883
34	0x3dc1f458	0.09470433
35	0x3d3a98f4	0.045556024
36	0xbdb28090	-0.087159276
37	0xbdfca818	-0.12336749
38	0xbdcfeaf6	-0.10152237
39	0x3dbee636	0.09321253
40	0x3d75d06c	0.06001322
41	0x3dd76cd6	0.10518806
42	0x3d861c56	0.065483734
43	0x3d01954c	0.03163652
44	0xbaa07180	-0.0012240857
45	0xbdc2b086	-0.095063254
46	0xbddb556c	-0.10709652
47	0xbdef7302	-0.11691858
48	0x3d5197e4	0.051170245
49	0xbd7b6028	-0.061371
50	0xbcce1528	-0.025156572
51	0xbd935450	-0.07193816
52	0xbcba98d0	-0.022777945
53	0xbdb42e86	-0.08797936
54	0xbda74640	-0.08167696
55	0x3d29d600	0.041463852
56	0xbd182a20	-0.03714955
57	0x3d9e0a34	0.0771679
58	0xbd24410c	-0.040101096
59	0xbdbbcb10	-0.091695905
60	0xbcb4ac68	-0.022054866
61	0xbd7830d0	-0.060593426
62	0xbd1ca460	-0.038242698
63	0xbdf3b5fc	-0.11899945
64	0x3d8f3acc	0.069936365
65	0xbdb23a76	-0.08702557
66	0x3d80ab8e	0.062827215
67	0x3d685668	0.05672303
68	0x3db6e510	0.08930409
69	0xbdc45d86	-0.09588151
70	0x3db81d48	0.0898996
71	0xbd720c80	-0.059093952
72	0x3d3dfcc8	0.04638365
73	0x3df069d2	0.117389336
74	0xbc906aa8	-0.017628983
75	0xba7d6900	-0.00096668303
76	0xbcebc190	-0.028778821
77	0xbdd5c18c	-0.10437307
78	0x3d75b5d4	0.059987858
79	0xbdfe22c2	-0.12408973
80	0x3d9eecbe	0.07759999
81	0x3dbf8bae	0.09352814
82	0x3df219d0	0.118213296
83	0xbcf18a68	-0.029484943
84	0xbdd25720	-0.10270524
85	0x3ce639e8	0.028103784
86	0x3d8d6be0	0.06905341
87	0xbdfecc8e	-0.124413595
88	0xbce86e68	-0.028372958
89	0xbd9975ea	-0.074931934
90	0xbc332030	-0.010932967
91	0xbd7c0368	-0.061526686
92	0xbd5149fc	-0.051095948
93	0xbd2289f8	-0.03968236
94	0xbdf34720	-0.118788004
95	0x3dd20cc8	0.10256344
96	0x3dd69ce0	0.1047914
97	0xbca0a248	-0.019608632
98	0xbc693b00	-0.014235258
99	0xbd50f518	-0.05101499
100	0xbde72f20	-0.11288285
101	0xbdf91ffe	-0.12164305
102	0x3d3e4a04	0.046457306
103	0xbd8c8e4a	-0.06863077
104	0xbda49396	-0.08035962
105	0xbc1fcaa0	-0.009752899
106	0xbd2a8070	-0.041626394
107	0xbd25a484	-0.040440097
108	0x3b839c00	0.0040163994
109	0xbcd93400	-0.026514053
110	0xbd3049b8	-0.043039054
111	0xbd75260c	-0.059850737
112	0xbdd056fe	-0.101728424
113	0x3dd6a868	0.1048134
114	0xbd4ce554	-0.05002339
115	0x3d07ab64	0.033122435
116	0xbd31a584	-0.04337074
117	0x3c266c50	0.01015766
118	0x3deeab3e	0.116537556
119	0x3d6be3d8	0.057590336
120	0xbdddd97a	-0.10832496
121	0x3d4b36d8	0.04961285
122	0x3df30194	0.118655354
123	0x3d06b2dc	0.032885417
124	0x3daba0f4	0.08380309
125	0x3dfc6320	0.12323594
126	0xbc9ce810	-0.019153625
127	0x3cd48928	0.025944307
128	0xbdb1edd2	-0.08687939
129	0xbcd305e0	-0.025759637
130	0x3dbd96e6	0.09257297
131	0x3d833cc2	0.06408073
132	0xbda1fe76	-0.07909863
133	0xbdcd4856	-0.100235626
134	0xbdaef0ec	-0.08542046
135	0xbdfca404	-0.12335971
136	0xbdc58a22	-0.09645487
137	0xbcfd3b88	-0.030912176
138	0x3dacc4c0	0.084359646
139	0x3cab6640	0.02092278
140	0xbdc2b70a	-0.09507568
141	0xbdcd5e8c	-0.10027799
142	0x3d7eb514	0.06218441
143	0xbdbe6c62	-0.09298016
144	0xbc7c2a40	-0.015390933
145	0x3d759c08	0.059963256
146	0xbd6cf5b4	-0.05785151
147	0xbc5f5050	-0.013629988
148	0xbc324460	-0.01088056
149	0xbcf242e8	-0.029572919
150	0xbd81ccdc	-0.06337902
151	0xbde4354e	-0.111429796
152	0xbdcef07c	-0.101044625
153	0xbd891404	-0.06693271
154	0x3df74124	0.120729715
155	0xbd774db4	-0.060376838
156	0xbdabe942	-0.083941
157	0x3cf83630	0.030299276
158	0x3d0d1ccc	0.03445129
159	0x3d8c43d0	0.06848872
160	0x3dc29740	0.09501505
161	0x3d8e8f4e	0.06960927
162	0xbdfdd302	-0.12393762
163	0x3c35a260	0.0110860765
164	0x3d9b12a2	0.07571913
165	0xbc3d4990	-0.011553183
166	0xbd96db00	-0.0736599
167	0x3df40e14	0.11916748
168	0xbd3f8094	-0.04675348
169	0xbd91c090	-0.071168065
170	0xbde6cc50	-0.11269438
171	0x3bb6f620	0.0055835396
172	0x3d62e258	0.05539164
173	0x3ce2acf0	0.027670354
174	0x3cca7ee8	0.024718717
175	0xbdc225ae	-0.09479843
176	0xbdef133c	-0.116735905
177	0x3b104180	0.0022011697
178	0x3de96df6	0.113979265
179	0x3d93b11e	0.07211517
180	0xbd950d4e	-0.07277928
181	0xbc84ec88	-0.016226068
182	0xbdbcb810	-0.09214795
183	0xbd770034	-0.060302928
184	0x3cb971d8	0.022637293
185	0x3d8b66e0	0.06806731
186	0x3dd41002	0.10354616
187	0xbdeb0900	-0.11476326
188	0x3dab2a5e	0.0835769
189	0xbdb48e06	-0.08816151
190	0x3d3fba2c	0.046808407
191	0x3dd8a388	0.10578066
192	0x3ae61200	0.0017552972
193	0x3de8e93e	0.113726124
194	0xbdda200c	-0.10650644
195	0xbd439028	-0.0477449
196	0x3d955010	0.07290661
197	0xbcdf18c0	-0.027233481
198	0xbcd19cf0	-0.025587529
199	0xbd5565b8	-0.05209896
200	0x3db0765e	0.08616327
201	0x3d7b233c	0.0613129
202	0x3d241208	0.04005626
203	0xbd8fdcda	-0.07024546
204	0xbdcfced2	-0.1014687
205	0x3c5d8350	0.013520077
206	0x3d17b1dc	0.037034854
207	0xbd6c6580	-0.057713985
208	0xbd0f41a4	-0.03497471
209	0x3dace4e6	0.084420964
210	0x3c2324a0	0.009957463
211	0x3bb8ce00	0.0056397915
212	0xbcfc01c8	-0.030762568
213	0xbde7d4ba	-0.11319871
214	0xbdf0b4b6	-0.11753218
215	0xbd74be64	-0.059751883
216	0xbd82215a	-0.063540176
217	0x3d1f83f4	0.0389442
218	0xbd150c78	-0.036388844
219	0xbd484e44	-0.048902765
220	0x3df413fa	0.11917873
221	0x3d325760	0.04354036
222	0x3db680c4	0.08911279
223	0xbd77dda0	-0.060514092
224	0xbd512290	-0.051058352
225	0x3d3c2e44	0.04594256
226	0xbdaa9102	-0.08328439
227	0xbda75926	-0.081713006
228	0xbbc5d5e0	-0.006037459
229	0xbd3b44fc	-0.045720086
230	0xbdbfe996	-0.09370725
231	0x3d97d944	0.07414487
232	0x3dcddd9e	0.10052036
233	0x3ca61de0	0.020277917
234	0xbcb24ac0	-0.02176416
235	0xbded203a	-0.11578412
236	0xbd3a7d80	-0.045529842
237	0x3d02590c	0.031823203
238	0x3d716c80	0.058941364
239	0xbc817398	-0.01580219
240	0xbd4a6bb0	-0.049419105
241	0x3d8ea65e	0.06965326
242	0xbdcbe0da	-0.099549964
243	0x3da1cbee	0.079002246
244	0xbd46a204	-0.048494354
245	0x3afac380	0.001913175
246	0xbcca5bd0	-0.024701983
247	0x3c784c20	0.015154868
248	0xbd1ab9c0	-0.0377748
249	0x3dba24fe	0.09089087
250	0xbb54f800	-0.0032496452
251	0x3dc7d55e	0.097574934
252	0x3df62396	0.12018506
253	0xbd797118	-0.06089887
254	0xbdbac11c	-0.09118864
255	0x3dcd63aa	0.10028775

rnn.bias_ih_l0 f4 [192]
0	0xbc49f2f0	-0.012325987
1	0xbd901a53	-0.07036271
2	0xbd1b804a	-0.037964143
3	0x3bb05c79	0.0053821173
4	0xbd156eed	-0.03648274
5	0x3d14486d	0.036201883
6	0x3b9b8596	0.0047461493
7	0xbdb5da90	-0.08879578
8	0x3d6e453b	0.058171492
9	0xbd23912a	-0.03993336
10	0xbcc72c6c	-0.024313174
11	0xbd1348a7	-0.03595796
12	0x3d0fc8b9	0.035103533
13	0xbddb22cf	-0.106999986
14	0xbdcf5df3	-0.10125341
15	0x3d8be19a	0.068301395
16	0xbca889a1	-0.02057344
17	0xbbda2c0c	-0.006658083
18	0xbdfbc6f7	-0.12293809
19	0x3b83d409	0.0040230793
20	0x3d599730	0.0531227
21	0xbd1d8f91	-0.038466994
22	0xbbbc310c	-0.0057431515
23	0x3c91a2eb	0.01777788
24	0xbc160678	-0.009156816
25	0x3dcd04a9	0.100106545
26	0x3c997c2b	0.018735966
27	0x3d1c20ee	0.03811734
28	0x3c708165	0.014679288
29	0x3c6ac3b3	0.014328885
30	0x3d9fe2e8	0.07806951
31	0xbc16a633	-0.009194898
32	0x3d29593a	0.04134486
33	0x3dd53a2a	0.104114845
34	0x3dd598ca	0.10429533
35	0xbd2a8de8	-0.04163924
36	0xbdf5efbb	-0.120086156
37	0x3d481bd3	0.04885466
38	0xbdab983c	-0.08378646
39	0xbde371b8	-0.111056745
40	0x3da33c40	0.07970476
41	0xbdb0f9bb	-0.08641382
42	0x3df38115	0.11889855
43	0xbdcc2105	-0.099672355
44	0xbdadcfea	-0.08486922
45	0x3db3f7a9	0.08787472
46	0x3cdade5f	0.026717363
47	0xbd8fe69d	-0.07026408
48	0x3d080ecd	0.03321724
49	0xbdb0cae9	-0.08632452
50	0xbd601139	-0.054703925
51	0xbdd102e0	-0.102056265
52	0xbd3bdcb3	-0.045864772
53	0xbdfadca8	-0.12249118
54	0x3db681e6	0.08911495
55	0xbd554189	-0.052064452
56	0x3d1ba8e9	0.038002882
57	0xbd25333c	-0.040332064
58	0xbc8dd17d	-0.017311806
59	0x3d996896	0.07490651
60	0x3c3fc290	0.011704102
61	0x3d646010	0.055755675
62	0x3d522580	0.051305294
63	0xbdce8b7f	-0.100852005
64	0x3d99f60e	0.07517634
65	0x3dab4a6f	0.083638065
66	0x3ccccb87	0.024999393
67	0x3da17972	0.07884492
68	0xbd92d8ef	-0.07170283
69	0xbdb5e9c6	-0.08882479
70	0xbdeaabec	-0.11458573
71	0xbd1d820e	-0.038454108
72	0xbc8a2fd5	-0.016868511
73	0xbd928146	-0.07153563
74	0xbd80c589	-0.06287677
75	0xbd02f7ed	-0.03197472
76	0x3de0f4fb	0.10984226
77	0xbcb0cc32	-0.021581743
78	0x3dad0bab	0.08449491
79	0xbc09713e	-0.008388815
80	0x3cee15e9	0.029063182
81	0x3d6b6ccc	0.057476804
82	0xbdd7132b	-0.10501703
83	0xbd85d15a	-0.06534071
84	0xbdbe1773	-0.09281816
85	0x3dfe37b1	0.12412966
86	0x3cfe38eb	0.031033
87	0xbd8c2be4	-0.06844309
88	0xbde3371c	-0.11094496
89	0x3d9cac58	0.076500595
90	0x3c8e0337	0.017335517
91	0xbd9472cf	-0.072484605
92	0xbddc361e	-0.107525095
93	0xbda25fd0	-0.07928431
94	0x3cb6e542	0.022326116
95	0xbdef5292	-0.11685671
96	0xbc988ef4	-0.018622853
97	0x3d8f405c	0.069946975
98	0x3d4b0f67	0.049575236
99	0x3c3f080a	0.0116596315
100	0xb9659eb7	-0.00021898268
101	0x3c6e04f1	0.014527545
102	0x3d46aa8b	0.048502486
103	0x3dd19e79	0.102353044
104	0x3cf58c33	0.029974079
105	0x3d5aef77	0.053451028
106	0x3dc01f0a	0.0938092
107	0xbde5c846	-0.1121984
108	0xbda40029	-0.08007843
109	0x3d6b63a5	0.057468075
110	0x3c4fa22c	0.012672942
111	0xbdc106e7	-0.09425145
112	0x3ceaf2d2	0.028680239
113	0xbde1fb05	-0.11034206
114	0xbd8e68cd	-0.06953583
115	0x3d25158a	0.040303744
116	0xbc9aa297	-0.018876357
117	0xbdb835ef	-0.08994662
118	0x3d375f88	0.04476884
119	0x3b98153e	0.004641204
120	0xbd041aa6	-0.032251976
121	0xbe0f7e02	-0.14012912
122	0xbd6f318b	-0.058396857
123	0xbb9e2556	-0.004826228
124	0xbda705b8	-0.08155388
125	0x3cccf0b0	0.025017112
126	0xbdcd78db	-0.10032817
127	0x3dcbf252	0.09958328
128	0x3dcd8c7a	0.100365594
129	0x3db7b177	0.089693956
130	0x3ac0b4f2	0.0014702363
131	0xbe12a3d8	-0.14320314
132	0xbd80e0c8	-0.062928736
133	0xbaec2836	-0.0018017355
134	0xbe0568ca	-0.13028255
135	0x3decd5a1	0.11564184
136	0x3d3cec54	0.046123818
137	0x3da3f770	0.08006179
138	0xbe057162	-0.13031533
139	0xbd5ee214	-0.054414824
140	0x3d306d6f	0.043073114
141	0xbc922998	-0.0178421
142	0xbda7dea3	-0.081967615
143	0x3ddf6a37	0.10908931
144	0x3d0de2f9	0.034640286
145	0x3c238700	0.009980917
146	0x3ddd8392	0.10816111
147	0xbe0105b4	-0.12599832
148	0xbddd04b0	-0.1079191
149	0x3c98c6c0	0.018649459
150	0x3e0456d3	0.12923746
151	0x3daa058b	0.083018385
152	0xbdaf1369	-0.08548624
153	0x3da3bca6	0.07994966
154	0x3da405a2	0.08008887
155	0xbbe10fd7	-0.0068683433
156	0x3dc763cf	0.09735834
157	0x3d266930	0.04062766
158	0x3c2f37f7	0.010694495
159	0xbd533616	-0.051565252
160	0xbd5c6933	-0.053811263
161	0xbda6ede5	-0.081508435
162	0xbd0128e8	-0.031533152
163	0xbdb7960e	-0.089641675
164	0x3d918d9c	0.07107088
165	0x3ca1fb87	0.019773258
166	0xbdfcfba5	-0.12352685
167	0xbda1c5df	-0.07899069
168	0x3dc3aa43	0.09553959
169	0xbda88174	-0.08227816
170	0x3b4f0a16	0.0031591705
171	0xbdc2dd06	-0.09514813
172	0xbc30d523	-0.010793003
173	0x3d3c68f1	0.045998517
174	0x3c77c222	0.015121968
175	0x3d9f2859	0.077713676
176	0xbcbba111	-0.02290395
177	0xbdc22689	-0.09480006
178	0xbc7ae25a	-0.0153127555
179	0x3dbcafc0	0.09213209
180	0x3d3c52e5	0.045977492
181	0x3d29c832	0.041450687
182	0x3d3271d7	0.043565597
183	0x3dd6cebf	0.104886524
184	0x3da205cf	0.07911264
185	0xbd12eb4b	-0.035868924
186	0xbda15fa8	-0.07879573
187	0x3df3aaee	0.118978366
188	0xbda30de2	-0.07961632
189	0xbda1e1f8	-0.07904428
190	0x3d4a0b3c	0.04932712
191	0xbda00e59	-0.078152366

rnn.bias_hh_l0 f4 [192]
0	0xbde53114	-0.111910015
1	0xbdb71adf	-0.08940672
2	0x3d429ade	0.047510974
3	0xbdc62380	-0.0967474
4	0x3e000860	0.12503195
5	0xbc5a27c2	-0.013315143
6	0xbd8711e5	-0.0659521
7	0xbd71d12a	-0.059037365
8	0xbd429fa7	-0.047515538
9	0x3dfe44e2	0.12415482
10	0xbd716c55	-0.058941204
11	0xbdd8733c	-0.10568854
12	0x3cbba4c3	0.022905713
13	0x3d70352f	0.05864447
14	0xbdefc5f1	-0.11707676
15	0xbd1c1bcd	-0.03811245
16	0x3e00aa30	0.12564921
17	0xbd2c21d4	-0.04202445
18	0x3d2b49b5	0.04181834
19	0xbd8c9bf2	-0.06865682
20	0xbdedaf56	-0.11605708
21	0xbde95455	-0.11393038
22	0x3da3f29a	0.08005257
23	0x3d5742fd	0.05255412
24	0x3d588498	0.052860826
25	0x3d2d49d0	0.04230672
26	0x3d0e35f4	0.034719422
27	0x3dc66965	0.09688071
28	0x3dea6e91	0.1144687
29	0x3de81ebc	0.11333987
30	0x3d515c15	0.051113207
31	0x3bc2a1fd	0.0059397207
32	0x3d236740	0.03989339
33	0xbdc9e018	-0.098571956
34	0x3d92bb8f	0.0716468
35	0x3d0f9bc8	0.035060674
36	0x3d15ee91	0.036604468
37	0xbc74598f	-0.014913931
38	0x3dd7e262	0.10541226
39	0x3ce7a454	0.0282766
40	0xbd127a22	-0.035761006
41	0x3c5fb93b	0.013655002
42	0xbd5eb6b9	-0.054373477
43	0xbb3ccde9	-0.0028809255
44	0x3dfbe9ea	0.12300475
45	0x3d6b66b9	0.05747101
46	0x3b4b46a6	0.0031017452
47	0xbc353a27	-0.011061228
48	0x3c6ab0a6	0.014324343
49	0xbd9e3397	-0.07724684
50	0xbd5eb2e3	-0.05436982
51	0x3e03a164	0.12854534
52	0x3c9a6181	0.018845322
53	0x3cb4d8e4	0.022076078
54	0xbd9aa9d4	-0.075519234
55	0xbdb78372	-0.08960618
56	0x3d2a5bbd	0.041591395
57	0x3daabb8a	0.083365515
58	0xbdd9ebf2	-0.10640706
59	0xbe0f6577	-0.1400355
60	0xbd630448	-0.055424005
61	0x3d9c231f	0.07623886
62	0xbdcf5130	-0.10122907
63	0x3dce9f73	0.10089006
64	0x3de7bba8	0.113150895
65	0xbd3b2823	-0.045692574
66	0xbb8f4beb	-0.004373064
67	0xbcd41aed	-0.025891745
68	0x3de08a63	0.10963895
69	0x3be071fd	0.006849526
70	0x3c8600ba	0.016357768
71	0xbd7bbce0	-0.061459422
72	0xbbc5b2e4	-0.0060332883
73	0xbd88c172	-0.06677522
74	0xbc62d0d6	-0.013843736
75	0xbc148485	-0.009064798
76	0x3c4e3620	0.012586147
77	0x3c3ed0ab	0.01164643
78	0xbdf3f393	-0.119116925
79	0x3d8130ba	0.06308122
80	0x3d5a3a96	0.05327853
81	0x3d96855f	0.07349657
82	0x3dd115ed	0.1020926
83	0x3cbe82ee	0.023255792
84	0x3d906937	0.07051318
85	0x3d83b4ab	0.06430944
86	0x3d747e8a	0.05969099
87	0xbdbb095e	-0.09132646
88	0x3d2e436e	0.042544775
89	0xbb334fde	-0.0027360837
90	0x3d163358	0.03667006
91	0x3d0f3247	0.034960058
92	0xbde13cf6	-0.109979555
93	0xbd913b0a	-0.07091339
94	0xbdc6dcef	-0.097101085
95	0xbd37b06d	-0.044845987
96	0x3d0eff35	0.034911353
97	0x3ccc1276	0.024911147
98	0x3da80e3e	0.082058415
99	0xbdbc945c	-0.09207985
100	0x3cd1db2d	0.025617206
101	0x3db3506f	0.08755576
102	0xbdc5dd24	-0.0966132
103	0xbdb9221d	-0.0903971
104	0x3cd5d725	0.026103565
105	0xbd872b00	-0.065999985
106	0x3d1e4706	0.038641952
107	0xbd9aee05	-0.0756493
108	0x3b33c593	0.0027430996
109	0xbdefd91d	-0.11711333
110	0x3db2a1a8	0.0872224
111	0xbdd0b905	-0.1019154
112	0xbdfbd483	-0.12296393
113	0xbd7bac7c	-0.06144379
114	0xbca6e16d	-0.020371163
115	0x3dc205f4	0.09473792
116	0x3c2ce3dc	0.010552373
117	0xbd01783c	-0.031608805
118	0xbddb1b9b	-0.10698625
119	0x3d592202	0.053010948
120	0xbbabf669	-0.0052478802
121	0xbd65d83a	-0.056114413
122	0xbd4615eb	-0.048360746
123	0xb99f9317	-0.00030436434
124	0x3d75a72a	0.059973873
125	0xbd91cd0c	-0.07119188
126	0xbd2ae4e2	-0.041722186
127	0x3d7e458e	0.06207805
128	0xbda74da7	-0.08169108
129	0x3c50cda0	0.012744337
130	0x3df0e742	0.11762859
131	0x3d8d28f9	0.068925805
132	0xbdea7293	-0.114476345
133	0xbd4e1fee	-0.05032342
134	0x3ba29264	0.004961299
135	0x3dc4ad7a	0.096034005
136	0xbd23223b	-0.039827567
137	0xbe037fbf	-0.128417
138	0xbcbb4b7a	-0.022863138
139	0x3db49d5b	0.08819076
140	0xbd4aff19	-0.049559686
141	0xbe063255	-0.13105138
142	0xb9fec904	-0.00048596424
143	0x3df9239a	0.121649936
144	0xbdf1d471	-0.11808098
145	0x3d2f6d9a	0.042829134
146	0x3d8ba4bf	0.06818532
147	0xb97e4e10	-0.00024252408
148	0xbd7bbf7f	-0.06146192
149	0xbd532ce1	-0.05155647
150	0xbd87e85e	-0.066361174
151	0x3cae2790	0.0212591
152	0xbd920f32	-0.071318045
153	0xbbb34eef	-0.005472056
154	0xbc4a360b	-0.012341986
155	0xbdcc3650	-0.09971297
156	0x3e0ea9c4	0.13931948
157	0x3d3aa1c4	0.045564428
158	0x3d93ba91	0.07213319
159	0x3d68f725	0.05687632
160	0x3d81134f	0.06302511
161	0xbd041662	-0.03224791
162	0xbd5b61b5	-0.053559978
163	0xbd9561b7	-0.07294028
164	0xbdbecf25	-0.093168534
165	0xbde2f7c8	-0.11082417
166	0xbd49a6d7	-0.049231376
167	0x3e05ea54	0.1307767
168	0xbde7bc64	-0.113152295
169	0xbdc3bba1	-0.09557272
170	0xbdbde438	-0.09272045
171	0xbdd1def6	-0.102476045
172	0x3df2fdfa	0.118648484
173	0xbdeacc34	-0.1146473
174	0xbdd91b95	-0.10600964
175	0xbd68c57d	-0.056828965
176	0x3c937e14	0.018004455
177	0xbd0c6d2d	-0.034283806
178	0xbdc73091	-0.0972606
179	0x3df8cf12	0.121488705
180	0x3d13f008	0.036117584
181	0xbd9b6525	-0.07587651
182	0xbce3c5fb	-0.027804365
183	0x3da22052	0.07916321
184	0x3d7b78d5	0.06139453
185	0xbdc2be75	-0.09508983
186	0xbd981956	-0.074267074
187	0xbd015eb1	-0.031584445
188	0x3d07f9b2	0.033197112
189	0xbdc45268	-0.0958603
190	0x3e021b42	0.1270571
191	0x3c6208f3	0.013796079

rnn.weight_ih_l0_reverse f4 [192, 1]
0	0x3d62ec75	0.055401284
1	0x3d2a8d3a	0.04163859
2	0x3dc78524	0.097421914
3	0xbd446695	-0.047949392
4	0xbd2b8c2e	-0.041881733
5	0xbd981b14	-0.0742704
6	0x3dd9ee4e	0.10641156
7	0xbb928534	-0.0044714455
8	0x3a2f49b5	0.00066867034
9	0x3dec99a6	0.115527436
10	0xbcf3636c	-0.029710494
11	0xbcf1c5a6	-0.029513191
12	0xbd670470	-0.056400716
13	0x3d9c98f2	0.076463595
14	0x3cb1f32f	0.021722404
15	0xbd7751bd	-0.060380686
16	0x3d9c08c6	0.07618861
17	0x3d2f197c	0.042748913
18	0xbd0d165d	-0.034445155
19	0x3d046e58	0.032331795
20	0xbe012aa0	-0.12613916
21	0xbda5b099	-0.08090324
22	0xbd234fb7	-0.039870944
23	0x3d887718	0.0666334
24	0xbcdf8c63	-0.027288621
25	0x3dc5e3d7	0.096625976
26	0xbde3fc9c	-0.11132166
27	0x3dae7bec	0.0851973
28	0xbdec4f48	-0.11538559
29	0xbd495449	-0.049152646
30	0x3df74241	0.12073184
31	0xbcdb256e	-0.026751246
32	0xbd4f3ff3	-0.050598096
33	0x3d803d76	0.06261723
34	0xbd9613b2	-0.07327975
35	0x3ca79696	0.020457547
36	0xbd4ee499	-0.050510976
37	0x3d5e3ca1	0.05425704
38	0xbd9fb3ee	-0.07797991
39	0xbd812c30	-0.06307256
40	0xbdb5995a	-0.0886714
41	0xbcaa8484	-0.020815141
42	0x3df39c0c	0.11894998
43	0x3d9e6306	0.07733731
44	0xbdc50feb	-0.09622177
45	0x3d8b75fc	0.06809613
46	0x3dd6d589	0.10489947
47	0x3df2effe	0.11862181
48	0x3c9364ef	0.017992465
49	0x3d2150a4	0.039383546
50	0x3da54887	0.08070474
51	0x3deaf777	0.114729814
52	0xbacbf932	-0.0015561937
53	0xbce58000	-0.028015137
54	0x3dec67d8	0.11543244
55	0xbcf7d23c	-0.030251615
56	0x3dd6d522	0.104898706
57	0x3dccb99a	0.09996338
58	0x3cd0ba89	0.025479572
59	0xbde2379f	-0.11045765
60	0x3dd15132	0.10220565
61	0x3d83035f	0.06397127
62	0x3d1ab220	0.03776753
63	0x3d184aa6	0.037180565
64	0x3c55e916	0.01305606
65	0x3d5c16f1	0.053732816
66	0xbd9fd707	-0.07804685
67	0xbda1d68b	-0.07902249
68	0x3d997812	0.07493605
69	0xbd05bc5f	-0.032650348
70	0xbe177792	-0.14791706
71	0x3ddc68e5	0.107621945
72	0xbdc9bdf0	-0.09850681
73	0xbd5a0485	-0.053226966
74	0xbd990165	-0.07470969
75	0x3d234cd8	0.039868206
76	0xbcae203f	-0.02125561
77	0xbd81d289	-0.063389845
78	0x3decaecb	0.115567766
79	0x3dd14183	0.102175735
80	0x3d58993e	0.05288052
81	0x3dceeffb	0.101043664
82	0xbdd587ea	-0.10426314
83	0xbde994ed	-0.114053585
84	0x3d9a7b1a	0.07543011
85	0xbc0ddcc2	-0.00865859
86	0x3d59c538	0.053166598
87	0x3de50519	0.11182613
88	0xbc9da928	-0.019245699
89	0xbd9c0b53	-0.076193474
90	0x3db493c7	0.08817249
91	0xbe053a42	-0.13010505
92	0xbd949404	-0.07254794
93	0x3ddd18f5	0.10795776
94	0xbbfafe54	-0.007659713
95	0xbdf743ff	-0.12073516
96	0x3d3bd389	0.045856033
97	0xbdfa1270	-0.12210548
98	0x3b0f5355	0.0021869738
99	0xbdc2ba5e	-0.09508203
100	0xbcd42ef5	-0.025901297
101	0x3da36d80	0.0797987
102	0x3c5ae06a	0.013359169
103	0xbcb86f5f	-0.022514043
104	0x3d9f7577	0.077860765
105	0x3da693b7	0.08133643
106	0xb99f477c	-0.00030380103
107	0x3d6fdd92	0.058560915
108	0xbdf4fc78	-0.11962217
109	0xbdec3af2	-0.115346804
110	0xbdeb1284	-0.11478141
111	0xbdbdbc44	-0.092644244
112	0x3d1fb640	0.038992167
113	0x3dc9d93b	0.098558865
114	0x3de35a80	0.11101246
115	0x3da527c9	0.08064229
116	0x3c2f7693	0.010709423
117	0x3db33245	0.087498225
118	0xbca282eb	-0.019837817
119	0x3d23e281	0.040010933
120	0xbddd9dca	-0.108211115
121	0x3debf39f	0.115210764
122	0x3d8de130	0.06927717
123	0x3c6d1681	0.014470697
124	0xbd232b6e	-0.03983634
125	0x3d34ca06	0.044137977
126	0xbb341462	-0.002747797
127	0xbd941bde	-0.07231878
128	0xbd93a2d7	-0.072087936
129	0xbd602de9	-0.054731283
130	0x3cead8ea	0.028667886
131	0xbd9ba0bf	-0.07599019
132	0x3d980206	0.07422261
133	0xbd72520a	-0.05916027
134	0x3d91e96b	0.07124599
135	0x3c1e39d5	0.009657343
136	0xbb1aaefe	-0.0023602839
137	0x3c3de849	0.011591026
138	0x3b765374	0.0037586363
139	0x3d9784a8	0.07398349
140	0xbbbeace8	-0.005818952
141	0xbd470b79	-0.048594926
142	0x3bc8d92e	0.0061294055
143	0xbd88e9c0	-0.06685209
144	0x3d36a313	0.044589113
145	0x3c92df72	0.017928813
146	0x3d8c8686	0.06861596
147	0xbcd0c1ad	-0.025482977
148	0x3c1af546	0.009457892
149	0xbd5133dc	-0.051074848
150	0xbd7dff5f	-0.06201112
151	0xbb526321	-0.0032102542
152	0x3d82de3f	0.06390046
153	0xbd2c8b29	-0.0421249
154	0x3dbe5228	0.09293014
155	0xbd44df20	-0.04806435
156	0xbcfc69e0	-0.030812204
157	0x3dd877c6	0.1056972
158	0xbceb1b70	-0.028699607
159	0x3da6a7ac	0.081374496
160	0xbc7ee798	-0.015558146
161	0x3d8f4767	0.06996041
162	0x3cb7e37a	0.022447336
163	0xbd83bcdc	-0.064325064
164	0xbdb30701	-0.0874157
165	0x3d8ddc87	0.06926828
166	0x3d02b873	0.031914186
167	0xbc8cd033	-0.01718912
168	0xbc8d1c07	-0.017225279
169	0xbd5922c6	-0.05301168
170	0xbda7053c	-0.08155295
171	0x3d07c0ec	0.03314297
172	0xbdd3b159	-0.10336561
173	0x3b2abff5	0.0026054357
174	0x3dca685c	0.09883186
175	0x3d54c4f4	0.05194564
176	0x3d958b1a	0.07301922
177	0x3cec8b81	0.028875114
178	0xbda3687a	-0.07978912
179	0x3d8e4b86	0.06947999
180	0x3dbbd0af	0.091706626
181	0x3d6918e9	0.05690852
182	0x3dce5d8d	0.10076437
183	0xbdc7d5f4	-0.09757605
184	0xbdd541d5	-0.10412947
185	0xbcf09f9c	-0.029372983
186	0x3cbd5515	0.02311186
187	0x3d9002ed	0.07031808
188	0xbd28fbfe	-0.041255943
189	0xbd506e84	-0.050886646
190	0x3db4441f	0.088020556
191	0x3bd52abe	0.0065053394

rnn.weight_hh_l0_reverse f4 [192, 64]
0	0x3c0ae650	0.008477762
1	0xbdf440f2	-0.1192645
2	0xbc3e3b40	-0.011610806
3	0x3d786390	0.060641825
4	0x3df73782	0.12071134
5	0x3c3ed280	0.011646867
6	0x3da29bfa	0.079399064
7	0x3c8e5650	0.017375141
8	0xbdca0852	-0.09864868
9	0xbb8a0760	-0.004212305
10	0xbd2ef710	-0.042716086
11	0xbc8b0f38	-0.01697503
12	0xbd4726e8	-0.04862109
13	0x3dbf5ff0	0.093444705
14	0xbdd0fb34	-0.10204163
15	0xbd99e05c	-0.07513496
16	0xbd1efaec	-0.038813516
17	0x3dd67ad4	0.10472646
18	0xbcd18b20	-0.025579035
19	0x3d50eda8	0.051007897
20	0x3d7b0598	0.06128463
21	0x3ddb1d82	0.106989875
22	0xbceb4770	-0.028720587
23	0x3cbf4a18	0.02335076
24	0xbd79e51c	-0.06100951
25	0xbc1babb0	-0.009501383
26	0xbddb6320	-0.10712266
27	0xbdd0e190	-0.10199273
28	0x3d0b4290	0.033999026
29	0xbdc43388	-0.09580141
30	0x3d85ccb6	0.06533186
31	0x3dbd363a	0.092388585
32	0x3d33a718	0.043860525
33	0x3d43ff20	0.047850728
34	0xbde896d0	-0.1135689
35	0xbd6cc480	-0.057804585
36	0xbdb8d704	-0.09025386
37	0xbdf2be80	-0.11852741
38	0x3d59a9c8	0.05314043
39	0x3cea7828	0.028621748
40	0x3df39422	0.118934885
41	0xbd0d0fdc	-0.034438953
42	0xbda97f4a	-0.082762316
43	0xbddc5eec	-0.107602924
44	0x3bfc3c00	0.0076975822
45	0xbd8c4c80	-0.06850529
46	0x3cb5aa60	0.022175968
47	0x3da956c8	0.08268505
48	0x3ddae2a6	0.10687761
49	0xbca70200	-0.020386696
50	0xbda6779a	-0.08128281
51	0xbd8b027c	-0.06787583
52	0x3da293a2	0.07938315
53	0x3d047fa0	0.032348275
54	0x3c01acd0	0.007914737
55	0xbdf8b9c4	-0.12144807
56	0x3d89e3b4	0.06732884
57	0x3da1f320	0.079077005
58	0x3c535b60	0.0129002035
59	0xbcb88498	-0.022524163
60	0xbd72f690	-0.05931717
61	0x3a85d180	0.0010209531
62	0x3bcb7c80	0.00620991
63	0x3d106e64	0.035261527
64	0xbbad9980	-0.0052978396
65	0x3df2b520	0.11850953
66	0x3da504aa	0.0805753
67	0x3ce72fe0	0.02822107
68	0xbde346d0	-0.11097491
69	0xbd7477fc	-0.05968474
70	0x3d4857d8	0.0489119
71	0xbda57156	-0.08078258
72	0x3d0ebe10	0.034849226
73	0x3cfb7818	0.030696914
74	0xbda0f2ba	-0.078587964
75	0x3ccb2028	0.024795607
76	0xbc847068	-0.01616688
77	0x3dbead28	0.09310371
78	0xbce1e9a0	-0.027577221
79	0x3ddf68ea	0.10908683
80	0x3dde6bc8	0.108604014
81	0xbd29c028	-0.04144302
82	0x3cabd2c0	0.020974517
83	0xbd0bf59c	-0.03416978
84	0x3dccff6c	0.10009655
85	0x3d757a98	0.059931368
86	0x39b3a600	0.0003426522
87	0x3d9ad140	0.075594425
88	0xbdcd8de6	-0.100368306
89	0xbd02ef24	-0.031966344
90	0x3cd10718	0.025516078
91	0xbdf28960	-0.118426085
92	0x3ddfc128	0.109255135
93	0x3c2842d0	0.010269836
94	0x3de2291e	0.11042999
95	0xbd15044c	-0.03638105
96	0x3bf3e1e0	0.007442698
97	0xbd0d3624	-0.03447546
98	0xbd51eab4	-0.05124922
99	0xbd3db990	-0.046319544
100	0x3db10db6	0.08645193
101	0x3de6040e	0.11231242
102	0x3d13555c	0.035970077
103	0x3d8ef304	0.06979945
104	0x3d5eb760	0.0543741
105	0x39244800	0.00015667081
106	0xbdbe8d40	-0.09304285
107	0x3d007104	0.03135778
108	0xbd2feec8	-0.04295233
109	0x3d440954	0.04786046
110	0xbda6930a	-0.08133514
111	0xbc0b3370	-0.00849615
112	0xbd4940bc	-0.049134
113	0xbdecd2d6	-0.11563651
114	0xbdecaba6	-0.11556177
115	0x3dec30e0	0.1153276
116	0xb90e9800	-0.000135988
117	0xbddcaee8	-0.10775548
118	0x3ca7e900	0.020496845
119	0xbc0087c0	-0.007844865
120	0x3dd2e5b2	0.10297717
121	0x3df14498	0.11780661
122	0xbd039998	-0.0321289
123	0xbd999d10	-0.075006604
124	0xbd92b502	-0.07163431
125	0xbd0822cc	-0.03323631
126	0xbd8c86d2	-0.068616524
127	0x3de6be84	0.11266807
128	0xbd43b448	-0.04777935
129	0x3d83e4e4	0.06440142
130	0x3d67b4f8	0.05656907
131	0x3cef6b80	0.029226065
132	0x3d799974	0.06093736
133	0x3dd8c7c4	0.10584977
134	0x3d59d8bc	0.05318521
135	0x3d614af8	0.055003136
136	0xbdd6cc66	-0.10488205
137	0xbc357f50	-0.011077717
138	0x3b3d26c0	0.0028862208
139	0x3dc87d56	0.09789531
140	0x3d5ac770	0.053412855
141	0x3dc71754	0.09721246
142	0x3dc60320	0.09668565
143	0xbd6ed364	-0.058307067
144	0x3c914580	0.017733335
145	0x3df41aa8	0.11919147
146	0x3d3500e0	0.044190288
147	0x3d90beac	0.07067618
148	0x3d501d4c	0.05080919
149	0xbd20b904	-0.039238945
150	0x3cf48650	0.029849201
151	0xbdb0e290	-0.08636963
152	0x3dec2cf0	0.11532009
153	0x3bea5c20	0.0071520954
154	0x3dc66192	0.09686579
155	0xbdb3f56e	-0.087870464
156	0xbdeb2d2c	-0.11483225
157	0x3c7537b0	0.01496689
158	0xbc8331d8	-0.016014978
159	0xbd4f1a74	-0.050562337
160	0x3d8621ae	0.06549393
161	0xbda6886a	-0.08131488
162	0x3de05454	0.10953584
163	0xbdf9e914	-0.12202659
164	0x3cd200b0	0.025635093
165	0xbd95aecc	-0.073087305
166	0x3cde25c8	0.027117625
167	0x3dfcd1f0	0.1234473
168	0xbc75d140	-0.015003502
169	0x3cee1920	0.029064715
170	0xbd497dec	-0.049192354
171	0xbd835d80	-0.06414318
172	0xbddaacf6	-0.10677521
173	0x3d93c362	0.07215001
174	0xbab5f580	-0.0013882369
175	0x3d314da0	0.04328692
176	0xbdc4e352	-0.096136704
177	0xbdd522d0	-0.104070306
178	0xbde8c708	-0.11366087
179	0xbd938764	-0.07203558
180	0xbc852538	-0.016253099
181	0xbc9a81c8	-0.018860713
182	0x3d6120c8	0.054962903
183	0xbd7604a4	-0.06006302
184	0x3df9715e	0.12179826
185	0xbd69526c	-0.05696337
186	0xbdf0be08	-0.117549956
187	0x3dc1a78a	0.09455784
188	0xbda48616	-0.08033387
189	0x3c432e20	0.0119128525
190	0xbc45b970	-0.0120681375
191	0xbcd59a00	-0.02607441
192	0x38a9d800	8.098781e-05
193	0xbdfbbda6	-0.12292032
194	0x3de63446	0.11240439
195	0xbda6308e	-0.0811473
196	0x3d9c1596	0.07621305
197	0xbd9760b6	-0.07391493
198	0xbcfc27b0	-0.030780643
199	0xbb41bd40	-0.0029562265
200	0xbd49cd5c	-0.04926811
201	0xbd5dd03c	-0.054153666
202	0xbdd77bb4	-0.105216414
203	0xbdafd474	-0.08585444
204	0xbbc02ec0	-0.005864948
205	0xbd15ab74	-0.036540464
206	0xbc8fce68	-0.017554477
207	0x3d029c78	0.0318875
208	0xbc834700	-0.016025066
209	0xbdf256e8	-0.11832982
210	0xbd3c4dbc	-0.04597257
211	0x3d1cb6a0	0.038260102
212	0x3d3844e4	0.044987574
213	0x3d77c2dc	0.060488567
214	0x3be2d2e0	0.006922111
215	0x3daf0590	0.08545983
216	0xbdaf2f02	-0.08553888
217	0xbdd6d5c4	-0.10489991
218	0xbd088328	-0.033328205
219	0x3a5cfc00	0.0008429885
220	0x3db9dfd0	0.09075892
221	0xbd93a1ee	-0.0720862
222	0xbdb34a8a	-0.087544516
223	0xbb5d9fc0	-0.0033817142
224	0x3d023394	0.03178747
225	0xbde97de4	-0.11400965
226	0xbd4e63f8	-0.050388306
227	0xbdc919ac	-0.0981935
228	0x3cef4cf0	0.029211491
229	0x3c3f0c50	0.01166065
230	0xbde3a57c	-0.11115548
231	0xbdaa7792	-0.083235875
232	0x3bbd67c0	0.00578019
233	0xbd07acd8	-0.03312382
234	0xbdc601e4	-0.09668329
235	0xbd1b2650	-0.037878335
236	0xbdeb1b1a	-0.114797786
237	0xbc69da50	-0.014273241
238	0xbc6eb770	-0.014570102
239	0x3bd6b4a0	0.006552294
240	0x3c2df2e0	0.010616988
241	0xbcb25e40	-0.021773458
242	0x3dcc4c62	0.09975506
243	0xbd37503c	-0.04475425
244	0x3d676118	0.05648908
245	0x3d414e38	0.047193736
246	0xbc7b06f0	-0.015321478
247	0xbdbb9b5e	-0.09160493
248	0xbdd7b51a	-0.10532589
249	0x3d0db9a0	0.034600854
250	0x3d1c895c	0.038216934
251	0x3d9b4402	0.07581331
252	0xbd62a264	-0.05533065
253	0x3dceb0a6	0.10092287
254	0x3dfff7c2	0.12498428
255	0xbca2deb0	-0.019881576

rnn.bias_ih_l0_reverse f4 [192]
0	0xbd58a77d	-0.052894104
1	0xbd7a9628	-0.061178356
2	0xbd6258f0	-0.0552606
3	0xbe05c054	-0.13061649
4	0xbd40a143	-0.04702879
5	0x3dd54d74	0.10415164
6	0x3dc80860	0.097672224
7	0x3d456126	0.04818835
8	0xbca3f94e	-0.020016339
9	0x3d13a29d	0.036043752
10	0xbcfacc44	-0.03061498
11	0xbdc35dfa	-0.09539409
12	0x3d8fb197	0.070162944
13	0x3da58672	0.08082284
14	0x3dd86af5	0.105672754
15	0xbdc90819	-0.09815998
16	0x3b9cc7e7	0.0047845724
17	0x3d6aa3ef	0.057285246
18	0xbd093861	-0.033501033
19	0x3d960861	0.07325817
20	0x3d702a9a	0.058634378
21	0xbd809127	-0.062776856
22	0x3ddd56fc	0.108076066
23	0x3d48f94c	0.049065873
24	0xbcccd8b5	-0.025005678
25	0x3d819ff4	0.06329337
26	0x3de26bae	0.110556945
27	0x3d07cfa8	0.03315702
28	0x3da1e291	0.07904542
29	0xbdcc018a	-0.09961231
30	0xbd230676	-0.039801084
31	0xbc60310b	-0.013683568
32	0x3db776f1	0.08958233
33	0x3d5efaf5	0.05443855
34	0xbd512379	-0.05105922
35	0xbd14cf3d	-0.03633045
36	0xbcf7e3ac	-0.03025993
37	0xbd280c2f	-0.041027244
38	0x3def0c17	0.11672228
39	0x3da1b124	0.07895115
40	0x3db5928f	0.088658445
41	0xbcea9ca5	-0.028639147
42	0xbd45c05b	-0.048279148
43	0xbdb474ca	-0.08811338
44	0x3ddce267	0.1078537
45	0xbcf8c2bb	-0.030366292
46	0xbc04b454	-0.008099634
47	0xbdce7397	-0.10080641
48	0x3d2a906e	0.041641645
49	0x3dacf4d2	0.08445133
50	0xbe006a06	-0.12540445
51	0x3dd02a74	0.10164347
52	0x3c5dd686	0.013539916
53	0x3d3f729d	0.046740163
54	0xbdcfbc70	-0.101433635
55	0x3d46cf32	0.04853744
56	0x3e118408	0.14210522
57	0x3db80c89	0.08986766
58	0xbd8548a1	-0.065079935
59	0xbaa09ab7	-0.001225314
60	0xbd908f41	-0.070585735
61	0x3d3c13b8	0.045917243
62	0x3da0398c	0.07823476
63	0x3d5eefb7	0.05442783
64	0xbe06d1a8	-0.13165915
65	0x3d4c1919	0.049828622
66	0xbbf728e2	-0.0075427154
67	0xbdb419c0	-0.08793974
68	0xbd5ae3ee	-0.053440027
69	0x3df0399c	0.11729738
70	0xbdfe4e56	-0.12417285
71	0x3d741772	0.05959267
72	0x3dd4fb88	0.10399538
73	0xbde81679	-0.11332411
74	0xbdfd52fc	-0.12369344
75	0xbdc12327	-0.09430533
76	0xbc63ea36	-0.013910821
77	0xbe05b6fa	-0.13058081
78	0x3dcf86e9	0.10133154
79	0x3dbacbab	0.09120878
80	0xbd04b2b4	-0.032396987
81	0x3d5a5f4e	0.053313546
82	0x3db6474e	0.08900319
83	0x3cd11f54	0.025527634
84	0xbd77dc0a	-0.06051258
85	0xbaf7a976	-0.0018895108
86	0x3d95f57f	0.07322215
87	0xbd8c2b6e	-0.06844221
88	0xbbd38d95	-0.006456087
89	0xbd1287d6	-0.035774074
90	0xbd3218a7	-0.04348054
91	0xbd215d9f	-0.039395925
92	0xbda57c9f	-0.0808041
93	0xbd53ae13	-0.051679682
94	0x3dc7f563	0.09763601
95	0xbd1903c1	-0.037357096
96	0xbd071f60	-0.032988906
97	0x3da7abbf	0.08187055
98	0x3cdc95cd	0.0269269
99	0xbdd3d010	-0.10342419
100	0xbd4495ee	-0.047994547
101	0xbd868ef7	-0.06570237
102	0xbda8c0e3	-0.08239915
103	0xbdf5d67d	-0.12003801
104	0x3d21f020	0.03953564
105	0x3db444a2	0.08802153
106	0xbe006207	-0.12537394
107	0x3de1d90e	0.11027728
108	0x3d13e6bd	0.03610872
109	0x3dbbb3dd	0.091651656
110	0xbddab00e	-0.10678111
111	0x3c811aad	0.01575979
112	0x3d95105c	0.07278511
113	0x3d61f170	0.055161893
114	0xbd1d0a32	-0.0383398
115	0x3d93fd30	0.07226026
116	0x3d925929	0.07145912
117	0xbdbd18d8	-0.09233254
118	0x3d8f6eb2	0.07003535
119	0xbda17cc6	-0.07885127
120	0x3d9c7480	0.07639408
121	0xbd5527cc	-0.052039906
122	0xbd86fd57	-0.065912895
123	0x3d856d42	0.0651498
124	0xbdab81d8	-0.08374375
125	0xbd463a05	-0.048395175
126	0x3d8f377b	0.06993004
127	0x3de8c2e1	0.11365295
128	0x3d69e2b7	0.057100978
129	0x3df054d5	0.117349304
130	0x3d7ad80f	0.061241206
131	0xbccfa0eb	-0.025345286
132	0xbce06d94	-0.027396
133	0xbcdf9a5e	-0.027295288
134	0xbc723ad1	-0.014784531
135	0x397d5614	0.00024160027
136	0x3c240035	0.010009815
137	0x3c611ea3	0.0137402145
138	0xbdb5639a	-0.08856888
139	0xbd823dd8	-0.06359452
140	0x3df3bf46	0.11901717
141	0xbd8b5049	-0.068024226
142	0x3d89ca11	0.06727994
143	0x3e0b50f8	0.13605106
144	0xbe04f991	-0.12985827
145	0x3d104c51	0.03522903
146	0x3d474cb5	0.048657138
147	0xbdbca983	-0.09212019
148	0xbcf87f1b	-0.030334046
149	0xbd78a530	-0.06070441
150	0xbe0ed5f4	-0.13948804
151	0xbd7636d1	-0.06011087
152	0x3e010a65	0.12601621
153	0x3e0bda9f	0.13657616
154	0xbdb6889a	-0.089127734
155	0xbcf63a13	-0.030056989
156	0xbda6e893	-0.08149829
157	0x3dcd489a	0.10023613
158	0xbdf5f426	-0.12009458
159	0xbd09165f	-0.0334686
160	0xbd6467aa	-0.055762924
161	0xbd8c2bc9	-0.06844289
162	0x3e000525	0.12501962
163	0xbe00aa29	-0.12564911
164	0xbde89ef7	-0.11358445
165	0xbdf29b0a	-0.118459776
166	0xbd8b07a1	-0.067885645
167	0x3da9bf8c	0.08288488
168	0x3d10e45e	0.035374038
169	0xbc94f955	-0.018185297
170	0x3dee6a08	0.116413176
171	0x3dcfbad9	0.1014306
172	0x3d2dbff5	0.042419393
173	0x3d24c512	0.040227003
174	0xbd5606da	-0.052252628
175	0xbe0e6deb	-0.13909118
176	0x3d1a62fc	0.037692055
177	0x3dfac291	0.12244142
178	0x3db7cd89	0.089747496
179	0xbc8d5332	-0.017251585
180	0xbc55554f	-0.013020827
181	0x3e09f433	0.13472061
182	0xbdefbea6	-0.11706285
183	0x3e00fc00	0.1259613
184	0x3e0fd255	0.14045079
185	0x3db8bd1c	0.09020445
186	0x3d268d1a	0.04066191
187	0xbb43f2af	-0.002989929
188	0x3cec2a50	0.02882877
189	0xbd8d9321	-0.06912828
190	0xbab6a2ff	-0.0013934075
191	0xbda37e50	-0.079830766

rnn.bias_hh_l0_reverse f4 [192]
0	0x3d098e31	0.03358287
1	0xbd240b0d	-0.0400496
2	0x3dffb293	0.12485232
3	0x3d1e96f4	0.03871818
4	0x3d94d1e6	0.072665974
5	0xbda84d6e	-0.082178935
6	0x3c86b6e6	0.016444635
7	0x3e009620	0.12557268
8	0x3d8ade71	0.067807086
9	0xbdb8d4a2	-0.090249315
10	0xbd71453e	-0.058903925
11	0x3da181e2	0.07886101
12	0x3d549a5f	0.051905032
13	0x3d065072	0.032791562
14	0xbd14be2c	-0.036314175
15	0x3dbb7c6f	0.09154593
16	0x3ca1cfbd	0.019752378
17	0xba16be27	-0.0005750381
18	0x3cb6d802	0.022319797
19	0xbd66db31	-0.05636138
20	0xbdb85a04	-0.09001544
21	0x3da2dbab	0.079520546
22	0xbd553e80	-0.052061558
23	0xbd964d7f	-0.07339
24	0xbde64248	-0.11243111
25	0x3defbe3a	0.11706205
26	0x3d89a182	0.06720258
27	0x3d831ccf	0.06401979
28	0x3ddea878	0.108719766
29	0xbe075e97	-0.13219677
30	0xbda9e9df	-0.082965605
31	0x3d6287a1	0.055305127
32	0x3e010b3a	0.12601939
33	0x3d232acf	0.039835747
34	0xbbb0991b	-0.0053893453
35	0x3dd67237	0.104710035
36	0xbd8ad556	-0.06778972
37	0x3dfecda8	0.124415696
38	0x3de9087b	0.11378571
39	0xbda71039	-0.08157391
40	0xbb8169dc	-0.003949387
41	0x3df05948	0.11735779
42	0x3dc7c2eb	0.097539745
43	0xbc115529	-0.008870401
44	0x3dfe7c24	0.12426022
45	0xbdacf7a1	-0.08445669
46	0x3d139a7f	0.03603601
47	0x3b98d48f	0.004664011
48	0x3d537b46	0.051631235
49	0x3dab8764	0.08375433
50	0x3ca6c73d	0.020358676
51	0x3d8f5bf1	0.06999958
52	0x3db5f521	0.08884645
53	0x3d6d1e6c	0.05789034
54	0x3db3a810	0.0877229
55	0x3e10482f	0.14090036
56	0x3df1172b	0.11771997
57	0x3c75db9d	0.015005973
58	0xbdc603e1	-0.096687086
59	0x3d3e11f6	0.046403848
60	0x3ce2153f	0.027598022
61	0x3de13579	0.10996527
62	0xbc8be03a	-0.017074693
63	0x3b8f459a	0.004372311
64	0xbe0f5e5e	-0.14000842
65	0xbd90f9fc	-0.07078931
66	0x3d9f155e	0.07767747
67	0xbda6edf4	-0.08150855
68	0xbd994cf2	-0.07485379
69	0x3c4ea9be	0.012613712
70	0xbc933d71	-0.017973633
71	0x3d99c776	0.07508747
72	0xbdcb637e	-0.09931086
73	0x3a8ab167	0.0010581434
74	0xbdb12f96	-0.086516544
75	0x3d809253	0.06277909
76	0x3d01efbb	0.031722765
77	0xbd01f02a	-0.03172318
78	0x3db51e99	0.08843727
79	0x3d89c593	0.067271374
80	0xbdb75a8f	-0.089528196
81	0xbdfcf7b1	-0.12351931
82	0x3d44218c	0.047883555
83	0xbdef40fa	-0.11682315
84	0x3c886ff9	0.016654955
85	0x3c507e51	0.012725429
86	0x3cf336cc	0.029689215
87	0x3d3a4a7d	0.045481194
88	0xbd9b90f7	-0.07596009
89	0xbc37475a	-0.011186445
90	0xbdbed773	-0.093184374
91	0x3d8f0ac4	0.06984475
92	0x3ca7f9d7	0.020504875
93	0x3dc52b80	0.096274376
94	0x3da75cf7	0.081720285
95	0x3d6976ed	0.056998182
96	0x3d829a35	0.06377069
97	0xbcd4314f	-0.025902418
98	0xbde2cd23	-0.11074283
99	0xbd885c31	-0.06658209
100	0xbd7d7d0c	-0.061886832
101	0xbd94c2c9	-0.07263715
102	0xbd9befc9	-0.07614095
103	0xbe0d8f0c	-0.138241
104	0x3a6dc65f	0.0009070392
105	0xbdb391dc	-0.08768055
106	0xbe0ab572	-0.13545778
107	0x3cc64fdc	0.024208002
108	0xbe0e4e7b	-0.13897125
109	0x3c2340c5	0.009964173
110	0xbc7e7e92	-0.015533106
111	0x3d367fc7	0.04455545
112	0x3db86536	0.090036795
113	0x3d410c84	0.047131076
114	0xbdcfb62b	-0.10142168
115	0xbcb0f6e4	-0.021602102
116	0x3d83e105	0.064394034
117	0xbde3675c	-0.111036986
118	0xbdeed1b0	-0.116610885
119	0xbe066df9	-0.13127889
120	0xbdec8634	-0.11549035
121	0x3d28a3e8	0.04117194
122	0xbce59638	-0.028025731
123	0x3d7287b0	0.059211433
124	0xbda056d0	-0.07829058
125	0xbcedb0c6	-0.029014956
126	0xbcf280c6	-0.02960242
127	0x3df72fa1	0.12069631
128	0x3d088f21	0.033339623
129	0xbdc3a83b	-0.09553572
130	0x3ddfdb1a	0.10930462
131	0x3a4283d5	0.0007420157
132	0x3e02530c	0.12726992
133	0x3b8ebf84	0.0043563265
134	0xbdf2a3ce	-0.118476495
135	0x3d10df92	0.035369463
136	0xbdada25c	-0.08478233
137	0xbdd54618	-0.1041376
138	0x3bad75f8	0.005293604
139	0x3d5d755d	0.054067004
140	0xbd4b3177	-0.04960772
141	0xbd4cddc0	-0.050016165
142	0xbd3ec56c	-0.046574995
143	0x3de6e33b	0.112738095
144	0x3c740c0f	0.014895453
145	0xbc485f29	-0.012229719
146	0xbcb9a551	-0.022661837
147	0xbd75af9f	-0.05998194
148	0xbb6c9bf5	-0.00361037
149	0x3ced35e1	0.028956356
150	0xbd82af04	-0.06381038
151	0xbd8ca7b4	-0.06867924
152	0xbda5754a	-0.08079012
153	0x3e052f18	0.13006246
154	0xbd899ff7	-0.06719964
155	0x3df4c974	0.11952487
156	0xbcf20fca	-0.029548544
157	0xbc484833	-0.012224245
158	0xbd7ce430	-0.061741054
159	0x3bf4555f	0.007456466
160	0xbcad5426	-0.02115829
161	0x3c642dfb	0.013926978
162	0xbd291c45	-0.041286726
163	0x3db9b57d	0.09067819
164	0x3c6636e1	0.01405117
165	0xbd120801	-0.035652164
166	0xbdc64a39	-0.096821256
167	0x3d3c4b28	0.045970112
168	0x3c3e9d44	0.011634175
169	0xbd00c530	-0.031438053
170	0xbdc447bf	-0.09583997
171	0x3d81261d	0.06306098
172	0x3ce717f9	0.028209673
173	0x3dbcfd54	0.09228006
174	0xbd93b79f	-0.07212757
175	0x3d6b5e4b	0.05746297
176	0x3de3fc5b	0.11132117
177	0x3d31358f	0.043263968
178	0x3dbe58d4	0.09294286
179	0xbdfff6df	-0.12498259
180	0x3d9280d3	0.071534775
181	0xbccf6c5b	-0.025320223
182	0x3d54bddb	0.051938873
183	0x3ddc77fc	0.10765073
184	0x3d0ea702	0.03482724
185	0x3c1506a9	0.009095826
186	0x3d3b0b97	0.04566535
187	0x3de53e8b	0.1119357
188	0xbdd43378	-0.103613794
189	0x3de61067	0.11233597
190	0x3d18db8b	0.037318747
191	0x3d8807b8	0.06642097
