examples/1. ML/1-2. Regression/Models/LSTM_FCNs_rg/CLUST/Electronics/91bdf62f28aed66ed66131a647714e06_3923db46bf38313b935c61b7e06ee186/38bf821f4b6b6ca14d9086365efa82f7/model.pt (torch, 560572 bytes, 31 tensors)

lstm.weight_ih_l0 f4 [256, 24]
0.104749165 0.11362879 -0.02173926 0.121679835 -0.013088574 0.046499528 -0.05808939 0.07976866
0.11953114 -0.0726868 0.12296293 0.049567048 0.10342989 0.026772106 0.06629077 -0.005475285
0.112497136 0.027184678 -0.048546165 0.044251412 -0.051681787 -0.012863314 -0.03752822 0.0955241
-0.097278684 -0.056001555 -0.035271294 -0.074538685 0.012505775 -0.12288674 0.11327866 -0.1060328
0.09610277 0.017049622 -0.043957498 0.07191641 0.018142892 0.09898949 0.013932041 -0.039013308
0.03088533 -0.0340037 0.054727994 0.11036336 0.07280192 -0.05437156 0.07147543 0.022423983
0.07072067 -0.06823971 -0.11698919 -0.043057613 -0.08419532 0.120590515 0.03783821 0.056624264
0.04769559 0.015285857 0.11101726 -0.06482051 0.01811802 -0.07637648 0.043787736 -0.032204766
0.052816577 -0.017995805 0.11199744 -0.06354486 -0.069290586 -0.07329502 0.12450261 0.05244807
0.11978354 -0.101110525 -0.118274316 -0.096859336 -0.07932171 0.061030604 0.04748221 0.10686635
-0.06035245 -0.059976943 0.09077938 -0.024423454 0.09157955 -0.017512796 0.07074341 -0.08564555
-0.04594139 0.046477713 0.03472768 -0.019094577 0.07093408 0.08380043 -0.079534136 -0.071508095
0.11497521 -0.04108137 -0.044736397 -0.121586785 -0.0671495 0.03855028 -0.021037284 -0.092581
0.0047647157 -0.07478436 -0.09960109 -0.05044138 -0.10616278 -0.07602961 0.125202 0.027766062
0.04634613 -0.114574715 -0.08091958 -0.039247956 0.020184753 -0.11366854 -0.048456315 -0.06682975
0.0037414487 -0.04251085 -0.005914896 -0.08301759 -0.077667594 -0.057187196 -0.045245677 -0.097796135
0.109161824 -0.010264023 0.117283285 0.061186627 -0.100063354 0.091552466 -0.033268012 -0.041356064
-0.09272971 -0.12099567 0.040136192 -0.02085627 0.05002838 -0.105871476 0.101212546 -0.083491914
-0.02910299 0.018531663 0.056715876 0.09269765 0.107096314 -0.104836434 0.022523964 -0.06185245
-0.021043608 -0.097611114 0.109156966 -0.094199724 0.060729723 0.037872016 0.032874998 -0.07355442
0.10916088 0.0206614 0.008500966 -0.117373206 0.044666823 -0.02791347 -0.06339307 0.09970261
0.042515896 -0.0526258 -0.045164566 0.0072710076 0.083592616 -0.009708214 -0.053506114 -0.027816936
-0.07992199 0.049621515 0.104120634 -0.12110434 0.041648857 0.07174726 0.034429688 -0.031770643
0.07155679 0.07929574 0.068177424 -0.0007299583 -0.023099735 0.028663246 -0.008758749 -0.034703206
0.08653883 0.11506736 -0.0059997193 -0.022912014 0.013520974 0.013311667 0.03084375 0.03939922
-0.105498716 -0.02942328 0.1167696 0.07257481 0.0018136022 -0.068543166 -0.072762996 -0.10319986
-0.027248887 0.047487747 0.08813778 0.06783251 -0.10626505 -0.075543545 -0.0075297817 0.1344742
0.025183428 -0.024451213 0.05779585 -0.04210786 -0.06921654 0.10622091 -0.055990525 -0.02083026
-0.11549856 0.10135508 0.10745053 0.07121248 -0.077271946 -0.11400053 -0.09592937 0.104367375
0.07487315 0.11309591 0.07437762 0.040381055 0.00496775 -0.0940198 -0.09480539 -0.1031854
0.056941856 -0.05408289 -0.020380175 -0.069626495 -0.011274827 -0.06831964 -0.084391735 0.04255867
-0.031785473 0.09682467 -0.026602019 -0.062941626 -0.012721672 -0.053435702 -0.036047474 -0.107943974
00000000: bb86 d63d 36b6 e83d 8816 b2bc 4733 f93d
00000010: 7571 56bc 4a76 3e3d 24ef 6dbd c05d a33d
00000020: becc f43d d1dc 94bd fdd3 fb3d d106 4b3d
00000030: 0dd3 d33d 2d51 db3c 75c3 873d 056a b3bb
00000040: e664 e63d 67b2 de3c 58d8 46bd f840 353d
00000050: 48b0 53bd a6c0 52bc 31b7 19bd 24a2 c33d
00000060: 0c3a c7bd e361 65bd a278 10bd bda7 98bd
00000070: 06e5 4c3c 0bac fbbd a4fe e73d ba27 d9bd
00000080: 87d1 c43d a6ab 8b3c c70c 34bd e948 933d
00000090: 67a0 943c 00bb ca3d 3743 643c 6bcc 1fbd
000000a0: 3b03 fd3c 7747 0bbd 762a 603d 2f06 e23d
000000b0: 2c19 953d b7b4 5ebd b661 923d 80b2 b73c
000000c0: 00d6 903d 43c1 8bbd 0798 efbd 2e5d 30bd
000000d0: 996e acbd 29f8 f63d 3dfc 1a3d d8ee 673d
000000e0: 735c 433d 8871 7a3c 045d e33d 9ec0 84bd
000000f0: 3e6c 943c 466b 9cbd c55a 333d 25e9 03bd
00000100: 3256 583d f06b 93bc ea5e e53d cf23 82bd
00000110: 39e8 8dbd b31b 96bd 39fb fe3d cad3 563d
00000120: 1351 f53d 0913 cfbd ce39 f2bd 305e c6bd
00000130: 6c73 a2bd 3afb 793d b57c 423d bfdc da3d
00000140: 2134 77bd 62aa 75bd 8aea b93d b213 c8bc
00000150: 0f8e bb3d ff76 8fbc ece1 903d ef66 afbd
00000160: 0a2d 3cbd 6a5f 3e3d 9d3e 0e3d 3b6c 9cbc
00000170: e345 913d 8f9f ab3d cbe2 a2bd d672 92bd
00000180: 1f78 eb3d f044 28bd 833d 37bd 7e02 f9bd
00000190: ad85 89bd e6e6 1d3d 6256 acbc 1b9b bdbd
000001a0: 5521 9c3b 8b28 99bd a8fb cbbd 9f9b 4ebd
000001b0: df6b d9bd 6ab5 9bbd f434 003e a775 e33c
000001c0: 71d5 3d3d 26a6 eabd 2ab9 a5bd 77c2 20bd
000001d0: 7f5a a53c 0dcb e8bd 217a 46bd 09de 88bd
000001e0: 1833 753b db1f 2ebd bed1 c1bb 2005 aabd
000001f0: 3010 9fbd 1f3d 6abd 8853 39bd 5749 c8bd
00000200: 3c90 df3d 6f2a 28bc 3832 f03d d49e 7a3d
00000210: 04ee ccbd dc7f bb3d 0a44 08bd fa64 29bd
00000220: 13e9 bdbd 94cc f7bd d965 243d c5da aabc
00000230: 8fea 4c3d 25d3 d8bd 8648 cf3d cffd aabd
00000240: 6569 eebc b7cf 973c e84e 683d 44d8 bd3d
00000250: 5055 db3d 7cb4 d6bd 2d84 b83c ff58 7dbd
00000260: a563 acbc 56e8 c7bd b08d df3d c9eb c0bd
00000270: bbbf 783d b01f 1b3d efa7 063d b3a3 96bd
00000280: bd8f df3d 1942 a93c a347 0b3c 5d61 f0bd
00000290: 8ff4 363d caaa e4bc 3ad4 81bd e230 cc3d
000002a0: 2625 2e3d 278e 57bd 7bfe 38bd a241 ee3b
000002b0: 9b32 ab3d 330f 1fbc 3a29 5bbd 58e0 e3bc
000002c0: 24ae a3bd ee3f 4b3d 333d d53d 8d05 f8bd
000002d0: fe97 2a3d 3af0 923d 2506 0d3d ef21 02bd
000002e0: 5e8c 923d ce65 a23d 9ba0 8b3d ac5a 3fba
000002f0: a83b bdbc 2fcf ea3c db80 0fbc f324 0ebd
00000300: 453b b13d 70a8 eb3d 4b99 c4bb fab1 bbbc
00000310: 1387 5d3c 2e19 5a3c 08ac fc3c 1461 213d
00000320: b60f d8bd 1709 f1bc e624 ef3d 1aa2 943d
00000330: 64b6 ed3a 5c60 8cbd c404 95bd 735a d3bd
00000340: 0f39 dfbc 8382 423d 9581 b43d c5eb 8a3d
00000350: 7ea1 d9bd 93b6 9abd 63bc f6bb 9bb3 093e
00000360: 7a4d ce3c e94d c8bc 57bb 6c3d 4b79 2cbd
00000370: 67c1 8dbd 598a d93d 5256 65bd 39a4 aabc
00000380: 828a ecbd 4193 cf3d 060f dc3d d9d7 913d
00000390: c140 9ebd 1c79 e9bd 9e76 c4bd 90be d53d
000003a0: 1857 993d d49e e73d 4b53 983d 9b66 253d
000003b0: 82c8 a23b 748d c0bd 5429 c2bd de52 d3bd
000003c0: dd3b 693d 0586 5dbd 53f4 a6bc 5698 8ebd
000003d0: 0dba 38bc 2beb 8bbd 93d5 acbd 0052 2e3d
000003e0: 7c31 02bd 034c c63d 7aec d9bc 8ae7 80bd
000003f0: 8f6e 50bc 65df 5abd 84a6 13bd bb11 ddbd

lstm.weight_hh_l0 f4 [256, 64]
-0.11257441 0.023772944 -0.037058588 0.08281808 -0.118492156 0.018379327 0.06703412 0.027580626
-0.020252015 0.10411201 -0.083041415 0.12894881 0.026556935 0.0453804 0.08810419 -0.0068891286
-0.004990254 -0.04169498 -0.12437602 0.037482664 0.085804224 0.034361806 -0.034726232 -0.09896314
-0.017800946 0.029675014 -0.113389984 0.1236441 -0.009046067 0.062119603 0.09663979 0.067629725
-0.052514005 0.058324076 0.07481248 0.079299584 -0.043356348 0.0038533264 -0.084477976 -0.008525884
-0.07109061 0.083767705 0.13445602 -0.12476279 -0.06767872 -0.07077407 -0.075626485 0.10582081
-0.11088243 -0.05115089 -0.09090915 -0.013494582 -0.083466105 -0.09457169 0.11053875 0.06995208
0.039104074 0.07310107 0.014301315 0.034002583 -0.10870492 0.0580357 -0.08544865 0.0035288567
-0.065372676 -0.07214234 -0.07216545 -0.07060989 -0.0729673 -0.06993749 -0.044287853 -0.11564917
0.10003999 0.04350167 -0.11929212 -0.12531853 -0.066052474 0.04988618 0.11764771 -0.015376406
0.077847 -0.0663477 -0.024274064 -0.017910918 -0.12027244 0.0015743312 0.03448285 0.07377747
-0.09497532 -0.040418763 0.0079640355 0.01239164 0.0217059 -0.09791533 0.09831032 -0.115413845
-0.044807773 0.06092773 -0.025066357 -0.062370732 -0.12535177 0.0849243 -0.0010384136 0.0644829
0.0137813045 -0.09304803 -0.04543889 0.08997207 -0.058673773 -0.060158033 0.06613253 -0.055399995
0.017433744 -0.062289674 0.036401797 0.013837957 -0.100765236 -0.09317266 0.047608923 -0.042449165
0.06957238 0.009311459 -0.03768747 -0.02149485 -0.054843884 0.059091657 0.10083917 -0.0018850056
-0.09310836 0.09056531 0.090797275 0.07669214 0.0029957448 0.043382715 0.016253505 -0.035949126
-0.11130682 -0.028132215 0.06663545 0.083765976 0.026687028 0.04417963 0.07908066 -0.041742522
0.064775884 -0.017199432 -0.0541382 -0.06247426 -0.07959364 -0.11213532 0.014545022 0.12744379
0.0036127348 0.015203582 -0.061098833 -0.0337692 -0.04504939 0.06499796 0.0093246 -0.033349507
0.038173776 -0.008823805 -0.008795626 0.10446354 -0.038360223 0.10871116 -0.063578755 0.12025959
0.06068698 0.06077755 -0.017383853 -0.03663317 -0.09964986 -0.13338424 0.098143235 0.11531415
0.024767488 -0.035893794 0.039335832 -0.016578628 -0.100351974 -0.110326186 0.030895805 -0.023653561
-0.042027995 -0.08960353 0.046262514 -0.050668247 -0.053743593 0.08429333 0.13116184 0.11339082
0.039469194 0.009640171 0.08653747 0.112085395 0.053699188 0.046496682 0.03558558 0.0476215
0.092749126 0.030001676 -0.09362473 -0.06538734 -0.12461498 -0.048252326 0.0153850075 -0.0722598
-0.13021539 -0.09658619 0.050214127 -0.01638126 -0.027032994 0.008889609 -0.039546866 -0.06349384
-0.06962632 -0.053972267 -0.1289695 -0.099743485 -0.050056566 0.06720157 0.111727715 0.008327111
0.09723795 0.051040594 -0.096146405 -0.051677637 -0.019109057 -0.10641418 0.043713734 0.028434915
-0.081183165 -0.019467622 -0.10084392 0.12357234 0.078842916 -0.048096076 0.121512756 -0.07440862
0.10025313 -0.03782243 0.043556932 0.07769711 0.067052595 0.028735042 -0.024252288 0.010276665
0.09519739 -0.053580076 -0.044036515 0.024671167 -0.07149033 -0.03317228 0.018936122 0.10066764
00000000: 6a8d e6bd 7abf c23c bfca 17bd 879c a93d
00000010: 04ac f2bd 3e90 963c 2f49 893d c4f0 e13c
00000020: 8ee7 a5bc ad38 d53d 9e11 aabd 280b 043e
00000030: ee8d d93c cce0 393d f86f b43d 33be e1bb
00000040: 4985 a3bb 5bc8 2abd dbb8 febd 6c87 193d
00000050: 20ba af3d f7be 0c3d 183d 0ebd 30ad cabd
00000060: 4ad3 91bc 0419 f33c 0239 e8bd 1e39 fd3d
00000070: f435 14bc 2071 7e3d 15eb c53d 7481 8a3d
00000080: ed18 57bd 3ae5 6e3d 4937 993d d267 a23d
00000090: 6d96 31bd 1788 7c3b ca02 adbd 26b0 0bbc
000000a0: f497 91bd 678e ab3d d7ae 093e a283 ffbd
000000b0: 249b 8abd fff1 90bd 0fe2 9abd 95b8 d83d
000000c0: 5416 e3bd 9883 51bd 942e babd 6118 5dbc
000000d0: 47f0 aabd cdae c1bd 2462 e23d 0943 8f3d
000000e0: 982b 203d 04b6 953d 1050 6a3c 4b46 0b3d
000000f0: afa0 debd d8b6 6d3d b4ff aebd 6444 673b
00000100: 1ce2 85bd 5dbf 93bd 7bcb 93bd eb9b 90bd
00000110: e16f 95bd 633b 8fbd 2e67 35bd 79d9 ecbd
00000120: c4e1 cc3d cf2e 323d 6d4f f4bd 8053 00be
00000130: 8546 87bd 7355 4c3d 48f1 f03d 52ed 7bbc
00000140: 3f6e 9f3d 4ee1 87bd 67da c6bc ebb9 92bc
00000150: 6651 f6bd ca59 ce3a e43d 0d3d a418 973d
00000160: 6c82 c2bd 258e 25bd 967b 023c 4e06 4b3c
00000170: 92d0 b13c d587 c8bd ec56 c93d 185e ecbd
00000180: 5b88 37bd 5b8f 793d f657 cdbc 7478 7fbd
00000190: 375c 00be cbec ad3d 611b 88ba 9c0f 843d
000001a0: fbca 613c f78f bebd 211e 3abd 4743 b83d
000001b0: e953 70bd 4568 76bd 7e70 873d 1beb 62bd
000001c0: 36d1 8e3c 7523 7fbd 0d1a 153d 99b8 623c
000001d0: 015e cebd 4fd1 bebd 9301 433d 2ddf 2dbd
000001e0: f77b 8e3d 178f 183c 2d5e 1abd f815 b0bc
000001f0: fba3 60bd 180a 723d c484 ce3d 4b12 f7ba
00000200: 99af bebd 4e7a b93d ecf3 b93d c510 9d3d
00000210: 4254 443b 13b2 313d 1226 853c 643f 13bd
00000220: d4f4 e3bd 8875 e6bc 2b78 883d 7f8d ab3d
00000230: c19e da3c b3f5 343d 0bf5 a13d 35fa 2abd
00000240: 38a9 843d d3e5 8cbc 04c0 5dbd 02e5 7fbd
00000250: fe01 a3bd 34a7 e5bd 3e4e 6e3c a080 023e
00000260: a2c3 6c3b 7218 793c c542 7abd 9351 0abd
00000270: b685 38bd a71d 853d 35c6 183c 7e99 08bd
00000280: 1b5c 1c3d b891 10bc 881b 10bc fbf0 d53d
00000290: 9c1f 1dbd f5a3 de3d 9435 82bd a94a f63d
000002a0: e992 783d e1f1 783d 9568 8ebc aa0c 16bd
000002b0: 3a15 ccbd e195 08be 52ff c83d d329 ec3d
000002c0: 30e5 ca3c 5f05 13bd 9c1e 213d e7cf 87bc
000002d0: 5685 cdbd b2f2 e1bd 3319 fd3c 1dc5 c1bc
000002e0: 8c25 2cbd 0e82 b7bd c37d 3d3d 8289 4fbd
000002f0: 3e22 5cbd fba1 ac3d 4a4f 063e 7239 e83d
00000300: 73aa 213d cff1 1d3c 8f3a b13d 078d e53d
00000310: aef3 5b3d 4e73 3e3d 2fc2 113d c30e 433d
00000320: 41f3 bd3d 13c6 f53c 53be bfbd cce9 85bd
00000330: 2336 ffbd 3ba4 45bd 6611 7c3c f2fc 93bd
00000340: 2f57 05be fbce c5bd 54ad 4d3d fe31 86bc
00000350: 4c74 ddbc b9a5 113c e5fb 21bd 0f09 82bd
00000360: 3e98 8ebd 0612 5dbd 9510 04be 5046 ccbd
00000370: 1d08 4dbd faa0 893d 80d1 e43d 6f6e 083c
00000380: b124 c73d f10f 513d 68e8 c4bd eeab 53bd
00000390: 998a 9cbc adef d9bd 2c0d 333d 57f0 e83c
000003a0: 5c43 a6bd 907a 9fbc 4287 cebd 7f13 fd3d
000003b0: 6578 a13d 6400 45bd aedb f83d 8c63 98bd
000003c0: 8351 cd3d b1eb 1abd c168 323d aa1f 9f3d
000003d0: df52 893d c065 eb3c bcac c6bc 755f 283c
000003e0: d9f6 c23d c876 5bbd a25f 34bd 301b ca3c
000003f0: 8669 92bd a8df 07bd ed1f 9b3c d62a ce3d

lstm.bias_ih_l0 f4 [256]
-0.100095384 -0.122172594 -0.08844791 -0.050287534 0.029165791 0.11016676 -0.045536514 0.1264329
0.07932841 0.056715053 0.06522708 -0.0260663 -0.02880162 -0.030012129 -0.11354002 -0.03266171
-0.05193721 -0.11160333 -0.08244684 0.1240998 0.0155787 0.10142616 0.09118691 0.060349777
-0.08751186 -0.04380258 0.060635783 0.04521829 -0.096114166 0.13879676 0.10294879 0.062541574
-0.06491547 0.07006992 0.07199228 0.06803923 -0.066680074 0.007589178 -0.101229474 -0.0656616
-0.07404429 0.105607964 -0.08070527 0.032515086 0.0032823763 -0.013830421 0.04367417 -0.08664932
0.058672242 0.10009827 -0.102958545 0.07718962 -0.016360743 0.03573117 -0.014934166 0.045375664
0.0681173 -0.03254826 -0.11641748 -0.008916163 0.09921515 -0.11043624 0.10087063 -0.0012405358
-0.045266915 0.018450912 0.074909456 -0.10244748 -0.10096338 -0.114961475 0.06796958 -0.1103037
0.09015599 0.08798088 0.041042026 0.108274564 -0.021644387 0.007533493 0.05617237 -0.077703506
0.120887496 -0.05868654 -0.09074153 0.05852423 -0.04399944 0.10776469 -0.00436673 0.09953626
-0.021189282 -0.073758624 -0.012706015 -0.0035985496 0.05435617 0.043252148 -0.05677713 -0.08336174
-0.11271305 0.13695009 0.02346315 0.011216716 0.09154846 0.031914767 0.016613837 -0.076103956
-0.09228382 -0.10385316 0.004086493 -0.023470495 -0.07755442 0.07410207 0.0005528653 0.04740981
-0.03855189 -0.035076838 -0.048548453 -0.014082443 -0.034583718 -0.056510672 0.12537026 0.11123516
0.11651351 0.12456332 -0.052309483 0.06857996 -0.035319235 0.12548022 -0.028429776 -0.09288327
-0.07376233 0.0039083976 -0.1216726 0.0038634758 0.01256553 -0.10023252 0.09693677 -0.034225006
0.12916838 -0.02239483 0.09000279 0.11895641 -0.09325396 0.05051582 0.10025439 0.0113536855
-0.124863245 -0.032124244 0.02008888 -0.10773504 0.09927454 -0.06797328 -0.060994778 0.06977258
-0.12489256 0.06766825 -0.015370735 0.028024944 -0.12054603 -0.10153686 -0.090072826 -0.11307126
0.12385303 -0.026496304 0.035433978 0.02230031 -0.06641943 -0.10828777 -0.09542189 0.05288038
-0.03178322 0.0657637 0.099140495 -0.004691209 0.006047996 -0.009451372 -0.08217512 0.08183181
-0.09954435 -0.004563987 0.13745335 -0.05519682 0.03250345 0.0706792 -0.09873124 0.036909744
-0.051466882 -0.081863604 -0.102870226 0.088820845 -0.062143046 0.106003635 0.13381062 0.017303659
0.11698705 -0.029489055 0.08276995 0.0024085362 -0.07755013 -0.053610463 -0.08626997 0.04632515
0.009566598 0.113124155 0.046154052 -0.034545384 -0.012918677 0.09472824 -0.063143395 0.1307036
0.011116716 0.019350648 0.12771827 -0.09571778 0.09189826 0.104662314 0.12116508 0.055632036
-0.026114753 -0.08315569 0.107958384 0.045113474 0.103574395 0.09493215 -0.066667 0.09756425
0.020582525 -0.099997796 0.008197346 -0.050631773 -0.049542356 -0.037253376 -0.11980144 -0.08225688
0.10171416 -0.061844725 -0.010288548 -0.029210448 0.101701014 0.055137746 -0.041238956 0.011057672
-0.05540296 0.021471333 -0.050018508 -0.059453838 -0.035004936 -0.08120257 -0.04157214 0.057695404
-0.023058744 -0.09191043 -0.0911373 -0.060969498 0.091079585 -0.07896953 0.0020676875 0.071360074
00000000: cffe ccbd a035 fabd 2e24 b5bd 4dfa 4dbd
00000010: 19ed ee3c 1c9f e13d 7f84 3abd a077 013e
00000020: ef76 a23d 0b4e 683d c695 853d fe88 d5bc
00000030: 60f1 ebbc ffdb f5bc ac87 e8bd 49c8 05bd
00000040: 1dbc 54bd 4990 e4bd e4d9 a8bd 0928 fe3d
00000050: ce3d 7f3c 85b8 cf3d 34c0 ba3d 5431 773d
00000060: 6b39 b3bd 566a 33bd 3a5d 783d d036 393d
00000070: 81d7 c4bd bd20 0e3e d1d6 d23d cc15 803d
00000080: 67f2 84bd d180 8f3d b070 933d 2758 8b3d
00000090: 908f 88bd a4ae f83b 6651 cfbd 9779 86bd
000000a0: 88a4 97bd fd48 d83d ce48 a5bd 8a2e 053d
000000b0: 231d 573b fd98 62bc b0e3 323d 3375 b1bd
000000c0: 4e52 703d 5200 cd3d eedb d2bd 9715 9e3d
000000d0: f706 86bc d95a 123d 6fae 74bc d5db 393d
000000e0: 1581 8b3d 5351 05bd 4a6c eebd 1915 12bc
000000f0: 5031 cb3d 652c e2bd 4395 ce3d 7999 a2ba
00000100: cd69 39bd 5e26 973c 216a 993d fccf d1bd
00000110: e3c5 cebd ec70 ebbd a333 8b3d e8e6 e1bd
00000120: b4a3 b83d 522f b43d af1b 283d 0ebf dd3d
00000130: 924f b1bc 85db f63b 0015 663d 0423 9fbd
00000140: dd93 f73d 4c61 70bd b2d6 b9bd 1ab7 6f3d
00000150: c238 34bd bcb3 dc3d c916 8fbb abd9 cb3d
00000160: 2595 adbc c30e 97bd e42c 50bc a5d5 6bbb
00000170: 93a4 5e3d 2a29 313d 238f 68bd 8fb9 aabd
00000180: 19d6 e6bd a53c 0c3e cb35 c03c 51c6 373c
00000190: c27d bb3d 0fb9 023d be19 883c 64dc 9bbd
000001a0: 4dff bcbd f7b0 d4bd fde7 853b 3245 c0bc
000001b0: dad4 9ebd d3c2 973d 2aee 103a ca30 423d
000001c0: 96e8 1dbd bbac 0fbd beda 46bd 0cba 66bc
000001d0: a8a7 0dbd bc77 67bd 1061 003e 42cf e33d
000001e0: a39e ee3d 0e1b ff3d 7842 56bd a673 8c3d
000001f0: e7aa 10bd e37d 003e 90e5 e8bc 9539 bebd
00000200: b410 97bd 0412 803b 7c2f f9bd 5e32 7d3b
00000210: a7df 4d3c b546 cdbd c986 c63d 852f 0cbd
00000220: b744 043e 5d75 b7bc 6253 b83d 6b9f f33d
00000230: effb bebd ade9 4e3d 2c52 cd3d cf04 3a3c
00000240: 4db8 ffbd b694 03bd 6f91 a43c 30a4 dcbd
00000250: 7350 cb3d 9335 8bbd a9d5 79bd ede4 8e3d
00000260: acc7 ffbd a795 8a3d 89d5 7bbc 9194 e53c
00000270: d6e0 f6bd 8ff2 cfbd 1a78 b8bd e891 e7bd
00000280: a8a6 fd3d c70e d9bc 3823 113d 24af b63c
00000290: e906 88bd fac5 ddbd 8d6c c3bd 1999 583d
000002a0: 1f2f 02bd 1eaf 863d 2c0a cb3d b7b8 99bb
000002b0: 452e c63b edd9 1abc 6e4b a8bd 7097 a73d
000002c0: e8dd cbbd 7f8d 95bb 92c0 0c3e 1016 62bd
000002d0: 5622 053d 42c0 903d 9b33 cabd ac2e 173d
000002e0: f0ce 52bd 1ba8 a7bd a0ad d2bd b4e7 b53d
000002f0: b589 7ebd 6f18 d93d a705 093e 67c0 8d3c
00000300: e896 ef3d 0893 f1bc 4b83 a93d 88d8 1d3b
00000310: 9ad2 9ebd a596 5bbd 4fae b0bd 71bf 3d3d
00000320: 38bd 1c3c a3ad e73d 080c 3d3d 767f 0dbd
00000330: dca8 53bc e100 c23d 5351 81bd 2ad7 053e
00000340: e322 363c 4085 9e3c 94c8 023e af07 c4bd
00000350: 2835 bc3d 3259 d63d 6625 f83d 6bde 633d
00000360: 9bee d5bc 884d aabd 4919 dd3d e8c8 383d
00000370: d01e d43d c96b c23d b588 88bd c4cf c73d
00000380: af9c a83c a5cb ccbd 294e 063c 4363 4fbd
00000390: edec 4abd ff96 18bd 755a f5bd 4c76 a8bd
000003a0: 834f d03d e550 7dbd 4c91 28bc c04a efbc
000003b0: 9f48 d03d 1ed8 613d 2eea 28bd 3d2b 353c
000003c0: 37ee 62bd a6e4 af3c 35e0 4cbd de85 73bd
000003d0: 5661 0fbd 884d a6bd 8c47 2abd 0452 6c3d
000003e0: b1e5 bcbc 893b bcbd 31a6 babd 27bb 79bd
000003f0: ef87 ba3d c7ba a1bd 0a82 073b 3b25 923d

lstm.bias_hh_l0 f4 [256]
-0.0994047 0.022869285 0.060347505 0.12164762 0.053747483 -0.032046087 0.11717031 -0.0013194474
0.010129271 0.051419925 -0.0813398 0.09839655 0.038091596 0.09842651 0.039795436 -0.09802436
0.067027554 -0.014895316 0.10088381 0.06306031 0.0305517 0.05432621 0.09548453 0.053043164
0.11896407 0.1214479 -0.084477745 -0.071331665 -0.087702274 -0.07910291 0.06737009 0.09568482
0.019011794 -0.009669697 -0.114833936 -0.10799054 0.029010179 0.036394782 0.041005656 -0.0070903264
0.030633643 0.03587233 -0.04211173 0.0931936 -0.0042558033 -0.008486611 -0.06957754 0.096972704
0.110995494 0.03912072 -0.06350664 -0.058720686 -0.12425988 0.003034732 0.07279091 -0.054734375
-0.06557869 -0.06236055 0.01576512 0.07584576 -0.078303374 -0.057917725 0.059778664 0.09291397
0.09318972 -0.029894324 0.00029008702 -0.06404062 0.044528108 0.104645036 -0.013842418 -0.07026892
0.13430302 0.06375873 0.058851965 0.10364867 -0.03527157 0.004966499 0.030783327 0.10628779
0.07492076 -0.021026641 0.10861929 0.019233199 -0.04665089 0.0069079567 0.13750349 -0.09938536
0.119964324 -0.09477927 -0.06287943 -0.09465013 0.08990887 0.04180803 -0.08362763 -0.033820834
0.09591578 0.13379982 0.0028619873 0.04580997 -0.048497807 0.056690253 0.03232938 -0.10739715
0.1128355 0.097113244 0.11158852 0.0078091105 -0.027165104 0.086909615 -0.07736622 -0.103634715
0.008368925 0.05317568 0.044335306 0.026359268 0.027580077 -0.0060324534 -0.062843874 -0.098027974
-0.027417764 0.067232825 -0.06295138 -0.04247359 -0.00955797 0.1106309 0.0790045 -0.060066763
-0.020557882 -0.11509757 0.017486956 -0.06791 0.06279631 0.03751135 0.006462787 0.0056593553
0.10178516 -0.008520249 0.080572374 0.052456427 0.00470666 -0.0177844 -0.08449964 -0.0018403536
-0.12146628 -0.008989307 -0.08116537 0.09581869 -0.10083505 -0.072636485 0.04137114 -0.07821104
-0.039968785 -0.07506443 -0.00250649 0.09111815 0.11306754 -0.0013535982 -0.08270392 0.01934655
0.04147134 0.04823348 0.09967685 -0.036231924 0.109613724 -0.115489446 0.071499094 -0.058665417
-0.09810473 0.112265155 0.10878811 0.027558103 -0.0041462495 -0.06107799 -0.06269424 -0.015295062
-0.008616201 0.12422346 0.04307041 -0.052573428 0.068595 -0.093076326 0.027090877 0.08955795
-0.031855263 0.025827805 -0.09192866 0.1271682 0.09391922 0.10200609 0.04569056 0.09715159
0.10010972 -0.007957353 0.0185487 -0.098987974 0.061515555 0.010841615 -0.08637104 0.10023908
-0.007456952 0.017358698 0.0045309914 0.112619884 0.07362887 0.13772312 -0.1114771 -0.09866478
0.05783538 -0.039287955 -0.102458134 0.034344357 -0.040746 -0.021462075 0.100024395 -0.0054086745
0.12245389 -0.030059688 -0.0010319311 0.12047123 -0.08904899 0.04516102 -0.055970397 -0.061147712
-0.078654714 0.12667225 -0.08342013 0.12938178 -0.093219645 0.11303762 -0.11300191 -0.113666266
0.10679877 0.0578576 0.09233682 -0.12998107 0.06799281 0.09439707 -0.07629707 -0.027621303
0.08419391 0.018903892 0.058880057 0.041461617 -0.014000837 0.030760849 0.0591801 0.08940439
-0.08463823 0.08649975 -0.103570744 0.08830279 0.036132563 0.022693863 0.077509664 -0.067623906
00000000: b194 cbbd 5e58 bb3c f22e 773d 6322 f93d
00000010: 5226 5c3d c242 03bd fdf6 ef3d 4ff1 acba
00000020: 3ef5 253c b39d 523d 7b95 a6bd 2184 c93d
00000030: ef05 1c3d d793 c93d 8a00 233d ffc0 c8bd
00000040: be45 893d 7c0b 74bc 2c9c ce3d c425 813d
00000050: 8f47 fa3c 2985 5e3d 658d c33d ca43 593d
00000060: 6fa3 f33d adb9 f83d ab02 adbd 5616 92bd
00000070: 409d b3bd b500 a2bd 54f9 893d 67f6 c33d
00000080: 9fbe 9b3c a66d 1ebc 0e2e ebbd 252a ddbd
00000090: c1a6 ed3c b212 153d 8cf5 273d f855 e8bb
000000a0: 68f3 fa3c ddee 123d 597d 2cbd 49dc be3d
000000b0: 4474 8bbb 6d0b 0bbc ab7e 8ebd a099 c63d
000000c0: 9b51 e33d 0c3d 203d c50f 82bd 1a85 70bd
000000d0: f77b febd 5be2 463b 6713 953d 2731 60bd
000000e0: 1f4e 86bd c76d 7fbd da25 813c 0655 9b3d
000000f0: 855d a0bd 233b 6dbd 79da 743d ae49 be3d
00000100: 40da be3d f1e4 f4bc d216 9839 bb27 83bd
00000110: 1b63 363d 2350 d63d 4fcb 62bc 27e9 8fbd
00000120: bb86 093e f093 823d c20e 713d c145 d43d
00000130: ec78 10bd 03be a23b 512d fc3c 6aad d93d
00000140: 0e70 993d 1040 acbc ca73 de3d f18e 9d3c
00000150: 0115 3fbd 245c e23b b7cd 0c3e 8d8a cbbd
00000160: dbaf f53d a21b c2bd eec6 80bd edd7 c1bd
00000170: 2422 b83d e63e 2b3d f644 abbd b787 0abd
00000180: 7e6f c43d d202 093e 2e90 3b3b 3ca3 3b3d
00000190: a3a5 46bd 0a34 683d d06b 043d 09f3 dbbd
000001a0: 4c16 e73d 4fe3 c63d 8688 e43d 91e3 ff3b
000001b0: 5a89 debc abfd b13d 2e72 9ebd 703e d4bd
000001c0: d11d 093c bece 593d f098 353d 64ef d73c
000001d0: 9def e13c e3ab c5bb 4ab4 80bd e4c2 c8bd
000001e0: 389b e0bc 5db1 893d a7ec 80bd c9f8 2dbd
000001f0: 0899 1cbc 7492 e23d 1ccd a13d 9108 76bd
00000200: 0169 a8bc 46b8 ebbd ce40 8f3c 6614 8bbd
00000210: 5a9b 803d 80a5 193d c9c5 d33b 1d72 b93b
00000220: bd74 d03d 8498 0bbc 2103 a53d 8ddc 563d
00000230: 533a 9a3b 97b0 91bc 260e adbd 0538 f1ba
00000240: 50c3 f8bd e347 13bc 083a a6bd 973c c43d
00000250: 9b82 cebd 70c2 94bd c974 293d 1c2d a0bd
00000260: 4fb6 23bd 61bb 99bd ed43 24bb 279c ba3d
00000270: f48f e73d 386b b1ba ac60 a9bd a87c 9e3c
00000280: dadd 293d 7890 453d 6023 cc3d ed67 14bd
00000290: 297d e03d bb85 ecbd 1e6e 923d 264b 70bd
000002a0: 22eb c8bd 46eb e53d 4dcc de3d 88c1 e13c
000002b0: 43dd 87bb ea2c 7abd d665 80bd 2498 7abc
000002c0: f72a 0dbc df68 fe3d 996a 303d 3c57 57bd
000002d0: 897b 8c3d cd9e bebd b0ed dd3c 296a b73d
000002e0: aa7a 02bd d594 d33c 1845 bcbd 6138 023e
000002f0: b858 c03d 92e8 d03d 0626 3b3d 6af7 c63d
00000300: 5306 cd3d 8f5f 02bc 71f3 973c 35ba cabd
00000310: bcf7 7b3d 07a1 313c 4de3 b0bd 264a cd3d
00000320: 7259 f4bb d433 8e3c b678 943b 41a5 e63d
00000330: bcca 963d 4a07 0d3e 1b4e e4bd c310 cabd
00000340: cbe4 6c3d 68ec 20bd 92d5 d1bd abac 0c3d
00000350: 47e5 26bd 3cd1 afbc 97d9 cc3d 403b b1bb
00000360: 1bc9 fa3d bc3f f6bc dd41 87ba 9fb9 f63d
00000370: 515f b6bd c3fa 383d 3741 65bd 0676 7abd
00000380: b915 a1bd 5fb6 013e 2cd8 aabd a87c 043e
00000390: f1e9 bebd 4580 e73d 8c6d e7bd dcc9 e8bd
000003a0: 50b9 da3d 17fc 6c3d 161b bd3d c219 05be
000003b0: d03f 8b3d 4053 c13d a341 9cbd 1246 e2bc
000003c0: db6d ac3d 56dc 9a3c 372c 713d a8d3 293d
000003d0: c463 65bc 2dfe fb3c d566 723d a619 b73d
000003e0: cf56 adbd c826 b13d e61c d4bd 18d8 b43d
000003f0: bdff 133d 7be8 b93c 63bd 9e3d 677e 8abd

lstm.weight_ih_l1 f4 [256, 64]
0.024354894 -0.011062636 0.02434008 0.08806995 -0.040743582 0.078320615 0.067164294 -0.016803022
-0.125061 -0.07381199 0.045561615 -0.08260379 -0.05367603 0.03544836 0.032526407 0.025140582
-0.06823941 0.065531105 0.03797179 -0.06828146 0.05063845 -0.0248227 -0.014351801 0.01164533
0.05813019 9.692567e-05 -0.05121718 0.028342146 0.02523873 -0.006647267 0.12180079 -0.048345406
-0.12902151 -0.076443106 0.03688793 0.11561006 -0.10683512 -0.031456962 -0.049551588 0.07463619
-0.08184114 0.05053182 -0.10458518 -0.09463493 -0.027456228 0.055066787 -0.07699133 -0.040610563
-0.032276623 -0.0779821 -0.0008671567 0.099262856 -0.039989278 -0.11689959 0.11326831 -0.086688995
-0.03530873 0.0010062014 -0.11640957 0.11479837 -0.08150655 -0.05738711 -0.03474904 0.008155975
0.09518696 0.06179432 0.07801063 0.07225766 -0.026465427 -0.038432054 0.033947147 -0.1103978
-0.012011341 -0.028562777 -0.024910558 0.018430723 -0.06101453 -0.108021915 -0.06310406 0.08165956
-0.14135267 -0.04588929 0.10091761 -0.028226059 0.033010308 0.026050946 0.009952421 0.11260385
0.09591096 -0.02423596 -0.03232564 0.13877836 -0.13058768 -0.09310839 0.07279876 -0.071307585
0.053773414 -0.02684294 -0.09600635 0.12764876 0.057235625 -0.069114655 0.021004528 -0.021075066
-0.040603265 0.081029944 -0.017080171 -0.02387922 -0.1180187 -0.012841038 0.08846603 0.04843532
0.030279962 0.055952568 0.10203192 -0.036894627 -0.10852392 -0.07989794 0.01764487 0.101592176
0.086860605 -0.03438996 -0.08348879 0.12868495 -0.1386395 0.1434229 -0.09854122 -0.023241397
0.04326097 0.019140204 0.094791435 -0.0030917122 -0.10946747 0.084579736 -0.014080797 0.11963648
0.092703536 -0.0038975966 0.07654641 -0.050110616 -0.11826851 -0.10474832 -0.0368999 -0.105301924
-0.12736852 0.052508637 -0.048946176 0.059475042 -0.02384346 -0.069574066 -0.13258013 -0.10132573
0.069821015 0.042652454 -0.02276351 -0.014404042 -0.11849946 0.13351183 0.112263344 -0.060782142
0.031281035 -0.08778815 -0.091277935 0.013703941 -0.06525623 -0.12795535 -0.06044852 -0.108089596
0.051631924 -0.073756054 0.11300776 0.068105295 0.10846119 -0.11856297 0.081077635 0.09312466
0.0012345458 0.002784528 0.072997816 0.021150537 -0.040073633 -0.13398859 -0.09235144 0.07464031
0.08014062 -0.0052030236 -0.06397264 0.071084425 -0.039365735 0.054756887 -0.07357963 0.06971168
-0.051393703 0.032010846 0.030441837 0.1240692 0.10412926 -0.10763703 0.05716226 -0.08377511
-0.066680856 0.054916415 -0.07970167 0.10236289 0.042403262 0.016146006 0.07237408 -0.105813645
0.022876766 0.050005272 -0.050113756 -0.036023706 0.060907237 0.10810454 -0.04311703 0.06953932
0.07388952 -0.063860014 -0.094677284 -0.017774805 0.08107356 -0.090207815 -0.08253901 0.08503798
-0.07564399 -0.09205399 -0.0022590999 0.11970951 0.07906975 0.06989008 0.021870028 -0.06581224
-0.09962593 0.06152616 0.029197495 0.041366428 -0.0399673 -0.11844011 0.009473197 -0.01802263
-0.0061959885 0.0069708163 -0.07918404 -0.07184763 -0.041704446 0.05660604 -0.07298771 0.11127215
-0.11856216 -0.074088335 0.040406402 -0.12711237 -0.063942574 0.062112782 -0.089571536 0.03105464
00000000: ea83 c73c 0f40 35bc d964 c73c 055e b43d
00000010: bee2 26bd 8f66 a03d 6f8d 893d 7ea6 89bc
00000020: fe0f 00be be2a 97bd d19e 3a3d 2d2c a9bd
00000030: 66db 5bbd 4d32 113d 693a 053d 9ff3 cd3c
00000040: 1bc1 8bbd 2c35 863d 4f88 1b3d 26d7 8bbd
00000050: 436a 4f3d fa58 cbbc d123 6bbc 0ecc 3e3c
00000060: ec19 6e3d 9344 cb38 1bc9 51bd ca2d e83c
00000070: 74c1 ce3c 51d1 d9bb b172 f93d d505 46bd
00000080: 371e 04be 348e 9cbd cc17 173d f8c4 ec3d
00000090: 5fcc dabd 04d9 00bd 9bf6 4abd dcda 983d
000000a0: 549c a7bd 74fa 4e3d c130 d6bd f5cf c1bd
000000b0: e2eb e0bc b68d 613d a1ad 9dbd 4357 26bd
000000c0: 7e34 04bd 14b5 9fbd e751 63ba 534a cb3d
000000d0: cccb 23bd 0d69 efbd 37f9 e73d 008a b1bd
000000e0: e39f 10bd 84e2 833a 2468 eebd 681b eb3d
000000f0: e8ec a6bd bf0e 6bbd 0255 0ebd a3a0 053c
00000100: 62f1 c23d 0a1c 7d3d 0ac4 9f3d d3fb 933d
00000110: 06ce d8bc ee6a 1dbd 2a0c 0b3d 3e18 e2bd
00000120: 37cb 44bc 7cfc e9bc 3a11 ccbc 07fc 963c
00000130: 5fea 79bd 983a ddbd b43c 81bd 213d a73d
00000140: c1be 10be 68f6 3bbd e4ad ce3d 563a e7bc
00000150: d135 073d cb68 d53c 7b0f 233c d99c e63d
00000160: f76c c43d 7e8a c6bc e467 04bd ea1b 0e3e
00000170: c7b8 05be 9daf bebd 8417 953d b609 92bd
00000180: 8341 5c3d bae5 dbbc fa9e c4bd 5bb6 023e
00000190: e76f 6a3d fc8b 8dbd b011 ac3c 9ea5 acbc
000001a0: 9c4f 26bd 07f3 a53d b7eb 8bbc 5b9e c3bc
000001b0: cab3 f1bd 3863 52bc ae2d b53d 1d64 463d
000001c0: af0d f83c 852e 653d 1cf6 d03d d21e 17bd
000001d0: ca41 debd 88a1 a3bd f98b 903c 8f0f d03d
000001e0: f9e3 b13d 7ddc 0cbd 2cfc aabd fdc5 033e
000001f0: 83f7 0dbe 74dd 123e fbcf c9bd be64 bebc
00000200: 6a32 313d ebcb 9c3c 0322 c23d 539e 4abb
00000210: 7b30 e0bd 2438 ad3d 25b3 66bc f903 f53d
00000220: 5adb bd3d d26e 7fbb 5dc4 9c3d ca40 4dbd
00000230: c336 f2bd 4a86 d6bd 5924 17bd 89a8 d7bd
00000240: e56c 02be 4c13 573d c97b 48bd 1a9c 733d
00000250: 5c53 c3bc d97c 8ebd 16c3 07be dd83 cfbd
00000260: 52fe 8e3d 57b4 2e3d 8a7a babc eefe 6bbc
00000270: d8af f2bd 53b7 083e 53ea e53d b2f6 78bd
00000280: 8b20 003d 46ca b3bd edef babd 7f86 603c
00000290: 0fa5 85bd ba06 03be de98 77bd 145e ddbd
000002a0: ff7b 533d 6a0d 97bd 9d70 e73d ca7a 8b3d
000002b0: e620 de3d 24d1 f2bd 080c a63d 24b8 be3d
000002c0: 7cd0 a13a a17c 363b e17f 953d e443 ad3c
000002d0: 4024 24bd 4e34 09be c022 bdbd 05dd 983d
000002e0: c420 a43d 207e aabb 1604 83bd b694 913d
000002f0: f73d 21bd c248 603d ebb0 96bd ffc4 8e3d
00000300: 3482 52bd ce1d 033d 2961 f93c fe17 fe3d
00000310: b941 d53d ce70 dcbd f922 6a3d 4992 abbd
00000320: f98f 88bd 09f0 603d a13a a3bd a3a3 d13d
00000330: 0baf 2d3d a144 843c dd38 943d d3b4 d8bd
00000340: 0e68 bb3c 54d2 4c3d 1544 4dbd 988d 13bd
00000350: de79 793d ea65 dd3d 7c9b 30bd a26a 8e3d
00000360: 6353 973d 0ac9 82bd 2ae6 c1bd 789c 91bc
00000370: e509 a63d e0be b8bd 360a a9bd 6428 ae3d
00000380: 3ceb 9abd cd86 bcbd 680d 14bb 422a f53d
00000390: 52ef a13d 8822 8f3d c628 b33c 91c8 86bd
000003a0: ae08 ccbd db02 7c3d 962f ef3c d86f 293d
000003b0: c0b4 23bd ba90 f2bd 7835 1b3c 32a4 93bc
000003c0: b807 cbbb 726b e43b 3e2b a2bd da24 93bd
000003d0: 48d2 2abd bcdb 673d 957a 95bd a7e2 e33d
000003e0: b8d0 f2bd a0bb 97bd 2f81 253d bf29 02be
000003f0: 53f4 82bd f969 7e3d 4871 b7bd 4d66 fe3c

lstm.weight_hh_l1 f4 [256, 64]
-0.029507851 -0.102316536 0.08670165 -0.0492807 0.09418343 0.10884354 -0.10558174 -0.07309326
-0.07545445 -0.10241277 -0.11351902 0.106464505 0.019604575 0.06593731 -0.07991586 -0.058708526
-0.1070721 0.045417808 -0.08994342 -0.061771147 -0.04035748 -0.08909315 0.06447407 -0.070286594
0.08894404 -0.06964335 -0.054391228 0.09452014 -0.023736972 -0.08999567 0.016803347 0.08787771
0.010867549 0.045973737 -0.00044808525 -0.08578252 0.02573173 -0.058991313 0.058919586 0.04574685
-0.04624595 0.017113715 0.089420274 -0.05316454 0.01380346 0.020324638 0.11072821 -0.09107135
-0.04504685 0.010933632 -0.08872802 -0.087783344 -0.11301486 -0.052817877 0.0477104 0.071773656
0.095441535 -0.11135147 0.036632597 0.12978733 -0.041741766 0.08296453 -0.10643857 0.10435105
0.051447272 0.003199432 -0.045404583 0.10131358 -0.11841724 -0.0025753947 0.014367023 -0.090588234
0.02942586 0.027885117 0.07435538 0.055002466 0.029162306 0.070977435 -0.003063977 -0.07419042
-0.02604365 -0.022897614 -0.06234271 0.109528996 0.073181294 0.10772175 0.11430143 -0.028435545
-0.04277102 0.017056268 0.016381843 -0.022228222 -0.10165415 -0.10033742 0.059578005 -0.09905534
0.11338427 0.0020531395 0.019730935 0.09716673 0.043479234 0.06840332 0.051623333 0.06708262
0.034762796 0.007819028 -0.08408606 -0.13273533 -0.11062836 0.10576185 0.045287505 -0.016489852
-0.12054236 -0.018574605 -0.00045609399 -0.084297925 -0.05367901 -0.0031913603 -0.06384389 -0.119114086
-0.07459283 0.06257379 -0.098750964 0.038113933 0.07521876 0.057976194 -0.08102694 0.103225924
0.048297536 0.086904146 0.07276292 0.01944124 -0.10680626 0.03669962 -0.017502658 0.031355
0.084610336 -0.13102458 -0.11364283 -0.010333904 -0.016207064 0.07151211 0.0037493738 -0.015789358
-0.012325581 0.07305183 -0.10644961 0.041722383 -0.06931666 0.059758313 0.011605024 -0.121719755
0.06104031 -0.07659177 0.020013709 0.009013135 0.027242944 0.10973011 0.087920904 0.123180665
-0.056372054 -0.03580492 -0.022540351 0.029818298 -0.022825727 0.10798813 0.12019676 0.08663536
0.060234025 0.014386762 0.12791178 -0.03998242 0.07537749 -0.09667859 0.048359927 -0.121413425
-0.059660237 -0.0533618 -0.040608637 -0.08232256 0.005578231 0.059441116 0.077883326 0.104944214
-0.03863097 -0.038970474 0.0060423166 0.03421968 0.0041827443 -0.030134609 0.022884963 -0.059523467
0.06481658 0.028785454 0.07413419 -0.083566904 -0.07241432 -0.11549999 0.10365188 -0.08281617
0.0403151 0.11586846 0.09160643 0.08600971 0.008477674 -0.087236516 -0.11767813 -0.07189836
0.009884418 0.058136605 -0.08619009 -0.08893997 0.08464975 0.011830957 -0.07051274 0.11842118
0.016503206 -0.05309392 0.0011228316 -0.1226868 -0.059541833 0.100242846 0.035459235 -0.07953724
0.04209356 -0.052183915 -0.083344 -0.10202033 0.08833532 0.06021312 -0.0916145 -0.10027365
0.022512987 -0.095467195 0.04546901 -0.09510522 0.02274974 0.050635505 -0.020391466 0.02615467
-0.06669749 -0.113305956 0.04950665 -0.016681079 0.01602761 -0.0017704525 -0.09940602 -0.0009660849
0.07624966 -0.00018037263 -0.059796933 -0.0740186 0.08325584 -0.12016312 -0.0027088774 -0.077861354
00000000: 73ba f1bc 558b d1bd a290 b13d 8fda 49bd
00000010: 3ee3 c03d 5de9 de3d 3d3b d8bd ebb1 95bd
00000020: dd87 9abd c9bd d1bd a97c e8bd 100a da3d
00000030: c699 a03c 240a 873d edaa a3bd 5a78 70bd
00000040: 9e48 dbbd 0608 3a3d 4134 b8bd be03 7dbd
00000050: e34d 25bd 7876 b6bd fb0a 843d 6bf2 8fbd
00000060: 4b28 b63d 2ca1 8ebd 56c9 5ebd c693 c13d
00000070: 0a74 c2bc a64f b8bd 2ca7 893c 3bf9 b33d
00000080: ce0d 323c f54e 3c3d fcec eab9 bfae afbd
00000090: 59cb d23c e0a0 71bd aa55 713d 0d61 3b3d
000000a0: 656c 3dbd 1032 8c3c fa21 b73d 10c3 59bd
000000b0: e827 623c db7f a63c 79c5 e23d 9e83 babd
000000c0: 0c83 38bd fa22 333c 09b7 b5bd c1c7 b3bd
000000d0: 5674 e7bd 8f57 58bd fb6b 433d 11fe 923d
000000e0: da76 c33d 3d0c e4bd 100c 163d f8e6 043e
000000f0: 6af9 2abd 4fe9 a93d 77fc d9bd 01b6 d53d
00000100: 60ba 523d 90ad 513b 28fa 39bd 7f7d cf3d
00000110: bd84 f2bd f4c7 28bb a963 6b3c 5386 b9bd
00000120: 800e f13c 546f e43c a247 983d 444a 613d
00000130: cae5 ee3c 9e5c 913d 01cd 48bb 26f1 97bd
00000140: 7e59 d5bc c793 bbbc 125b 7fbd bd50 e03d
00000150: 13e0 953d 399d dc3d de16 ea3d a9f1 e8bc
00000160: aa30 2fbd 96b9 8b3c 3733 863c f617 b6bc
00000170: 0d30 d0bd b57d cdbd 1108 743d 87dd cabd
00000180: 0336 e83d f78d 063b c5a2 a13c 5aff c63d
00000190: 4817 323d 0a17 8c3d fd72 533d 9d62 893d
000001a0: 6f63 0e3d 611b 003c 5035 acbd c5eb 07be
000001b0: 1f91 e2bd ab99 d83d 647f 393d ba15 87bc
000001c0: eade f6bd c529 98bc e61f efb9 64a4 acbd
000001d0: 86de 5bbd 2426 51bb 96c0 82bd 16f2 f3bd
000001e0: 20c4 98bd b026 803d f23d cabd 5b1d 1c3d
000001f0: 4b0c 9a3d 7278 6d3d 74f1 a5bd 1d68 d33d
00000200: a3d3 453d cdfa b13d ba04 953d 3c43 9f3c
00000210: 3ebd dabd 5752 163d bc61 8fbc 1a6e 003d
00000220: 2f48 ad3d 4f2b 06be 92bd e8bd 894f 29bc
00000230: adc4 84bc f174 923d 0eb8 753b af58 81bc
00000240: 3cf1 49bc 339c 953d 4102 dabd 17e5 2a3d
00000250: e5f5 8dbd 22c5 743d 0023 3e3c 3548 f9bd
00000260: 6705 7a3d 25dc 9cbd caf3 a33c d4ab 133c
00000270: 982c df3c 2eba e03d e00f b43d 2546 fc3d
00000280: 62e6 66bd 2ea8 12bd 8ba6 b8bc 8145 f43c
00000290: 05fd babc e128 dd3d b829 f63d e16d b13d
000002a0: f4b7 763d 74b6 6b3c 4efb 023e 9bc4 23bd
000002b0: 835f 9a3d 6dff c5bd 0f15 463d 9aa7 f8bd
000002c0: 4b5e 74bd e791 5abd 3e55 26bd bb98 a8bd
000002d0: 98c9 b63b 8778 733d 4b81 9f3d feec d63d
000002e0: 823b 1ebd 819f 1fbd a0fe c53b ef29 0c3d
000002f0: 670f 893b dbdc f6bc 3f79 bb3c e1ce 73bd
00000300: 8ebe 843d 79cf eb3c abd3 973d 2025 abbd
00000310: f64d 94bd 428b ecbd 7047 d43d 869b a9bd
00000320: 7221 253d 714c ed3d 279c bb3d dc25 b03d
00000330: f1e5 0a3c 0fa9 b2bd 3b01 f1bd 733f 93bd
00000340: 41f2 213c a620 6e3d 6e84 b0bd 2926 b6bd
00000350: d95c ad3d a1d6 413c fc68 90bd ce86 f23d
00000360: bb31 873c 0379 59bd fa2b 933a 3843 fbbd
00000370: 23e2 73bd 1f4c cd3d b43d 113d 6ce4 a2bd
00000380: 4c6a 2c3d cdbe 55bd 42b0 aabd 09f0 d0bd
00000390: 26e9 b43d 08a2 763d 62a0 bbbd 455c cdbd
000003a0: 286d b83c 4e84 c3bd b63d 3a3d 87c6 c2bd
000003b0: aa5d ba3c 2d67 4f3d 010c a7bc 5242 d63c
000003c0: b298 88bd f40c e8bd 7cc7 4a3d c2a6 88bc
000003d0: 564c 833c 870e e8ba 6295 cbbd dc40 7dba
000003e0: c828 9c3d 6922 3db9 a1ed 74bd 1097 97bd
000003f0: 0a82 aa3d 1518 f6bd 6c87 31bb c675 9fbd

lstm.bias_ih_l1 f4 [256]
-0.11396237 -0.011635844 -0.069022104 0.015151775 -0.06777212 0.10277391 -0.05056098 -0.08033857
-0.026684506 0.11092973 0.10141493 -0.12107617 -0.0874339 -0.020131797 -0.029730335 -0.08401841
-0.01084739 0.088281184 0.016242225 0.055634737 0.025607003 -0.059465338 0.0014433098 0.037563946
0.07068285 0.12708244 -0.039235286 -0.030588897 0.10856528 0.08046397 -0.092134245 -0.109376736
-0.0514305 0.093089506 -0.043057982 -0.07100536 0.06361228 -0.023906317 0.06060732 -0.00071299606
0.087665305 0.00024544616 -0.03314936 -0.01900808 0.057475686 -0.07721009 0.10018052 0.033007417
-0.0766335 -0.06759178 -0.11645795 0.049350508 0.017436406 0.035895947 0.11905262 0.09269661
-0.001861135 -0.09425044 0.011064488 -0.012676946 0.07721689 -0.086674266 0.026491212 -0.021412669
-0.05619374 -0.041918766 0.05613995 -0.011185119 0.029056657 -0.11450145 -0.02883438 -0.09491826
0.08997932 -0.005029708 0.09139532 -0.10054154 0.045170117 -0.013593205 -0.113350645 0.057894614
-0.10827813 -0.05225934 0.031424206 -0.075779654 -0.11132417 -0.10613436 0.00550167 0.09443254
-0.06516439 0.115150385 -0.0888988 0.06869588 0.084308214 0.043246716 0.07888259 0.061756384
-0.02820222 -0.09288556 -0.038674895 0.020659136 0.09827045 -0.084611356 -0.00513326 -0.096605524
0.02068968 0.028691845 0.015390542 0.03177692 0.09883575 -0.037598122 -0.09479782 -0.09819851
-0.10300029 -0.034313247 0.10675646 0.13140635 -0.08202498 -0.01413152 -0.061145194 0.02570346
0.03951573 0.10262201 0.113614395 -0.08418755 0.061462913 0.019707404 0.009695397 0.051243916
0.015648693 0.12921262 0.08862877 0.06599265 -0.03345299 -0.050428774 0.027023537 0.0976888
0.06298842 0.06267487 0.112912804 0.011879075 0.061924618 -0.019882109 0.08224937 0.10770369
0.06793586 -0.056491356 0.0035684225 0.11837417 -0.048981175 -0.10232018 0.048473045 0.004376934
0.053872697 0.079522334 -0.004340604 0.057758622 0.05834644 0.073866226 0.12070305 -0.03207149
-0.07660746 -0.0059877825 -0.07158244 -0.09829576 0.121741 0.12080273 -0.034982312 -0.13566558
0.11594407 0.016550582 0.018320372 -0.011270569 0.060659982 -0.026787458 -0.04306198 -0.09401713
-0.04295968 0.108205594 0.049312767 -0.009883268 0.017112475 0.042748444 -0.06145585 -0.12723666
-0.031300213 0.026739582 -0.011227815 -0.04614975 0.074496776 0.026838247 -0.100344025 0.07239682
0.10629397 -0.046418216 -0.091023155 -0.011434917 -0.016664052 0.11668327 0.12732583 0.10866455
-0.04336544 0.12234947 0.014634337 0.009812105 -0.022613212 0.055297807 0.0022493957 0.10122231
0.11055289 0.020408155 0.1071797 0.038335547 0.019048147 -0.027467059 -0.032263774 -0.012286006
0.01685771 -0.006100734 0.022602903 0.07370186 0.0521384 -0.076215446 0.089117326 0.036795013
-8.2953826e-05 -0.06557899 -0.03774468 0.009805672 0.044702828 -0.11185684 -0.053711463 0.036895044
0.0690502 -0.057000387 -0.046450526 0.0069428473 0.08096061 0.10392683 -0.12261026 0.11247612
0.022582322 -0.10410252 -0.036994737 0.047611386 -0.034257382 -0.10901306 -0.077011205 0.08033403
-0.023648499 -0.06198098 0.05227379 0.011020472 0.050513692 0.10665221 -0.07799759 0.07965022
00000000: 1a65 e9bd 44a4 3ebc 765b 8dbd 273f 783c
00000010: 1ccc 8abd 217b d23d 0819 4fbd 8c88 a4bd
00000020: 7799 dabc 202f e33d a1b2 cf3d c8f6 f7bd
00000030: 8b10 b3bd 70eb a4bc 088d f3bc d811 acbd
00000040: 40b9 31bc c4cc b43d 6a0e 853c 40e1 633d
00000050: c7c5 d13c ed91 73bd 712d bd3a a7dc 193d
00000060: 2cc2 903d e621 023e 2eb5 20bd 9195 fabc
00000070: 7957 de3d 4bca a43d e1b0 bcbd e900 e0bd
00000080: caa8 52bd b6a5 be3d 915d 30bd 426b 91bd
00000090: 2847 823d 2ed7 c3bc 623f 783d 5be8 3aba
000000a0: de89 b33d 3aaf 8039 a0c7 07bd d5b6 9bbc
000000b0: a06b 6b3d 5320 9ebd 722b cd3d c932 073d
000000c0: 06f2 9cbd 8f6d 8abd 8181 eebd c223 4a3d
000000d0: cbd6 8e3c a107 133d dcd1 f33d b8d7 bd3d
000000e0: 54f1 f3ba 6006 c1bd d447 353c f7b2 4fbc
000000f0: e423 9e3d 4782 b1bd 1904 d93c 9f69 afbc
00000100: 682b 66bd 03b3 2bbd 01f3 653d ca41 37bc
00000110: 3a08 ee3c bc7f eabd 1436 ecbc 8164 c2bd
00000120: 1447 b83d 40d0 a4bb 782d bb3d b9e8 cdbd
00000130: 4d04 393d 09b6 5ebc 6224 e8bd e722 6d3d
00000140: edc0 ddbd e40d 56bd abb6 003d 5d32 9bbd
00000150: edfd e3bd f95c d9bd 5a47 b43b d965 c13d
00000160: e874 85bd f7d3 eb3d 9310 b6bd 6db0 8c3d
00000170: c9a9 ac3d 7823 313d 328d a13d 43f4 7c3d
00000180: 5808 e7bc c93a bebd 9169 1ebd 593d a93c
00000190: 0542 c93d b848 adbd e834 a8bb 1ed9 c5bd
000001a0: 677d a93c 290b eb3c 9d28 7c3c 8428 023d
000001b0: 666a ca3d 7d00 1abd 5c25 c2bd 4d1c c9bd
000001c0: d1f1 d2bd 0c8c 0cbd 22a3 da3d 638f 063e
000001d0: b6fc a7bd e487 67bc 6273 7abd 1090 d23c
000001e0: 3fdb 213d 7d2b d23d aaae e83d 866a acbd
000001f0: 89c0 7b3d 6c71 a13c 71d9 1e3c 24e5 513d
00000200: b031 803c 5050 043e 0083 b53d 2827 873d
00000210: 0106 09bd 678e 4ebd 7760 dd3c 1111 c83d
00000220: 1300 813d af5b 803d d43e e73d 74a0 423c
00000230: aba4 7d3d cedf a2bc 5c72 a83d c193 dc3d
00000240: f521 8b3d 7b63 67bd 32dc 693b 286e f23d
00000250: 7ca0 48bd 3e8d d1bd ac8b 463d 626c 8f3b
00000260: 9ea9 5c3d 9bdc a23d a03b 8ebb 4e94 6c3d
00000270: adfc 6e3d 2d47 973d 2933 f73d 655d 03bd
00000280: 5fe4 9cbd 2935 c4bb d099 92bd 4a4f c9bd
00000290: 5853 f93d 6c67 f73d 9d49 0fbd ebeb 0abe
000002a0: 1674 ed3d 1695 873c 9b14 963c 31a8 38bc
000002b0: 9a76 783d 5f71 dbbc c261 30bd 0e8c c0bd
000002c0: 7df6 2fbd e59a dd3d 2ffc 493d 6eed 21bc
000002d0: 762f 8c3c fe18 2f3d 21b9 7bbd 544a 02be
000002e0: a734 00bd f80c db3c dff4 37bc 8507 3dbd
000002f0: c491 983d e2db db3c 2b81 cdbd c944 943d
00000300: a7b0 d93d 0721 3ebd 596a babd 8559 3bbc
00000310: 0d83 88bc a3f7 ee3d b461 023e 858b de3d
00000320: f69f 31bd 5c92 fa3d dcc4 6f3c f4c2 203c
00000330: 583f b9bc f47f 623d 996a 133b a44d cf3d
00000340: 8e69 e23d 012f a73c 0881 db3d bc05 1d3d
00000350: dc0a 9c3c 9902 e1bc 0527 04bd 3e4b 49bc
00000360: 2e19 8a3c abe8 c7bb b929 b93c 00f1 963d
00000370: 138f 553d d816 9cbd 2583 b63d 5eb6 163d
00000380: 7ff7 adb8 474e 86bd 2a9a 1abd f8a7 203c
00000390: 501a 373d 3315 e5bd 8d00 5cbd 421f 173d
000003a0: 316a 8d3d 3d79 69bd e842 3ebd d380 e33b
000003b0: adce a53d 97d7 d43d 171b fbbd e159 e63d
000003c0: 90fe b83c b433 d5bd cb87 17bd 2804 433d
000003d0: 7851 0cbd 3d42 dfbd 0db8 9dbd 2b86 a43d
000003e0: 7fba c1bc c5df 7dbd 0b1d 563d 368f 343c
000003f0: 72e7 4e3d 796c da3d 33bd 9fbd a81f a33d
